Assets/Models/AnimalRun.onnx (onnx, 94374 bytes, 15 tensors)

discrete_act_size_vector f4 [1, 3]
0	0x40400000	3.0
1	0x40400000	3.0
2	0x40000000	2.0

network_body.observation_encoder.processors.0.normalizer.running_mean f4 [18]
0	0x3ee55b16	0.44796056
1	0x3f4576e3	0.7713453
2	0x3ed0cca8	0.4078114
3	0x3f406405	0.7515262
4	0x3eda28be	0.4260921
5	0x3f416578	0.75545454
6	0x3ecea480	0.4035988
7	0x3f3df9bc	0.7420919
8	0x3ee54857	0.44781753
9	0x3f448b60	0.7677517
10	0x3ece91c3	0.40345582
11	0x3f3e9583	0.74446887
12	0x3edfa3d3	0.43679675
13	0x3f42bf43	0.7607309
14	0x3ed0dfef	0.40795848
15	0x3f40ed31	0.75361925
16	0x3ed0dfef	0.40795848
17	0x3f40ed31	0.75361925

network_body.observation_encoder.processors.1.normalizer.running_mean f4 [6]
0	0x3ec832da	0.39101297
1	0x3f7fff05	0.99998504
2	0xbf6ba9e7	-0.92056125
3	0x3fd14ea3	1.6352123
4	0x3f800395	1.0001093
5	0xbf2488b7	-0.6427111

network_body._body_endoder.seq_layers.0.weight f4 [128, 24]
0	0x3e8b468a	0.27202255
1	0xbec3da3c	-0.38252437
2	0x3db99456	0.09061496
3	0xbc67af3c	-0.0141409
4	0xbe1f8663	-0.15578608
5	0x3ead8462	0.33890063
6	0xbe1b1c9a	-0.1514763
7	0x3d505b21	0.050868157
8	0xbe5fe1e0	-0.21863508
9	0x3ed717b0	0.4201026
10	0x3e2b1a0d	0.16709156
11	0x3ec66850	0.3875146
12	0x3bfcf673	0.0077198087
13	0xbcad94b1	-0.021189066
14	0x3dc0bd70	0.09411132
15	0xbea81e32	-0.32835537
16	0xbeb5a5d0	-0.35478067
17	0xbe84665b	-0.2585934
18	0xbda5c7c6	-0.080947444
19	0x3eadac0c	0.33920324
20	0x3e38e05c	0.18054336
21	0x3ec0607d	0.37573615
22	0x3de3b659	0.111187644
23	0x3e7ae195	0.24500115
24	0x3e68cfd1	0.22735526
25	0x3dd061a8	0.101748765
26	0x3eb08da0	0.3448305
27	0x3bfcdc05	0.007716658
28	0xbeb3bc88	-0.35104775
29	0xbec2fc5e	-0.38083166
30	0x3e708630	0.23488688
31	0xbd9a1cec	-0.07525048
32	0x3eaea581	0.34110644
33	0xbe1fb925	-0.15597971
34	0x3eb87cfd	0.36032858
35	0x3d75dd5f	0.06002557
36	0x3f0a4cca	0.5402342
37	0x3ce82d7c	0.028342001
38	0x3dcccb34	0.099996954
39	0xbb45b935	-0.0030170206
40	0x3ea4d7ba	0.32195836
41	0x3e8c380e	0.27386516
42	0x3e32a283	0.17444806
43	0x3e10327f	0.14081763
44	0x3d4231ca	0.047410764
45	0xbdef5075	-0.11685268
46	0x3c6ab074	0.014324296
47	0xbeaf977c	-0.3429526
48	0x3e1ab135	0.15106662
49	0xbe918e08	-0.28428674
50	0xbd7d3ea2	-0.06182731
51	0x3de4216e	0.11139189
52	0xbea8a34a	-0.3293708
53	0x3f259321	0.64677626
54	0x3ca1b45e	0.019739326
55	0x3eb36677	0.35039112
56	0x3ea47d9d	0.32127085
57	0x3daffb6a	0.08592875
58	0xbcd46a77	-0.025929673
59	0x3e98c74c	0.2983955
60	0x3ebbd0ce	0.36682743
61	0xbde6b088	-0.112641394
62	0xbef06ea8	-0.46959424
63	0xbe3cd17a	-0.18439284
64	0x3e98185a	0.2970608
65	0xbe3a3769	-0.181852
66	0x3dc03179	0.09384436
67	0x3d523280	0.05131769
68	0x3eb38fd6	0.35070676
69	0xbe24e26d	-0.16102
70	0xbe4e8f0c	-0.20171756
71	0x3e6f95b7	0.23396955
72	0xbea06bef	-0.31332347
73	0xbef7e385	-0.4841577
74	0x3e2bdd9e	0.16783759
75	0xbeb238f4	-0.34809077
76	0x3dc1fc42	0.094719425
77	0xbe2d3de7	-0.16918145
78	0xbebab1e1	-0.36463836
79	0x3e8fd6e6	0.28093642
80	0xbd86b593	-0.06577601
81	0xbe939749	-0.2882636
82	0x3dad8d55	0.084742226
83	0xbdd81a7c	-0.105519265
84	0xbee52061	-0.44751266
85	0x3e882277	0.26588795
86	0xbec6bf0c	-0.38817632
87	0xbdc5efe5	-0.09664897
88	0xbeb09d26	-0.34494895
89	0xbd9282d5	-0.071538605
90	0x3e37ff50	0.17968488
91	0xbd497563	-0.049184214
92	0x3d0986a1	0.033575658
93	0x3eb72e64	0.3577758
94	0xbdc233bd	-0.094825245
95	0xbdc5d677	-0.096600465
96	0x3dddbcb5	0.10827009
97	0x3d9953cc	0.07486686
98	0xbdaeeaed	-0.08540902
99	0x3dc421dd	0.095767714
100	0xbc50f064	-0.012752626
101	0x3eb5f439	0.3553789
102	0x3e2a9930	0.16659999
103	0xbdb03a0e	-0.08604823
104	0x3eca8b8f	0.395596
105	0xbe581d13	-0.21104841
106	0xbe37ada7	-0.17937337
107	0xbea08208	-0.31349206
108	0x3e8028b1	0.25031045
109	0xbd8634a6	-0.06553011
110	0x3d6eb1b9	0.05827496
111	0x3c62abec	0.013834935
112	0x3d0c21ae	0.034211807
113	0xbe684c00	-0.22685242
114	0x3dd72f59	0.10507078
115	0xbe05d552	-0.13069656
116	0x3b49f7fe	0.003081798
117	0xbdadbf90	-0.08483803
118	0xbeb29fa7	-0.3488743
119	0x3e876cc5	0.26450172
120	0x3e029523	0.12752204
121	0xbe73907f	-0.2378559
122	0x3d41d849	0.047325406
123	0xbe3b81ef	-0.18311284
124	0x3df960ce	0.12176667
125	0xbe7bcaf9	-0.24589147
126	0xbe4e016f	-0.20117734
127	0x3e183087	0.14862262
128	0x3d37bf86	0.044860385
129	0x3e0a5ba7	0.13511525
130	0xbb991ba8	-0.0046724863
131	0x3dd6fab6	0.10497038
132	0x3d1530b6	0.036423407
133	0x3e994e9f	0.29942796
134	0xbddd5e0f	-0.10808956
135	0x3e17dab5	0.14829524
136	0x3ea0ed28	0.31430936
137	0x3f041f7e	0.51610553
138	0x3e8e803b	0.27832207
139	0x3e3fd387	0.18733035
140	0x3ee08774	0.43853343
141	0x3dfca6ed	0.12336526
142	0xbe8985c0	-0.26859856
143	0x3af45dff	0.0018643736
144	0xbe4d183b	-0.20028774
145	0xbe0304c8	-0.12794793
146	0xbdfb52c6	-0.12271647
147	0x3e769de6	0.24083671
148	0xbc25d65e	-0.01012191
149	0xbd1801d0	-0.037111104
150	0x3cb0fa6f	0.021603791
151	0x3c87c5d3	0.016573822
152	0xbe8b4f03	-0.2720872
153	0x3e1aaa99	0.1510414
154	0xbe16a673	-0.14711933
155	0x3d28e1c2	0.041230924
156	0xbdad3afd	-0.08458517
157	0x3c5556a2	0.013021143
158	0x3e18785a	0.1488966
159	0x3bd867a8	0.0066041537
160	0x3e5f4c63	0.21806483
161	0x3e8145fb	0.25248703
162	0x3ecc29d0	0.3987565
163	0x3c971de0	0.018446863
164	0x3e68953b	0.22713177
165	0xbd8de84a	-0.06929071
166	0x3e422123	0.18957953
167	0x3e932561	0.28739455
168	0x3dcfcd9e	0.1014664
169	0xbecdf271	-0.4022403
170	0xbdd6e6a3	-0.10493209
171	0x3e90c34b	0.28273997
172	0x3eb27d1b	0.34861073
173	0x3e99784f	0.299746
174	0xbed47013	-0.41491756
175	0x3dd7af26	0.10531454
176	0xbe8c558a	-0.2740901
177	0xbe7587e5	-0.23977621
178	0x3dbe10c8	0.092805445
179	0x3edff064	0.4373809
180	0x3dc73e15	0.09728638
181	0x3f0771eb	0.529082
182	0x3e95fba2	0.29293543
183	0x3e7d188f	0.247164
184	0x3e109660	0.14119864
185	0x3e14d7dd	0.1453547
186	0x3e45a6c5	0.19301899
187	0x3e4d35e8	0.20040095
188	0x3dddf1cb	0.10837134
189	0x3e31e3c5	0.17372043
190	0x3dcce8dc	0.10005352
191	0x3f129075	0.57251674
192	0x3da7a331	0.08185423
193	0xbe7cd0d4	-0.24689037
194	0xbb41bd52	-0.0029562307
195	0xbeba7b56	-0.36422223
196	0x3e81ac84	0.2532693
197	0x3e89fcad	0.2695059
198	0xbe83fc9e	-0.2577867
199	0x3eb05c52	0.34445435
200	0xbd711eed	-0.058867384
201	0x3ede7a3d	0.43452635
202	0xbe2de8e1	-0.16983368
203	0xbe6b0686	-0.22951707
204	0xbd4a4336	-0.049380504
205	0x3ddf40e0	0.10901046
206	0xbd4fe03f	-0.050750967
207	0x3d9ac0ee	0.0755633
208	0xbe52c0c1	-0.20581342
209	0xbe20a764	-0.15688854
210	0xbe96ebae	-0.29476684
211	0x3e1908ce	0.14944765
212	0xbde58ae5	-0.11208133
213	0xbd1a43d0	-0.037662327
214	0x3d688202	0.05676461
215	0x3e02e54d	0.12782784
216	0xbcf8b3b3	-0.030359125
217	0x3d391088	0.04518178
218	0x3e22e924	0.15909249
219	0xbe49984a	-0.19687
220	0x3e5367dd	0.2064509
221	0xbe276350	-0.16346478
222	0xbf0662b0	-0.52494335
223	0xbd4a6531	-0.04941291
224	0x3e84c6da	0.25932962
225	0x3ebea1a8	0.3723271
226	0xbe650adb	-0.22367422
227	0x38e4d05d	0.00010910698
228	0xbc0dd662	-0.00865707
229	0xbeb8eb35	-0.3611695
230	0x3e385278	0.1800021
231	0x3d07eca8	0.033184677
232	0xbe6098ce	-0.2193329
233	0x3ea9e425	0.33181873
234	0x3f0e1268	0.55496836
235	0x3e82ab77	0.25521442
236	0xbe50ed2c	-0.20402974
237	0xbd7d07af	-0.061774906
238	0x3ec023e9	0.37527397
239	0xbecc0caa	-0.39853412
240	0x3e653cef	0.22386526
241	0x3ea8e0cb	0.32984003
242	0xbdffd6f7	-0.12492173
243	0x3e3394cf	0.17537235
244	0xbe6c2913	-0.23062544
245	0xbf0de4db	-0.5542733
246	0xbed5f6e8	-0.41789937
247	0x3e9758e5	0.2956001
248	0x3c6df45e	0.014523594
249	0x3d98f50e	0.074686155
250	0x3da0c9e9	0.07851011
251	0xbda0c616	-0.07850282
252	0xbd4d1b7b	-0.050075036
253	0xbe7258d3	-0.23666696
254	0xbee5ae66	-0.44859618
255	0xbe810eb9	-0.25206545

network_body._body_endoder.seq_layers.0.bias f4 [128]
0	0x3da67e8d	0.081296064
1	0xbcd5b870	-0.026088923
2	0x3d6420cd	0.055695344
3	0x3c48ff8f	0.012267961
4	0x3c05906c	0.008152109
5	0xbc50efc2	-0.012752475
6	0x3d547e3b	0.051878195
7	0x3d104f9e	0.03523218
8	0x3bd98b18	0.0066388957
9	0x3bd35276	0.006449039
10	0xbcb4adcb	-0.022055527
11	0x3cad29c6	0.021138083
12	0x3cab931f	0.020944176
13	0x3ad61e6b	0.001633597
14	0x3d41ad30	0.047284305
15	0xbcdeaba9	-0.027181463
16	0x3d261d77	0.040555444
17	0xbccce7dc	-0.025012903
18	0x3ce686ff	0.028140543
19	0xbcf51f77	-0.02992223
20	0x3d9fb195	0.07797543
21	0xbba577c3	-0.005049677
22	0x3d4d83e3	0.050174605
23	0xbba83f3a	-0.0051344903
24	0x3dd46177	0.103701524
25	0xbc7613cb	-0.015019367
26	0x3c3c50d0	0.011493877
27	0xbd274ac7	-0.040842798
28	0xbbeff9d7	-0.0073234844
29	0xbc9dcda4	-0.019263096
30	0xbc274765	-0.010209893
31	0xbc873823	-0.01650626
32	0xbc07a550	-0.00827916
33	0x3cbe78db	0.023250988
34	0xbc16fa94	-0.009215016
35	0x3cb4ff8a	0.022094507
36	0x3d21c2f9	0.03949258
37	0x3bdecee4	0.0067995656
38	0xbceca138	-0.028885469
39	0x3bb31ef6	0.0054663373
40	0x3d794871	0.0608601
41	0x3be8e4c2	0.007107348
42	0xba8a789c	-0.0010564509
43	0x3bd4219c	0.006473733
44	0xbc9ff285	-0.019524822
45	0x3d0d5814	0.034507826
46	0xbbc92390	-0.0061382726
47	0x3ba54a2b	0.005044242
48	0xbc606b4a	-0.013697455
49	0x3c793ad2	0.015211778
50	0xbcec6059	-0.028854536
51	0x3daf7d30	0.085687995
52	0xbd2959cd	-0.041345406
53	0x3cb74de5	0.02237601
54	0x3cf6ce77	0.030127747
55	0xbc8615c7	-0.016367806
56	0xbc08915a	-0.008335436
57	0x3a457888	0.0007532914
58	0x3d24a3aa	0.040195145
59	0x3d59b722	0.053153165
60	0x3cfb3c71	0.03066847
61	0x3c5a99d9	0.013342344
62	0x3c99e4d9	0.01878588
63	0x3ce6e74b	0.028186461
64	0xbb94ad0e	-0.0045372313
65	0xbb13f60b	-0.0022577073
66	0xbcf9917a	-0.030464876
67	0x3ca25ad4	0.0198187
68	0xbce165fe	-0.027514454
69	0x3c06f6d5	0.00823756
70	0xbc9120b3	-0.017715788
71	0x3d64fb06	0.055903457
72	0x3d4c2067	0.04983559
73	0x3d3320f5	0.043732602
74	0x3bc3cb2c	0.0059751477
75	0x3d4a7215	0.049425203
76	0x3d0d3971	0.03447861
77	0xbd472c12	-0.048626013
78	0x3c30ca2c	0.010790389
79	0xbc46ea1f	-0.01214078
80	0x3d8620eb	0.06549247
81	0x3ca325a5	0.019915411
82	0xbc3d3f2f	-0.011550709
83	0xbd3bbaa5	-0.045832295
84	0x3bf01296	0.0073264344
85	0xbc7f50b9	-0.015583211
86	0xbcf6ceca	-0.030127902
87	0x3d9b643b	0.07587477
88	0x3cbb327d	0.022851223
89	0xbc1965b1	-0.009362624
90	0xbb7e5dbb	-0.0038813192
91	0x3c7284e0	0.014802188
92	0x3ca89311	0.02057794
93	0x3bb14b44	0.0054105837
94	0xbbb0b9d4	-0.005393246
95	0xbd12283c	-0.0356829
96	0x3d9cbe4e	0.07653485
97	0xbba01657	-0.0048854756
98	0x3d3c3a86	0.04595425
99	0x3bd77b29	0.006575961
100	0x3cde3797	0.027126117
101	0xbd1674d0	-0.036732495
102	0x3cc25c2b	0.02372559
103	0xbcb07287	-0.021538986
104	0xbce9af80	-0.028526068
105	0x3c9b4eda	0.018958498
106	0x3ca7ebf9	0.020498263
107	0x3bf2d457	0.007410567
108	0xbc29a36a	-0.010353902
109	0x3bd97c35	0.006637121
110	0x3c487305	0.012234454
111	0xbc4823f3	-0.012215602
112	0x3a60835f	0.00085644977
113	0xbd2ff0e5	-0.042954344
114	0x3b107145	0.002204017
115	0x3cc7adb0	0.024374813
116	0x3ca06d9e	0.01958352
117	0x3d0f267d	0.034948815
118	0x3b892aeb	0.0041860244
119	0x3cdddd0e	0.027082946
120	0x3c942bd1	0.0180873
121	0xbcd3467c	-0.025790446
122	0x3cf24cb1	0.029577585
123	0xbd7598b5	-0.059960086
124	0x3a33dbc5	0.00068610563
125	0x3c4685a0	0.01211682
126	0x3ce46385	0.027879486
127	0x3cd77447	0.026300563

network_body._body_endoder.seq_layers.2.weight f4 [128, 128]
0	0xbe72abee	-0.23698398
1	0x3cff18cd	0.031139756
2	0xbe0249de	-0.1272349
3	0xbd782f7e	-0.060592167
4	0xbddce3ba	-0.10785623
5	0xbd265d42	-0.04061628
6	0x3d5b02f0	0.0534696
7	0x3d6d49ae	0.057931595
8	0xbe006e90	-0.12542176
9	0x3b99493e	0.0046779206
10	0xbd6554a1	-0.05598891
11	0xbde97d5a	-0.11400862
12	0xbe2bbb9d	-0.16770788
13	0xbd56e8e4	-0.052468196
14	0xbea99996	-0.3312499
15	0x3ceed4a1	0.029154124
16	0x3e2f7093	0.17132787
17	0x3dda847c	0.10669801
18	0xbebb8b33	-0.36629638
19	0x3cb363cb	0.021898171
20	0xbcf8155c	-0.030283622
21	0xbcafb421	-0.021448197
22	0x3cdded76	0.02709077
23	0xbdcf5939	-0.1012444
24	0xbdec01c4	-0.11523774
25	0xbc0a6847	-0.008447713
26	0x3cc0ebdb	0.023549965
27	0x3e095fca	0.13415447
28	0x3cfadd7b	0.030623188
29	0xbcd61cf2	-0.02613685
30	0x3df365a0	0.11884618
31	0x3db03e2f	0.086056106
32	0x3dc476f7	0.09593003
33	0xbc4be8d9	-0.012445652
34	0x3d7727ce	0.060340695
35	0xbc511917	-0.01276233
36	0xbdc98baf	-0.09841096
37	0xbdcd44e0	-0.100229025
38	0xbe04990f	-0.12949012
39	0x3c157af7	0.009123555
40	0x3a5e903d	0.0008490121
41	0x3cfd26ac	0.03090223
42	0x3e9c040d	0.3047184
43	0xbdded882	-0.10881139
44	0xbccfc278	-0.025361285
45	0xbd3adf46	-0.045623086
46	0x3d882577	0.06647771
47	0x3d536ca4	0.05161728
48	0x3d38ee53	0.04514916
49	0x3d0741cb	0.03302173
50	0xbd2ed945	-0.042687673
51	0x3e20482f	0.15652536
52	0x3d4650f1	0.048417035
53	0xbd3e122c	-0.04640405
54	0x3d8cbd22	0.06872012
55	0x3daf3f5c	0.08557007
56	0xbda160a3	-0.0787976
57	0x3d82a3a6	0.0637887
58	0xbe588b0e	-0.21146795
59	0xbd8c6283	-0.06854727
60	0xbd39c540	-0.045354128
61	0x3e059a54	0.13047153
62	0x3dcbf5ec	0.09959015
63	0xbda8b37e	-0.082373604
64	0xbd625241	-0.055254225
65	0xbdd0a953	-0.10188546
66	0x3e6055bd	0.21907707
67	0xbce8149d	-0.028330142
68	0xbd67ea4d	-0.05661993
69	0xbdd324b2	-0.103097335
70	0x3ab330b5	0.0013671132
71	0x3d8d1b50	0.06889975
72	0xbd913780	-0.07090664
73	0x3cbfb220	0.023400366
74	0xbdd6a641	-0.10480929
75	0xbe4c0c76	-0.19926628
76	0xbd856294	-0.06512943
77	0xbd495009	-0.049148593
78	0xbda71b96	-0.081595585
79	0xbdc3771d	-0.095442034
80	0xbded0190	-0.11572564
81	0x3dc03c6c	0.093865246
82	0xbdf9c1cb	-0.12195166
83	0x3d2df705	0.042471904
84	0x3e0fe1c3	0.14050965
85	0x3e10bf49	0.1413547
86	0xbdbe422d	-0.09289966
87	0xbe166762	-0.14687875
88	0xbd44e595	-0.04807051
89	0x3e1557f6	0.14584336
90	0xbdc33be5	-0.09532908
91	0xbd4cd63f	-0.05000901
92	0x3ccf3f20	0.025298655
93	0xbd8d3531	-0.06894911
94	0xbcab5b2c	-0.020917498
95	0x3c9d4952	0.0192
96	0xbd878499	-0.06617088
97	0xbd172feb	-0.036910933
98	0xbdfb8012	-0.12280287
99	0xbc996d71	-0.018728944
100	0xbdf9abef	-0.12190997
101	0x3e472a01	0.19449617
102	0x3cbd34c8	0.023096457
103	0x3db1a712	0.08674444
104	0x3de032f6	0.1094722
105	0xbd926bd6	-0.07149474
106	0x3d1095b3	0.035299014
107	0x3d4b1b16	0.049586378
108	0x3d073c9e	0.033016793
109	0x3e150896	0.14554057
110	0xbe1c0a61	-0.15238334
111	0x3d822ef6	0.06356613
112	0x3d7bbe94	0.061461046
113	0x3c126187	0.008934385
114	0x3c446d08	0.011988886
115	0x3e06d9c0	0.13169003
116	0xbe4ae996	-0.19815668
117	0xbc4fb7ec	-0.012678128
118	0x3c878db5	0.016547063
119	0x3b968b92	0.004594275
120	0xbd5fd120	-0.054642797
121	0xbdce0354	-0.100592285
122	0x3cb9e85e	0.02269381
123	0x3bb2fe0e	0.0054624146
124	0x3db67583	0.08909132
125	0x3deb55ac	0.1149095
126	0x3e292114	0.16516525
127	0x3d8f8e74	0.07009593
128	0x3c837b80	0.0160501
129	0xbe27c078	-0.16382015
130	0xbb134a4d	-0.0022474707
131	0x3e2888d2	0.16458443
132	0xbdd45535	-0.103678145
133	0x3d167175	0.036729295
134	0xbdfbfe8d	-0.12304411
135	0x3e395e55	0.18102391
136	0x3e2276fb	0.158657
137	0xbde0d65c	-0.10978386
138	0x3e070e48	0.13189042
139	0x3e22e50e	0.1590769
140	0x3b02f8a3	0.0019984625
141	0x3d7aad28	0.06120029
142	0x3dfc5296	0.123204395
143	0xbd47a82f	-0.048744377
144	0xbdd01c6e	-0.101616725
145	0xbe103efe	-0.1408653
146	0x3c785c87	0.015158779
147	0xbda04996	-0.078265354
148	0x3e0e16b2	0.13875845
149	0x3dff3e72	0.124630824
150	0x3e2b674e	0.16738626
151	0xbdd0206b	-0.10162433
152	0x3c89a843	0.016803866
153	0xbc5ee002	-0.013603212
154	0x3d6b2800	0.057411194
155	0xbcdd2ea2	-0.026999775
156	0x3d0343c5	0.032047052
157	0xbd7c7144	-0.061631456
158	0x3af67ce8	0.0018805536
159	0x3db53e3e	0.088497624
160	0x3d361bd3	0.04446013
161	0xbe4dcb63	-0.20097117
162	0xbd94ab54	-0.07259241
163	0xbd811ac2	-0.06303932
164	0x3d917732	0.07102813
165	0xbc03578a	-0.008016476
166	0x3d3700ec	0.044678614
167	0x3d72a10f	0.05923563
168	0xbdfc6a5b	-0.12324973
169	0xbd8b75b1	-0.06809557
170	0xbd0d5351	-0.034503285
171	0x3b88a894	0.0041704867
172	0x3dde466e	0.10853277
173	0x3df3283b	0.11872908
174	0x3e3b1a36	0.18271717
175	0x3b7103d2	0.0036775959
176	0x3dbb13c2	0.09134628
177	0x3d4bead7	0.049784508
178	0xbe64f6e5	-0.22359808
179	0x3cbbe390	0.022935659
180	0x3d2c12ca	0.042010106
181	0x3d86e428	0.06586486
182	0xbe3db708	-0.18526852
183	0xbe08dcd8	-0.13365495
184	0x3ce1e750	0.027576119
185	0xbe019a99	-0.1265663
186	0x3e00f520	0.12593508
187	0xbd2bad68	-0.04191342
188	0x3e54d5cc	0.20784682
189	0x3e169eb8	0.14708984
190	0xbdb087cf	-0.086196534
191	0xbe1ac5bd	-0.15114494
192	0x3d94c30a	0.07263763
193	0xbe849286	-0.2589304
194	0xbc92fbfb	-0.01794242
195	0x3da298ff	0.07939338
196	0xbd765314	-0.060137823
197	0xbde513b1	-0.111853965
198	0xbd069635	-0.032858092
199	0x3d4694b5	0.04848166
200	0x3d85e5ef	0.06537997
201	0xbcfef9a9	-0.031124907
202	0xbc7f6632	-0.01558833
203	0xbcf934c8	-0.030420676
204	0x3d8d0024	0.068847924
205	0x3d546b98	0.051860422
206	0x3e09f411	0.1347201
207	0xbc1b68dd	-0.009485451
208	0x3b2705d5	0.0025485654
209	0xbc070b85	-0.008242493
210	0xbe216cad	-0.15764113
211	0x3e387c61	0.18016197
212	0xbcf4010a	-0.029785652
213	0xbd9ba7b6	-0.07600348
214	0x3d4fe652	0.05075676
215	0x3d46e432	0.048557468
216	0x3e081467	0.13289033
217	0xbd3fadd2	-0.046796627
218	0x3d9f1ea6	0.077695176
219	0x3c8bdc3d	0.017072791
220	0xbaf904f0	-0.0018998664
221	0x3c81d3fb	0.01584815
222	0x3b1030e3	0.0022001795
223	0xbcc8b9cf	-0.024502663
224	0xbcb43188	-0.021996275
225	0xbc3045ec	-0.010758858
226	0xbe1d64c4	-0.1537047
227	0x3e2f7fee	0.17138645
228	0xbd3ecb17	-0.0465804
229	0x3cd1d276	0.02561305
230	0x3d5359c9	0.051599298
231	0x3c720821	0.014772446
232	0xbd18afb6	-0.037276946
233	0x3dfe9dd1	0.12432445
234	0xbe13da60	-0.14438772
235	0x3e1d4529	0.15358414
236	0xbdbc957a	-0.09208198
237	0x3dbe11d1	0.09280742
238	0xbdbaeb6b	-0.09126934
239	0x3c5532f8	0.01301264
240	0xbd8c4227	-0.06848555
241	0x3dafd8ba	0.08586259
242	0xba833a6b	-0.0010011917
243	0xbdc739d4	-0.09727827
244	0x3da70d9c	0.08156893
245	0xbd5f401a	-0.05450449
246	0xbe0c4820	-0.13699389
247	0x3daedd0b	0.08538254
248	0xbcf8d673	-0.030375695
249	0x3b9efb5a	0.004851741
250	0xbdb2813e	-0.08716057
251	0xbdfe5d38	-0.12420124
252	0x3d591fb1	0.05300874
253	0xbe0c4b8a	-0.13700691
254	0xbd104234	-0.035219386
255	0xbdce3fd9	-0.10070772

network_body._body_endoder.seq_layers.2.bias f4 [128]
0	0xbc8a20a2	-0.016861264
1	0xba8a50ed	-0.0010552682
2	0xbd944c0a	-0.07241066
3	0xbc55088c	-0.013002526
4	0xbc698066	-0.014251804
5	0x3be88ce3	0.007096873
6	0xbd1af7eb	-0.03783409
7	0xbae56940	-0.001750268
8	0x3c1d0467	0.009583569
9	0x3c9e386f	0.019314019
10	0xbca624b4	-0.020281173
11	0x3bab06ad	0.0052193017
12	0x3cbf00fd	0.023315901
13	0x3bf94b3d	0.007607846
14	0x3cc11edb	0.023574283
15	0xbcedead5	-0.02904264
16	0x3be91421	0.0071129953
17	0xbcacf725	-0.021113941
18	0x3c4fea42	0.012690129
19	0xbbe02dfd	-0.0068414197
20	0xbd00c8a5	-0.03144135
21	0xbcc00f1d	-0.023444707
22	0xba1433e3	-0.00056534837
23	0x3bbf9c38	0.00584748
24	0xbb61fc82	-0.0034482782
25	0xbd693ad7	-0.05694088
26	0xbc11dffa	-0.008903498
27	0x3badc6e2	0.0053032497
28	0xbd09816d	-0.033570696
29	0x3b3663f4	0.0027830573
30	0xb9baaef3	-0.00035607032
31	0xbb2046b3	-0.0024456203
32	0xbc9de239	-0.01927291
33	0x3d465914	0.048424795
34	0xbd6122e0	-0.0549649
35	0xbd84277b	-0.06452843
36	0xbb4ae9f2	-0.0030962196
37	0xbc1d669c	-0.0096069835
38	0x3d2c5946	0.042077325
39	0xbad19e08	-0.0015992532
40	0xbb547eff	-0.0032424328
41	0xbd3787cc	-0.04480724
42	0xbd27ab76	-0.040935002
43	0xbcf6a24d	-0.030106688
44	0x3d61cfa9	0.05512968
45	0x3c8ec77d	0.017429108
46	0xbd65ec46	-0.05613353
47	0xbcb398b3	-0.021923399
48	0xbbd30654	-0.0064399634
49	0xbd23fecb	-0.04003791
50	0xbd31b62b	-0.04338662
51	0xbcc97881	-0.024593594
52	0x3d383a11	0.04497725
53	0xbaadef17	-0.0013270107
54	0xbc39091e	-0.011293678
55	0xbb1cb914	-0.0023914026
56	0x3b896ebd	0.0041941092
57	0xbcfb17a3	-0.03065092
58	0x3ccb9d7d	0.02485537
59	0xbcd3d990	-0.025860578
60	0xbc046796	-0.008081337
61	0xbce1e1e5	-0.027573535
62	0x3c588357	0.013214908
63	0xbcb5682b	-0.022144398
64	0xbd10e64b	-0.035375874
65	0xbd1ba45c	-0.037998542
66	0xbd4696d2	-0.048483677
67	0x3ab54092	0.0013828448
68	0x3c70a131	0.0146868685
69	0xbc946f80	-0.018119574
70	0xbbeedfde	-0.0072898706
71	0xba63ea30	-0.00086942594
72	0x3c9ca49c	0.01912146
73	0xbd049b69	-0.032374773
74	0xbc3052c7	-0.010761923
75	0x3c5767a4	0.013147268
76	0xbd6520a8	-0.055939347
77	0x3c83be56	0.01608197
78	0x3bc53de4	0.006019341
79	0xbd0e836f	-0.034793314
80	0xbca97bd7	-0.020688934
81	0xbcfb6738	-0.030688867
82	0xbaf70cd4	-0.0018848428
83	0xbbeda27c	-0.0072520357
84	0xbcf10f74	-0.029426314
85	0xbd3c4793	-0.045966696
86	0xbc55c7b3	-0.0130481
87	0xbce237df	-0.027614532
88	0xbca25e2b	-0.019820293
89	0x3d043475	0.03227659
90	0x3c6730ef	0.014110788
91	0x3cae0201	0.02124119
92	0xbca03bb6	-0.019559722
93	0xbbd57b2a	-0.0065149264
94	0xbca1d867	-0.019756509
95	0x3d5209fe	0.05127906
96	0x3c873e9a	0.016509343
97	0x3bac2915	0.005253921
98	0x3cf092fc	0.029366963
99	0x3c8061cd	0.015671635
100	0x3c77caa9	0.015124002
101	0xbbcf6858	-0.0063295774
102	0xbd20cfe1	-0.03926075
103	0xbc0e872f	-0.0086992225
104	0xbba034f7	-0.0048891264
105	0x3c1da4dd	0.009621826
106	0x3c6b55aa	0.014363686
107	0xbc896136	-0.016769987
108	0xbba58dfc	-0.0050523262
109	0xbb64652b	-0.003485034
110	0x3c83eaf3	0.016103243
111	0x3ced16b4	0.02894149
112	0xbb7be016	-0.0038433126
113	0x3d2da2e3	0.04239167
114	0xbd083a3e	-0.03325867
115	0x3bf96a26	0.007611531
116	0xbad3b372	-0.0016151501
117	0xbb7fb8cb	-0.0039020057
118	0xbcb3ab44	-0.021932252
119	0xbd18fd51	-0.037350956
120	0x3ac4b409	0.0015007268
121	0xbc160ade	-0.009157864
122	0x3d089fdb	0.033355575
123	0x3d509621	0.050924424
124	0xbc93822c	-0.018006407
125	0x3d58c958	0.05292639
126	0x3c77b10c	0.015117895
127	0xbcd5d3ad	-0.026101911

action_model._discrete_distribution.branches.0.weight f4 [3, 128]
0	0xbcefbb71	-0.029264184
1	0x3b892ad4	0.0041860137
2	0x3b9009aa	0.0043956833
3	0x3d983db8	0.07433647
4	0xbd26a13b	-0.040681105
5	0x3c2c1ae8	0.010504462
6	0x3cdf2748	0.02724041
7	0x3d8893af	0.066687934
8	0xbdbbecfd	-0.09176061
9	0x3c8d3996	0.017239373
10	0x3c709dc6	0.014686054
11	0x3dc6d9e7	0.0970953
12	0xba6b3df5	-0.0008973771
13	0xbd28ec3c	-0.041240916
14	0x3cd3052f	0.025759308
15	0xbd30888a	-0.043098964
16	0x3d0565e4	0.032567874
17	0xbd085c74	-0.033291295
18	0xbc58a6a0	-0.01322332
19	0xbcd09c5d	-0.025465185
20	0x3d1b8922	0.037972577
21	0x3c8218f1	0.015881034
22	0xbb83ebb7	-0.004025902
23	0xbd93aca7	-0.07210665
24	0xbc5661eb	-0.013084869
25	0xbbeda320	-0.007252112
26	0xbd1347d8	-0.035957187
27	0x3c436e67	0.011928177
28	0x3c265d50	0.010154083
29	0x3bec9c36	0.00722077
30	0x3c8cad9e	0.01717263
31	0xbceca7b5	-0.028888563
32	0x3c98cfed	0.018653834
33	0xbcf1b881	-0.029506924
34	0xbc4a66b3	-0.012353587
35	0x3cdb3cf4	0.026762463
36	0xbcd4f508	-0.025995746
37	0x3c41086d	0.011781794
38	0xbd613ce5	-0.054989714
39	0xbacf2558	-0.0015803976
40	0x3cdbddd3	0.026839172
41	0x3d7b464a	0.06134633
42	0x3d5f53d9	0.054523323
43	0xbd97a0ea	-0.07403739
44	0xbb933410	-0.0044922903
45	0x3c31681e	0.010828046
46	0x3d2c9f09	0.042143855
47	0x3daf6bb7	0.08565467
48	0x3bd72987	0.0065662297
49	0x3d1aa86e	0.037758283
50	0x3d22bb14	0.039729193
51	0xbcd0943d	-0.02546131
52	0xbd310018	-0.04321298
53	0xbd253a30	-0.040338695
54	0xbd118055	-0.035522778
55	0xbc093338	-0.008374028
56	0x3c31a96d	0.010843617
57	0xbc0b20b2	-0.008491682
58	0xbc24df34	-0.010062981
59	0xbb6a9a94	-0.0035797702
60	0x3c300aa3	0.0107447235
61	0xbcb54c84	-0.022131212
62	0x3d16bcb2	0.036801048
63	0xbd08cdd0	-0.033399403
64	0x3cb4c2ce	0.022065546
65	0xbd30416d	-0.043031145
66	0xbc9d544f	-0.01920524
67	0x3d03622f	0.032076057
68	0x3d5c6aab	0.053812664
69	0xbd0ac946	-0.033883356
70	0x3c308214	0.010773201
71	0x3bda4afa	0.00666177
72	0x3aaf7461	0.0013386124
73	0xbcf15580	-0.029459715
74	0xbd69a5c0	-0.057042837
75	0xbd306533	-0.04306526
76	0x3cb41969	0.021984773
77	0x3ca94bed	0.020666087
78	0x3d3d9ca2	0.046291955
79	0x3cae0c6e	0.021246161
80	0xbc5c6c67	-0.0134535795
81	0xbce3f116	-0.02782492
82	0xbca2e3d8	-0.019884035
83	0x3d55b873	0.052177858
84	0xbdaad386	-0.08341126
85	0xbd0b2d67	-0.033978846
86	0xbd03bb0d	-0.032160807
87	0xbb8db946	-0.004325065
88	0xbc30ab9b	-0.010783101
89	0xbd65efbb	-0.056136828
90	0x3c9b8add	0.018987114
91	0x3d677590	0.0565086
92	0x3d24f2ed	0.040270735
93	0x3c473a6e	0.012159927
94	0xbd469232	-0.048479266
95	0xbd389abf	-0.045069452
96	0xbd688643	-0.056768667
97	0xbcbb9330	-0.022897333
98	0x3c86a0b6	0.016434055
99	0xbbdcdb97	-0.0067400443
100	0xbd796ad7	-0.060892906
101	0xbd38e9ab	-0.04514472
102	0x3d1535c6	0.036428235
103	0x3cb95a82	0.022626165
104	0xbd806f92	-0.0627128
105	0x3cb281d8	0.02179043
106	0x3ca4a8fe	0.020100113
107	0xbc1ffa12	-0.009764211
108	0xbcce78f8	-0.025204167
109	0xbcbeb3ad	-0.023279035
110	0xb9e00ec4	-0.0004273561
111	0xbcad6db3	-0.021170473
112	0x3baa8dd6	0.0052048964
113	0x3d86a25d	0.06573937
114	0xbd96469a	-0.07337685
115	0xbd8e12e5	-0.069371976
116	0xbcacd742	-0.021098737
117	0xbd20cd86	-0.039258502
118	0x3bb08f8e	0.005388207
119	0xbcabc047	-0.020965708
120	0x3c254f59	0.010089719
121	0xbd016fd0	-0.031600773
122	0x3d778773	0.06043191
123	0xbd455a8e	-0.048182063
124	0x3c90ffd3	0.017700111
125	0x3de562bd	0.112004735
126	0xbd3a5e32	-0.045499988
127	0x3b63bacc	0.003474879
128	0x3ceb52db	0.028726032
129	0xbd0699a1	-0.032861356
130	0xbd1f7114	-0.0389262
131	0x3bcc1ca9	0.0062290025
132	0xba9eca03	-0.0012114648
133	0xbbf7a35e	-0.0075573167
134	0x3ccf644b	0.025316378
135	0xbd6aeba2	-0.057353623
136	0xbcaa7a37	-0.02081023
137	0xbb817ac3	-0.003951402
138	0x3be63759	0.007025641
139	0xbda85a13	-0.08220305
140	0xbceb54c8	-0.02872695
141	0xbcd06af6	-0.025441628
142	0xbca860ca	-0.020553965
143	0x3d15e173	0.03659196
144	0xbd9f38b7	-0.077744894
145	0x3b970a37	0.004609372
146	0x3a990a5a	0.0011676059
147	0x3d03f21d	0.03221332
148	0xbdadefe8	-0.08493024
149	0xbdd3ced7	-0.10342186
150	0x3cf5a539	0.02998601
151	0x3d644ff2	0.055740304
152	0x3e082510	0.13295388
153	0xbcdde9f9	-0.027089106
154	0x3db260e9	0.087098904
155	0xbd49182d	-0.04909532
156	0xbd5abd7b	-0.05340336
157	0xbd4beb78	-0.049785107
158	0x3c5ea776	0.0135897305
159	0x3dc9a9a5	0.0984681
160	0xbd1347aa	-0.035957016
161	0x3de04a3b	0.10951658
162	0x3cc990a6	0.024605107
163	0xbd1f761f	-0.03893101
164	0xbd129e1d	-0.03579532
165	0xbd8eb88a	-0.06968792
166	0x3cf4aa21	0.02986628
167	0xbce7bdec	-0.028288804
168	0x3bbd84e5	0.0057836645
169	0xbd3380fe	-0.04382419
170	0xbd6c4613	-0.057684015
171	0xbcd66f0d	-0.026176
172	0x3dd1eb06	0.10249905
173	0xbca6cf7d	-0.02036261
174	0x3ce1460b	0.02749922
175	0xbdb5de74	-0.0888032
176	0x3d4e0315	0.050295908
177	0x3d23b936	0.039971553
178	0x3bf32e07	0.0074212584
179	0xbd09579e	-0.033530824
180	0x3dab3be8	0.083610356
181	0xbd4a728f	-0.049425658
182	0x3c0d5960	0.008627266
183	0xbd3e9a74	-0.046534017
184	0xbdd15491	-0.10221208
185	0xbd4139fa	-0.04717443
186	0x3dc327e0	0.0952909
187	0xbde959c5	-0.11394075
188	0x3c3a215e	0.011360494
189	0x3c2be8fc	0.0104925595
190	0xbb7454a3	-0.0037281893
191	0x3b6a1b8f	0.0035721993
192	0x3c902917	0.017597718
193	0x3d0b2a2d	0.03397577
194	0xbd12fee8	-0.03588763
195	0xbd9f9d4b	-0.07793673
196	0x3d5bfd83	0.053708564
197	0xbd2b5687	-0.041830566
198	0xbd245839	-0.0401232
199	0xbc0dd2ef	-0.0086562475
200	0x3d466f6b	0.0484461
201	0xbd58d6e6	-0.052939318
202	0xbc8392da	-0.016061235
203	0xbd0cb8e8	-0.034356028
204	0xbd1080fc	-0.03527926
205	0xbd5942f2	-0.05304236
206	0x3cfe85c4	0.031069644
207	0x3cd957b4	0.026531078
208	0x3bdfff81	0.0068358784
209	0x3dcf9158	0.10135144
210	0x3ccefe0f	0.025267629
211	0xbdb0c9f2	-0.08632268
212	0xbba3cfd6	-0.004999141
213	0x3d57dae2	0.052698977
214	0x3d6dec01	0.0580864
215	0xbcc44c28	-0.023962095
216	0xbbce147e	-0.006289064
217	0x3d9c3184	0.07626632
218	0xbcf46383	-0.029832607
219	0xbd159422	-0.036518224
220	0x3dab30c5	0.083589114
221	0x3da73335	0.08164064
222	0x3d99f0da	0.07516642
223	0x3ce82112	0.028336082
224	0xbd3b6e7a	-0.045759656
225	0x3da6255e	0.08112596
226	0xbcee79f9	-0.029110895
227	0x3d3a6433	0.045505714
228	0x3d436bc8	0.04771021
229	0xbda8af39	-0.08236546
230	0x3ba89119	0.00514425
231	0xbd897683	-0.067120574
232	0x3db84cd3	0.08999028
233	0x3d2b8ac5	0.041880388
234	0x3d782394	0.060580805
235	0x3d3ba49f	0.04581129
236	0x3cdf13f4	0.027231194
237	0x3c820f9d	0.015876586
238	0x3d5112b2	0.05104322
239	0x3dd24295	0.10266606
240	0xbdc86249	-0.097843714
241	0xbcacb9f9	-0.021084772
242	0x3c5eb2d2	0.013592439
243	0x3be5f45e	0.007017656
244	0xbd5ba763	-0.05362643
245	0x3d0fe518	0.03513059
246	0x3c1fce28	0.009753741
247	0xbb687004	-0.0035467157
248	0x3dc2c690	0.09510529
249	0xbd395053	-0.04524262
250	0x3c75c577	0.015000693
251	0x3b9a7740	0.0047139227
252	0x3c9b80a9	0.018982248
253	0xbc986f79	-0.018607842
254	0xbd8a4573	-0.06751528
255	0xbccb1750	-0.02479139

action_model._discrete_distribution.branches.0.bias f4 [3]
0	0x3c1df900	0.009641886
1	0x3b403d37	0.0029333362
2	0xbb964571	-0.004585915

action_model._discrete_distribution.branches.1.weight f4 [3, 128]
0	0xbd98b323	-0.074560426
1	0x3d12410f	0.035706576
2	0xbbcd231b	-0.0062602884
3	0xbc5c421c	-0.013443496
4	0xbc821bfb	-0.015882483
5	0xbd767303	-0.060168277
6	0xbab605fb	-0.001388728
7	0x3bbf6b49	0.005841647
8	0xbc57ca78	-0.013170831
9	0xbd149545	-0.036275167
10	0xbd848086	-0.064698264
11	0x3d43d0d1	0.047806565
12	0x3d93b0cb	0.07211455
13	0x3c6ddbc3	0.014517727
14	0xbcc69a00	-0.024243355
15	0x3de73fd9	0.11291475
16	0xbd65f1a3	-0.056138646
17	0x3d10d8c0	0.03536296
18	0xbca80cd7	-0.020513935
19	0xbcb2dc19	-0.021833466
20	0x3b1d9e3d	0.0024050616
21	0xbce9f5c6	-0.028559577
22	0x3b5466d0	0.0032409914
23	0xbd585129	-0.052811775
24	0x3c800b60	0.015630424
25	0xbb93ad47	-0.0045067403
26	0xbc8cc670	-0.017184466
27	0xbcd669f5	-0.026173571
28	0x3ae31b30	0.0017326828
29	0x3db1ee0d	0.08687983
30	0x3c990d44	0.018683083
31	0x3c891bda	0.016736913
32	0xbd0ec6c4	-0.034857526
33	0xbc48d09d	-0.0122567685
34	0xbcfc4e0f	-0.03079894
35	0x3cd2149f	0.025644599
36	0xbc1fccad	-0.009753388
37	0x3ca53498	0.02016668
38	0xbd71896b	-0.058968943
39	0xbc98691d	-0.01860481
40	0xbd3dead2	-0.04636652
41	0x3c4f212f	0.012642189
42	0x3a496c58	0.0007683686
43	0x3c7b2671	0.015328989
44	0xbc7325c9	-0.014840552
45	0x3dbe1f6e	0.092833385
46	0xbd0d244a	-0.034458436
47	0x3c948211	0.018128427
48	0xbcb9fa73	-0.022702431
49	0x3d462fee	0.048385553
50	0xbd4fc120	-0.050721288
51	0x3d4e52f9	0.050372098
52	0x3d8e9a2c	0.06963
53	0x3c63b222	0.013897451
54	0xb9dfa873	-0.0004265938
55	0x3c925aa0	0.017865479
56	0x399c9852	0.00029868126
57	0xbc85bf95	-0.016326705
58	0x3c5fc4a9	0.013657727
59	0x3d75bda7	0.05999532
60	0x3d1ca857	0.03824648
61	0xbce3f3de	-0.027826246
62	0x3d394b07	0.045237567
63	0xbd048518	-0.03235349
64	0xbc576eff	-0.013149022
65	0x3d16c343	0.03680731
66	0x3d13f842	0.03612543
67	0xbc405b03	-0.011740449
68	0x3d3a4a69	0.04548112
69	0x3ca2cbf7	0.019872649
70	0xbce7a508	-0.028276935
71	0xbd2ec576	-0.042668782
72	0x3cb3b6ef	0.021937815
73	0x3cabd398	0.02097492
74	0xbd3bc4b9	-0.045841906
75	0x3bb34ec7	0.0054720375
76	0x3cf4094a	0.029789586
77	0x3c8e9297	0.017403884
78	0x3d4933b6	0.04912158
79	0xbd3657df	-0.044517394
80	0xbd4b6a28	-0.049661785
81	0x3ba425b7	0.005009379
82	0xbc6d72a3	-0.014492664
83	0x3dd1ab9a	0.102378085
84	0x3c8423e7	0.0161304
85	0xbcfc9d66	-0.030836772
86	0xbd28ce81	-0.041212562
87	0xbd2c7a19	-0.04210863
88	0xbd79fdfa	-0.061033227
89	0x3c1ff945	0.00976402
90	0x3d9f8942	0.07789852
91	0x3d598eda	0.05311475
92	0x3d6c78b5	0.057732303
93	0x3d086759	0.033301685
94	0xbbc51df5	-0.006015534
95	0x3c4620dd	0.012092796
96	0xbb24f3f4	-0.0025169821
97	0x3d5e3d60	0.05425775
98	0x3b97db24	0.004634278
99	0x3c4a4d2f	0.012347504
100	0xbd0125d4	-0.031530216
101	0x3c96104e	0.018318322
102	0xbc25ec22	-0.010127099
103	0xbc95a039	-0.018264877
104	0x3d398d29	0.045300636
105	0xbd1603e9	-0.036624823
106	0xbcd45407	-0.025918974
107	0xbd081e81	-0.033232216
108	0xbd44ae0f	-0.048017558
109	0xbc916ffb	-0.017753592
110	0xbc7e6e94	-0.015529294
111	0xbd1e0029	-0.03857437
112	0xbc7b13fa	-0.015324587
113	0xbda48371	-0.08032883
114	0x3d00e3c8	0.03146723
115	0xbd9eec0c	-0.07759866
116	0xbd312c4e	-0.043255143
117	0x3b8767b0	0.0041322336
118	0xbd6f6790	-0.058448374
119	0xbcd846a1	-0.026400866
120	0xbd16a79f	-0.03678095
121	0xbb6e79e1	-0.0036388563
122	0xbcd71d3e	-0.026259061
123	0xbcfed9af	-0.031109659
124	0xbc965c30	-0.018354505
125	0x3a3bcb0b	0.00071637396
126	0x3ca5eebf	0.020255445
127	0xbb9884bd	-0.0046544955
128	0x3db4286a	0.08796771
129	0xbd382268	-0.044954687
130	0x3d0735ac	0.03301017
131	0x3c4ec8ee	0.012621148
132	0x3d8d4e09	0.0689965
133	0x3c2435a2	0.010022553
134	0x3c87cf04	0.016578205
135	0x3dd9f89d	0.10643122
136	0x3a9f9c0b	0.0012177242
137	0xbdc54cd4	-0.096337944
138	0x3df25d02	0.11834146
139	0x3d4f335a	0.050586082
140	0xbd5a0eff	-0.053236958
141	0xbd9de7f1	-0.07710255
142	0xbcc3bd65	-0.023894021
143	0xbd33bc25	-0.0438806
144	0x3e02455e	0.12721774
145	0x3cdfbdbb	0.02731215
146	0xbd03a913	-0.032143664
147	0xbc205e2d	-0.009788078
148	0x3cc3241a	0.023820926
149	0x3c293ccc	0.0103294365
150	0xbd29318e	-0.041307025
151	0xbc9d8e86	-0.019233
152	0xbac81638	-0.0015265411
153	0x3c425b6b	0.011862616
154	0xbbb0dd8a	-0.0053975033
155	0x3da46333	0.08026733
156	0x3d5b0c85	0.053478736
157	0xbd25ae8a	-0.040449657
158	0xbe047c35	-0.12938006
159	0x3d904f57	0.07046383
160	0x3daa5658	0.0831725
161	0x3d4298cd	0.047509003
162	0xbd0cfd60	-0.034421325
163	0xbbaeacdd	-0.0053306655
164	0xbd7aa64f	-0.06119376
165	0x3d89a74d	0.06721363
166	0xbd66c6c7	-0.056341913
167	0x3cb0d408	0.02158548
168	0x3c2f2e5d	0.010692206
169	0x3d806891	0.062699445
170	0xbd084fd9	-0.033279274
171	0x3b983c2f	0.0046458463
172	0x3ddf3dd7	0.10900467
173	0xbdae9a72	-0.08525552
174	0xbbfcfff0	-0.00772094
175	0x3cd5f8e5	0.026119659
176	0x3cfa05e7	0.030520393
177	0xbb7deb37	-0.0038744935
178	0x3d6ad08b	0.05732779
179	0x3c352a1c	0.011057403
180	0xbc9211ff	-0.017830847
181	0xbb336341	-0.0027372392
182	0x3bec18cb	0.007205104
183	0x3d276a0a	0.04087261
184	0x3ce218c4	0.0275997
185	0x3cdab1a1	0.026696028
186	0x3dc8c1a8	0.09802562
187	0x3d0faa77	0.035074677
188	0xbda2049e	-0.07911037
189	0x3d8bc012	0.06823744
190	0xbd1c474b	-0.038153928
191	0x3c99a384	0.018754728
192	0x3d9f4943	0.077776454
193	0xbd8ecd4a	-0.069727495
194	0x3c93a66e	0.018023696
195	0xbd8f0fec	-0.06985459
196	0x3c8b566d	0.017008984
197	0xbb107ad8	-0.0022045877
198	0x3d0eb646	0.0348418
199	0x3d80a533	0.06281509
200	0xbc21a59e	-0.009866146
201	0xbc319465	-0.010838603
202	0x3d420ef3	0.047377538
203	0xbdc61c0c	-0.09673318
204	0x3c801726	0.015636038
205	0x3d2d3dce	0.04229527
206	0xbcc2a94f	-0.023762373
207	0x3db1c13f	0.08679437
208	0x3c12210e	0.008919014
209	0xbc68cd91	-0.014209167
210	0xbd4237ce	-0.0474165
211	0xbd6a11ff	-0.05714607
212	0x3be580c0	0.0070038736
213	0xbc1c4603	-0.0095381765
214	0x3d97e64c	0.074169725
215	0x3de50d33	0.11184158
216	0x3dcfb026	0.101410195
217	0x3d1e9a16	0.038721167
218	0xbdbed40a	-0.09317787
219	0xbe043a33	-0.12912826
220	0xb9663ef5	-0.00021957963
221	0xbdaf1a7c	-0.08549973
222	0x3b74cef6	0.0037354804
223	0xbd46ed84	-0.048566356
224	0xbcdbe7d6	-0.026843946
225	0x3d5cb5d3	0.05388434
226	0xbd3e759c	-0.04649888
227	0xbd991938	-0.07475513
228	0xbda22898	-0.07917899
229	0x3c475f86	0.012168771
230	0x3db3e6a8	0.087842286
231	0x3da64b36	0.08119814
232	0xbd42789f	-0.047478314
233	0xba3060fa	-0.0006728318
234	0xbd8d77a9	-0.06907589
235	0x3d80ba7f	0.06285571
236	0x3d9f43af	0.077765815
237	0xbd094bad	-0.033519436
238	0x3d55b57a	0.052175023
239	0x3da0f3f3	0.078590296
240	0x3c81916c	0.015816413
241	0x3d5dbca2	0.054134972
242	0xbda61185	-0.0810881
243	0x3cf52c1c	0.02992826
244	0x3ca2b24e	0.019860413
245	0x3c82c49e	0.015962895
246	0x3cf90a5c	0.030400448
247	0x3ccf1f41	0.025283458
248	0x3da35366	0.07974891
249	0xbccc5aa8	-0.024945572
250	0x3a41c17c	0.0007391197
251	0x3d9cfbd9	0.07665224
252	0x3dd6c34c	0.10486469
253	0xbd822c84	-0.06356147
254	0xbcde4412	-0.027132068
255	0xbc4bb30f	-0.012432828

action_model._discrete_distribution.branches.1.bias f4 [3]
0	0xbc146e0a	-0.0090594385
1	0xbc22a4a5	-0.00992695
2	0x3caee554	0.021349587

action_model._discrete_distribution.branches.2.weight f4 [2, 128]
0	0x3d716b25	0.05894007
1	0xbd317d05	-0.04333212
2	0x3c53c0c9	0.0129243815
3	0x3cd51ab5	0.026013711
4	0xbc15a428	-0.009133376
5	0xbb98a264	-0.0046580303
6	0x3b0cef4c	0.0021504937
7	0x3b388430	0.0028154962
8	0xbd3f215b	-0.04666267
9	0xbd55e7dd	-0.052223075
10	0x3c48a42e	0.012246175
11	0x3c0f8c1a	0.00876143
12	0xbd006d57	-0.031354275
13	0xbd19548d	-0.03743415
14	0xbd045486	-0.03230717
15	0x3cea483a	0.028598893
16	0xbccb94df	-0.02485126
17	0xbce8c5a8	-0.028414562
18	0x3abf6b8b	0.0014604194
19	0xbc215635	-0.0098472135
20	0x3d952a42	0.07283451
21	0x3d6732d0	0.056444943
22	0xbd6b331f	-0.0574218
23	0x3c5415ff	0.012944697
24	0x3c38f9f3	0.011290061
25	0xbcb55e80	-0.022139788
26	0x3bfa06ae	0.007630191
27	0xbc8669d7	-0.01640789
28	0x3d20ee8a	0.03928999
29	0xbcf10e00	-0.029425621
30	0xbcb0c703	-0.021579271
31	0x3d161217	0.036638346
32	0xb9168909	-0.00014356164
33	0x3d07b09c	0.033127412
34	0xbcf998a9	-0.030468302
35	0xbce41419	-0.027841615
36	0x3d0a102a	0.03370682
37	0x3c60c4df	0.013718813
38	0xbc330da2	-0.010928543
39	0x3d20ff1e	0.0393058
40	0x3c839cbb	0.016065946
41	0xbc583679	-0.013196581
42	0xbc133aa4	-0.008986149
43	0x3b75d9a3	0.0037513755
44	0xbb9ac101	-0.004722715
45	0x3c13024e	0.008972717
46	0xbc30ffc4	-0.010803167
47	0x3bb57b2e	0.005538366
48	0x3ce07648	0.02740015
49	0xbd5e571b	-0.05428229
50	0x3c7d5611	0.015462414
51	0x3b543cfc	0.0032384982
52	0xbdaa4e4f	-0.083157174
53	0xbbab3079	-0.0052242843
54	0xbca86162	-0.020554248
55	0x3d1271e3	0.035753142
56	0xba68f7ad	-0.0008887004
57	0x3b20247b	0.0024435807
58	0xbca61cf7	-0.020277483
59	0x3d681d35	0.05666848
60	0x3d6831f3	0.05668826
61	0x3c7f535f	0.015583842
62	0xbce56d29	-0.028006153
63	0xbcabf99a	-0.020993043
64	0xbb3c81b0	-0.0028763823
65	0x3c6c1815	0.0144100385
66	0xbb25c1d9	-0.0025292544
67	0x3c408c6c	0.011752229
68	0xbd08db61	-0.03341234
69	0x3ca1d805	0.019756326
70	0x3c8bc6d8	0.01706259
71	0x3cbd07ef	0.023075072
72	0xbd918135	-0.071047224
73	0xbc46627a	-0.01210844
74	0xbb7bacb2	-0.0038402495
75	0xbb92fd2a	-0.004485746
76	0x3d4825d3	0.048864197
77	0xbd2aa033	-0.041656684
78	0x3d07fa47	0.033197667
79	0x3bfeca5f	0.0077755894
80	0xbd38052a	-0.0449268
81	0x3c04a3bd	0.008095679
82	0xbc33d89e	-0.0109769385
83	0xbcd29630	-0.02570638
84	0x3902a803	0.00012460355
85	0x3d5b4c0b	0.053539317
86	0x3a030339	0.00049977336
87	0x3d3788e7	0.044808295
88	0x3c4f391a	0.012647891
89	0x3cd6f8ee	0.026241746
90	0x3bb4ba2f	0.005515359
91	0xbcb298b1	-0.021801325
92	0x3bfe0ba2	0.0077528516
93	0x3b855b78	0.004069742
94	0x3ca2b15d	0.019859964
95	0xbddc3ecb	-0.10754164
96	0xbcfbd817	-0.030742688
97	0xbd8ae746	-0.06782393
98	0xbda0d03f	-0.0785222
99	0xbd2c5d9f	-0.04208147
100	0xbd35579e	-0.04427301
101	0x3d3efd74	0.04662843
102	0xbc283e6b	-0.010268788
103	0x3cedce30	0.029028982
104	0x3cc81d37	0.024427993
105	0x3c6df739	0.0145242745
106	0x3d633d20	0.055478215
107	0xbd582ac2	-0.052775152
108	0x3d43f71f	0.047843095
109	0x3c6ed002	0.01457596
110	0xbd984411	-0.07434858
111	0xbd754903	-0.059884083
112	0xbd3ed134	-0.04658623
113	0xbc2f58ad	-0.010702294
114	0xbd61b1c1	-0.05510116
115	0xbcd99e16	-0.026564639
116	0xb97e5c59	-0.0002425773
117	0xbcc193d6	-0.023630064
118	0x3c302016	0.010749837
119	0x3cae8875	0.021305302
120	0xbd2bb24b	-0.04191808
121	0xbc0da850	-0.008646086
122	0x3ca56c17	0.020193143
123	0x3db9ffa7	0.09081965
124	0xbb0e42a2	-0.0021707197
125	0x3bb18287	0.0054171714
126	0x3ccfa8a4	0.025348969
127	0xbad464f8	-0.0016204407
128	0xbd421960	-0.04738748
129	0x3d3b1652	0.045675583
130	0xbd0c3655	-0.034231503
131	0xbd1a28c7	-0.037636545
132	0x3c2fc396	0.010727784
133	0x3c792ac1	0.015207947
134	0xbb8f4eab	-0.0043733916
135	0xbc648747	-0.013948268
136	0x3d457504	0.048207298
137	0x3da3968e	0.079877004
138	0xbc287ea3	-0.010284099
139	0x3c8440aa	0.016144115
140	0x3cdcfeb8	0.026976928
141	0x3ce1d8a4	0.027569123
142	0x3d1d2cc5	0.038372774
143	0xbcd02a65	-0.02541084
144	0xbb25edc7	-0.0025318728
145	0x3d07812d	0.033082176
146	0x3c4b3885	0.012403612
147	0x3c011f91	0.007881061
148	0xbd92f1c2	-0.07175018
149	0xbd5457b3	-0.05184145
150	0x3d6b2895	0.05741175
151	0x3c31fbc6	0.01086325
152	0xb9fac5f4	-0.00047831202
153	0x3ba192bc	0.004930822
154	0xbc56d866	-0.013113117
155	0x3b2fab33	0.0026804924
156	0xbd294c44	-0.0413325
157	0x3cd7707a	0.02629875
158	0x3d2a69a6	0.04160466
159	0xbd137ddd	-0.036008704
160	0x3c5bf3b1	0.0134248
161	0xbd133549	-0.03593949
162	0x3c7f5887	0.015585071
163	0x3d07aea0	0.03312552
164	0xbd3fa76d	-0.04679053
165	0xbd065259	-0.032793377
166	0x3bdd6f2c	0.0067576375
167	0xbd581a04	-0.052759185
168	0xbbc3a758	-0.0059708767
169	0x3ca660c7	0.020309819
170	0x3ca039d6	0.019558828
171	0xbb85b43b	-0.004080323
172	0xbc32e4d5	-0.010918816
173	0x3cc9e501	0.02464533
174	0x3cc679e1	0.024228038
175	0xbc43acc4	-0.011943046
176	0xbccb603e	-0.024826165
177	0x3d7281f9	0.059205983
178	0xbbbcbbd3	-0.005759695
179	0xbc9c2064	-0.019058414
180	0x3d9e565f	0.07731318
181	0xbb128057	-0.0022354329
182	0x3d0773be	0.033069365
183	0xbd1329b6	-0.03592845
184	0xbc85cd47	-0.016333235
185	0xbba5ed31	-0.005063676
186	0x3cb9097a	0.022587527
187	0xbd446006	-0.047943138
188	0xbd8c9ecc	-0.068662256
189	0x3c0fa5fa	0.008767599
190	0x3ccda0ff	0.025101183
191	0x3c4b328d	0.012402189
192	0xbaca9a31	-0.001545733
193	0xbad17e2b	-0.0015983036
194	0xbcd4ce8e	-0.0259774
195	0xbc3a9db6	-0.01139014
196	0x3d27de08	0.04098323
197	0xbc66c589	-0.014085182
198	0x3c10935d	0.008824197
199	0xbc6ab6ae	-0.014325781
200	0x3d9ac39f	0.07556843
201	0xbba88f74	-0.005144054
202	0x3bc9e1df	0.006160959
203	0x3c02ce18	0.007983707
204	0xbd7672dd	-0.060168136
205	0x3d1c2952	0.038125344
206	0xbd116ccf	-0.03550416
207	0x3abfcb88	0.0014632801
208	0x3c9e3ba9	0.019315558
209	0xbcff3e28	-0.031157568
210	0x3caceed3	0.021109974
211	0x3c18389a	0.009290839
212	0xbc1b0e98	-0.009463929
213	0xbd64777b	-0.055778008
214	0xbab805ea	-0.0014039848
215	0xbd06faad	-0.032953907
216	0xbcba7542	-0.022760991
217	0xbd3baa21	-0.045816544
218	0x3cbdcd4e	0.023169186
219	0x3cba2e23	0.022727078
220	0xbc27d9e8	-0.010244824
221	0xbc47189d	-0.012151864
222	0xbd22952e	-0.03969305
223	0x3ddc5c79	0.10759825
224	0x3d3a6854	0.04550965
225	0x3d91904e	0.07107602
226	0x3d76a76f	0.06021827
227	0x3d6c955d	0.05775963
228	0x3d518e15	0.05116089
229	0xbcdf452c	-0.027254663
230	0x3bb33843	0.0054693534
231	0xbd2658e9	-0.040612135
232	0xbcf61028	-0.030037
233	0xbd0eee44	-0.034895197
234	0xbd0d1df9	-0.034452412
235	0x3d532cb2	0.051556297
236	0xbd2e7c47	-0.04259899
237	0xbcfa1c14	-0.030530967
238	0x3d61c5f1	0.055120412
239	0x3d8f9a02	0.070117965
240	0x3d2d33c7	0.042285707
241	0x3cc530f9	0.024071204
242	0x3d2b4e59	0.041822765
243	0x3cc02cf2	0.023458932
244	0xbbb04aa1	-0.00537999
245	0x3cab6710	0.020923167
246	0xbcb8b787	-0.02254845
247	0xbbf4aae7	-0.007466662
248	0x3d5deeb7	0.054182734
249	0x3c6a3743	0.014295402
250	0xbc5ee9c5	-0.01360554
251	0xbd85520d	-0.065097906
252	0x3b1a85b2	0.0023578224
253	0xbcbffe18	-0.023436591
254	0xbcc0ac27	-0.023519589
255	0x3c002428	0.00782112

action_model._discrete_distribution.branches.2.bias f4 [2]
0	0xbd08a715	-0.033362467
1	0x3d08a718	0.033362478

onnx::Div_94 f4 [18]
0	0x3efe9c60	0.4972868
1	0x3e902d4c	0.2815956
2	0x3efb9c87	0.49142858
3	0x3e92226b	0.28541884
4	0x3efd3024	0.4945079
5	0x3e945f0c	0.28978765
6	0x3efb3280	0.49061966
7	0x3e949b17	0.29024574
8	0x3efe9a36	0.4972703
9	0x3e93d9e5	0.28877178
10	0x3efb2ee0	0.490592
11	0x3e929a9d	0.28633586
12	0x3efdf274	0.4959904
13	0x3e94cd39	0.29062822
14	0x3efba033	0.4914566
15	0x3e912136	0.2834565
16	0x3efba033	0.4914566
17	0x3e912136	0.2834565

onnx::Div_97 f4 [6]
0	0x40e56c64	7.1694813
1	0x3ad2937c	0.0016065682
2	0x40eda885	7.426821
3	0x4108484a	8.517649
4	0x3b9d4761	0.004799769
5	0x41112a79	9.072869
