Assets/Models/AnimalRunStep.onnx (onnx, 94374 bytes, 15 tensors)

discrete_act_size_vector f4 [1, 3]
00000000: 0000 4040 0000 4040 0000 0040
3.0 3.0 2.0

network_body.observation_encoder.processors.0.normalizer.running_mean f4 [18]
00000000: dd76 5e3e 7395 223f 20d5 613e 4096 203f
00000010: ecf7 533e 1b02 1e3f 02d1 7f3e 09d7 263f
00000020: c0d9 463e 277d 193f e01f 5b3e 43ac 1f3f
00000030: 6887 4b3e 346d 1c3f 8a2d 553e f7d9 1c3f
00000040: c431 553e 51db 1c3f
0.2172503 0.6350929 0.22053957 0.62729263 0.20700043 0.6172196 0.24982074 0.6517187
0.19419003 0.5995659 0.21398878 0.62372226 0.19875872 0.6110413 0.20818153 0.6127009
0.20819765 0.6127215

network_body.observation_encoder.processors.1.normalizer.running_mean f4 [6]
00000000: a0a0 b6c0 c3c2 933f 0c5d 5240 fb1f 1fc1
00000010: 35eb 873f b6f8 b040
-5.7071075 1.1543812 3.2869291 -9.945308 1.0618654 5.53036

network_body._body_endoder.seq_layers.0.weight f4 [128, 24]
00000000: 9d3e a83e 4544 8dbe 03f6 933e 1e73 b9be
00000010: 80ea 3b3e f595 593e 1236 cc3e dba0 a33b
00000020: a3c2 4cbd cb02 84bd ef35 693d 2425 41be
00000030: 4d20 ac3b 7973 013f 4c29 d2bd 1b9a 66be
00000040: d4f1 ea3c 5cac cdbc b8b6 52be ee3a f13d
00000050: ac2a 023e 25ba 0ebe 4287 bebc 9bb6 acbe
00000060: f289 c43e b961 4fbe 7929 e2bc f2c9 9f3d
00000070: 468f 9d3d f1e0 a83e c849 5dbe 9e04 25be
00000080: 3754 31be b9ca b1bd f229 853e 268b bebd
00000090: 4244 75be 5263 843e 6083 b43e 6f4e cabe
000000a0: 0e27 9cbd 246c 73bd 9235 f6be d59b a1be
000000b0: 86d6 633e 6224 18be dd42 93bd 8d4a 1ebd
000000c0: e148 883d 65c7 143d 6364 553e 5263 b6bd
000000d0: 29bd 11bf 0ca6 96bd ae35 1ebd ba60 05be
000000e0: 6feb c7be 4602 a9be 00e7 393e ca97 343e
000000f0: 024b 05be 827a 3abd 9c4d dbbc bb0f 203f
00000100: 8c72 03bf 544d 2e3d 57bd 4d3e 3468 c5bd
00000110: a920 d13b 7f12 b9bd 3f06 54be 9874 3a3c
00000120: 6157 1b3e ccdc 393e 2684 8f3e 5410 593e
00000130: da88 1fbe a082 93be 990f 7c3d 0f86 f93e
00000140: eac0 4c3d 25c4 1dbe 94bb 183e 56f7 083e
00000150: 2c54 cebd e699 c5be 166e 253e 1c05 dd3e
00000160: 1a37 26bd d510 aa3d 7144 403d 00c8 13bd
00000170: 47c4 34be 8e4b 7e3e 4402 0d3e 36da 023e
00000180: 72d3 89be 8c30 62bd 5405 293e a8f1 a0bd
00000190: 8641 e93c a48c cd3e c7ef 343e 3b84 d7bd
000001a0: 1186 733e 28fd 62be 4230 773e 3e5a 4d3e
000001b0: c2eb e73d afc7 873e a205 fabd 2b0b cf3c
000001c0: fc98 11be 30c3 7abe 9d7d bf3d 39f9 09be
000001d0: dbfb 833d 849a 81bd a358 183d b7dd c7be
000001e0: 10a1 27be c926 16bf f896 163b 1b13 0fbe
000001f0: 6811 42be 7c6b aebe 4912 f53d c435 a93e
00000200: e081 d93e 9bb1 953d 7f5b 34bd ce49 c23d
00000210: 1e31 14be 2291 6ebd 337a 5cbe 348e 9b3e
00000220: 9b6c 263d fb5c e4bc e338 d93e aa98 4abc
00000230: 172d ea3d 2088 50be 569e 57be 7695 8dbd
00000240: a7e6 f83d fc88 163e 7707 ffbd 4f62 733e
00000250: 51f0 d7be 21a3 90be 0dd4 ee3d 1009 db3e
00000260: 43af 63be 7f7e b23e 8d6f 26bd 29dd 973d
00000270: a7b6 5c3d 7340 32bf 1990 043e 681b a33e
00000280: 523e 943d bc56 483e 2722 003e 7e06 5ebe
00000290: 3daf 27be d963 38be f4ac 9abe 49db 793e
000002a0: 8acf 88bd 4530 bf3e bc25 efbe 2cea 98be
000002b0: 0348 ab3e ead6 4e3d 557f 20be c1a7 f0be
000002c0: ca7f 1ebe 38bf 933d 7864 d1be 08bc 56be
000002d0: fae7 8c3d f913 6b3e e121 43be dda8 24bd
000002e0: 190b 39bd c9fe 773d ebe5 253c 9931 b9bd
000002f0: 924e a1be 1974 a1bd f036 dbbd 6177 943d
00000300: a768 82be 4101 c9bd 0889 9f3d 643a debe
00000310: 3c00 f6bc 9123 adbd c77a 8ebe 10be 473e
00000320: 182f a4be 509f a7bd 6bfd 033d 0fed b63d
00000330: 139f d53d ba63 7dbe 85a0 34be c705 973c
00000340: 8471 2ebe 501a 68bd 63eb afbe a511 97be
00000350: 0117 0b3e ae4c 223e 83ec 5fbe d1c3 c9be
00000360: 6e78 eabd 5d6f 8bbd 9b74 2ebe 5cef 503e
00000370: 6b8b 593e c46f 39be 43be 7dbd eb0e 8d3c
00000380: 96e7 f7bd 3d7f dabd f9b5 e9be e1b0 cd3d
00000390: 369f 7c3d 21b6 753e d451 babd 3a12 e63c
000003a0: 5102 4b3d 9263 b7bd 39d2 003f 7c1a 57bd
000003b0: 05c3 d73e 1f52 613e e62d 3fba f12f 673e
000003c0: cc42 113d 0ae7 b63c 56e6 593e 3441 3a3e
000003d0: 39ef bbbc 7f7d d13d 8a32 5cbe c6c7 a3bc
000003e0: 1d44 923e b424 d73a 9c9e 1dbe 1c83 f23c
000003f0: f1ec 953d 74a9 963e f43b 19be 713e 83be
0.3286027 -0.27591148 0.2889863 -0.3622064 0.18351173 0.2124861 0.39885002 0.0049935407
-0.049990308 -0.06445845 0.0569362 -0.18861824 0.005252874 0.5056682 -0.10261783 -0.22519724
0.028679766 -0.025106601 -0.20577514 0.11778818 0.1271159 -0.13938196 -0.023257855 -0.33733067
0.38386494 -0.20252122 -0.027607666 0.0780219 0.07693343 0.32984117 -0.21610177 -0.16115043
-0.17317282 -0.086812444 0.26008564 -0.09303884 -0.2395182 0.25857025 0.3525648 -0.39512965
-0.076246366 -0.059429303 -0.48087746 -0.31564203 0.22249803 -0.14857629 -0.071904875 -0.038645316
0.066545255 0.03632297 0.20839076 -0.089056626 -0.5692926 -0.0735589 -0.03862541 -0.1302518
-0.3904681 -0.33009547 0.18154526 0.17636028 -0.13016894 -0.04552699 -0.026770405 0.62524
-0.5134666 0.042554215 0.20091759 -0.09639016 0.006382067 -0.09036731 -0.20705508 0.011380337
0.15170051 0.18150634 0.2803051 0.21197635 -0.15579548 -0.28810596 0.061538313 0.4873509
0.049988665 -0.15406854 0.14915305 0.13375601 -0.10074648 -0.38593978 0.16155276 0.4316796
-0.040579893 0.08303992 0.04694027 -0.036079407 -0.17652999 0.2483351 0.13770396 0.12778553
-0.26919132 -0.05522208 0.16505939 -0.07858592 0.028473627 0.40146363 0.17669593 -0.10523268
0.23781611 -0.22166884 0.24139503 0.20053956 0.11324264 0.26519534 -0.122081056 0.02527388
-0.14218515 -0.2448852 0.09350131 -0.13473977 0.06444522 -0.063283 0.037193906 -0.39036343
-0.16370034 -0.5865293 0.0022978168 -0.13972132 -0.18951952 -0.3406638 0.11966378 0.33048832
0.424819 0.07309266 -0.04403257 0.094867334 -0.14471862 -0.05824388 -0.2153099 0.3038193
0.040630918 -0.027876368 0.42426214 -0.0123654995 0.114343815 -0.20364428 -0.21056494 -0.06913273
0.121533684 0.14700693 -0.12452596 0.2376797 -0.42175534 -0.28249457 0.11661539 0.42780352
-0.22234826 0.34862134 -0.040633727 0.0741523 0.05388513 -0.6962959 0.12945594 0.31856847
0.07238449 0.19564337 0.12513028 -0.21682164 -0.16375442 -0.18006839 -0.30210078 0.24400057
-0.0668021 0.37341514 -0.46708477 -0.2986616 0.33453378 0.050497927 -0.15673573 -0.47002986
-0.15478435 0.072142065 -0.40896964 -0.20970166 0.068801835 0.22956838 -0.19055893 -0.040200103
-0.0451766 0.060545716 0.0101256175 -0.09042663 -0.31505257 -0.07883472 -0.10703838 0.07249332
-0.25470468 -0.09814692 0.077898085 -0.43403924 -0.030029409 -0.084540494 -0.27828047 0.19506097
-0.3206718 -0.08184683 0.0322241 0.08931934 0.104307316 -0.24745074 -0.17639358 0.018435372
-0.1703549 -0.05666572 -0.34359273 -0.2950565 0.13582994 0.15849563 -0.21867566 -0.3940721
-0.114487514 -0.0680835 -0.17036669 0.20403808 0.2124459 -0.18109041 -0.061949026 0.017219028
-0.121047184 -0.106688 -0.45646647 0.100435026 0.061675273 0.23995258 -0.09097639 0.028084863
0.049562756 -0.089545384 0.50320774 -0.05251549 0.42140976 0.22003983 -0.0007292911 0.22576882
0.035464093 0.022326965 0.21279272 0.18188936 -0.022941219 0.102290146 -0.21503654 -0.01999272
0.2856759 0.0016414137 -0.15392536 0.029603533 0.073205836 0.29426157 -0.14964277 -0.25633577

network_body._body_endoder.seq_layers.0.bias f4 [128]
00000000: bfc6 8c3d fa72 913d 64d6 cd3d 3d34 1cb9
00000010: 5f9e a13d 1af7 7d3d 63d3 243d edde 1c3d
00000020: 89eb 7a3d 1d47 b43d 5b92 d03d 4bac 9f3d
00000030: 30ba 873d c124 c33c 81f8 e93c ebdc 183d
00000040: 3403 94bd 787d 5cbd 3096 de3d b795 16bc
00000050: aa9c a43c 27e9 65bd ce58 9d3d 5b31 1fbd
00000060: 54e4 3f3d 6404 933d d138 443d f78c f23c
00000070: d9d2 513d bf58 ea3d 6024 853d 2ce2 023e
00000080: 95c9 0a3c 11fc a53d 16cd c5bc 2cb7 8abb
00000090: 463d b23d 3824 083e 23b1 b43d ee44 273d
000000a0: 7bc5 cabc 88ba d93d 79ea 5a3c d6fa 333d
000000b0: 20ea 933d 1055 003e ec3c ec3d fa4f 693d
000000c0: 070a c03c 0b8f 833d 992c bc3c eb0e ad3d
000000d0: d726 db3d b62f 043c 63b2 283d e0aa 2cbd
000000e0: f0d1 ba3d 39b1 d13d ba84 4c3d 4314 593d
000000f0: 688a a13d 3e95 fdbc d7d8 b13d b816 363d
00000100: 9d7e 073d 89f5 7c3d 979a 9c3d b25b 973b
00000110: 86ae 9cbd 9d7a 813d f9d0 213d 3407 1d3d
00000120: bb8f 8abd 7447 b83d 231c 843d 6386 063e
00000130: fdf7 ae3d 7e4d b63d d097 ba3d d441 f73c
00000140: d09b dcbb c165 e33d 8f0d b63d a507 453d
00000150: 09b7 c13d ec24 143d 6994 943d 431d e33c
00000160: 4f50 07bd 0ccc e63d 882e 043d b1ac 9f3c
00000170: 4136 343d 7917 213d d8f7 303d 9973 f43d
00000180: 5798 213d ec83 fc3c 07e6 f03d 02d8 a83c
00000190: 7bda 893d 9e70 003d 437e 0e3d 3e7a 933c
000001a0: cab0 bb3d cd99 07bb 893d a63d c381 a43c
000001b0: 3ea5 7e3d 0f47 d83d 3a7f 423d cdc6 ca3d
000001c0: 94ab 39bc 9bc2 e3bc 6c21 5a3d fa8c 22bd
000001d0: ab7f b03c c4a8 703d 2e61 903a 7887 d73d
000001e0: 13fd ed3d 8f90 9e3d 6c76 3dbd 64eb da3d
000001f0: e8af 993d 84a8 853c 1133 3d3d 195f cf3d
0.06873845 0.07102008 0.100506574 -0.0001489678 0.07891535 0.062003233 0.040240657 0.038298536
0.06125978 0.08802626 0.10184165 0.07796534 0.06627309 0.023821237 0.028560879 0.03732006
-0.072271734 -0.053830594 0.1086849 -0.009190968 0.020094234 -0.056130555 0.07682954 -0.03886543
0.04684861 0.07178572 0.047905747 0.029608233 0.05122647 0.11442708 0.065010786 0.1278159
0.008470912 0.081047185 -0.024145644 -0.0042332616 0.08703093 0.13295066 0.08822849 0.04083722
-0.02475237 0.10631281 0.013361567 0.043940388 0.0722239 0.12532449 0.115350574 0.056961037
0.023442281 0.06423768 0.022970485 0.08450111 0.107007675 0.008068016 0.041185748 -0.042155147
0.09122074 0.10238881 0.049931265 0.05299784 0.07887727 -0.030954953 0.08683937 0.04445526
0.033079732 0.061757598 0.07646673 0.004619085 -0.07650475 0.06322215 0.039505932 0.038336948
-0.06765696 0.089980036 0.06450679 0.13137202 0.08543394 0.08901499 0.09110987 0.030182756
-0.0067324415 0.111033924 0.08889305 0.048102994 0.09458739 0.036168024 0.072548695 0.027723914
-0.033035573 0.112693876 0.03227094 0.019491525 0.043997053 0.039329026 0.043205112 0.11936111
0.039451923 0.030824624 0.11762624 0.020610813 0.06731125 0.0313574 0.03478838 0.018002626
0.09164579 -0.0020691038 0.08117206 0.020081406 0.062169306 0.10560428 0.047484614 0.099011995
-0.011332411 -0.027802756 0.05325453 -0.039685227 0.021545252 0.058754697 0.001101529 0.105238855
0.11620536 0.07742416 -0.046255514 0.106894284 0.075042546 0.016315706 0.04619128 0.1012556

network_body._body_endoder.seq_layers.2.weight f4 [128, 128]
00000000: c624 86be fc69 f5bd eb6b 8e3d cea6 b0bc
00000010: ba98 abbd d79b 61bd 172c cc3c 4375 7fbe
00000020: 8e18 f8bb 81b7 3a3d 72af 253c 3a6a 423e
00000030: 2635 b83d ec18 4d3d 003d 0d3d d161 14be
00000040: 4edc 09be f8b9 31bd c550 75ba 5efc 4fbe
00000050: 4f52 a73d 8912 a4bd ec7c a23e a732 5abc
00000060: ab2b 3fbc af24 fcbd 9234 8dbc fa2b b2bd
00000070: 74eb 973d 6ad7 e53d 0f5c 683c fb3f 95bc
00000080: 5cc0 f9bc 1520 cfbd d65d 27bd 6a36 05be
00000090: b442 c53c c33e 573e ca14 da3c 19b1 683e
000000a0: 0214 b53c 172c f23b 904b d23b eee3 163e
000000b0: ff51 41bc eef6 51bd 390a 983d c0fa c83d
000000c0: 89b2 91bc c04b 6abd 3b46 9bbd 69cb 073e
000000d0: 03f1 9cbd dd4d b63d e406 713d 9f29 4d3d
000000e0: a819 03bc c031 243e 411c 25be 0e02 a13d
000000f0: 2752 3dbd 8f6c 103d 2eba f93c 1d93 d4bd
00000100: 16ff 4ebd 810b aa39 f6db d3bd 5328 89bc
00000110: 0df0 a6bd b6f9 47be 9f9d a33c fdbe 32bd
00000120: 710e 433d 2d63 37bd aa64 e13d 2972 6b3d
00000130: 63b4 6bbc 8713 80bd 1a9b 293b bbb4 603e
00000140: 9c5a cf3d 1452 68bc 1916 16bd a305 05be
00000150: b822 0cbe 4e1f 46bc c713 8b3c 9942 203d
00000160: d138 203d 4879 01be e6cb 8a3d 6c4e c6bd
00000170: 3671 0e3c b6c6 5abd 86b1 493e da3c 943e
00000180: d08f 933b 73ab 09bd efd3 4a3d 4868 363d
00000190: ad73 1b3e 764a 89bd 6158 153d e654 5f3d
000001a0: 2654 233c 1f60 253e 91ce 3ebe 05e2 d43d
000001b0: 092a 4cbd 7ec4 aabd 8555 22be 7760 183e
000001c0: 2662 2dbe 86b4 8d3d 921c c83c 4d16 eebc
000001d0: 2673 8a3d 2c91 8c3d 68d5 54be 900b b03b
000001e0: c228 22bd 8a7d c0bd 3243 e2bd ac29 b5bd
000001f0: 84fd 42be 0570 483e 8bc9 1e3e 365e c43d
00000200: d6dc 8e3b 7653 653d 8766 f43d 3ec2 803c
00000210: 81b5 e93d 1616 b93c 1162 d53c 0518 d43c
00000220: 2d8c c43c f08c b03c 3a85 523e 07d4 6e3e
00000230: 7d6a 9f3d ecd5 403e 8900 bf3c c989 8e3d
00000240: d166 51be 49d1 debc b9db f93d 5865 3d3b
00000250: ab53 b53d 9b57 13be 1828 973d 62c4 98bd
00000260: ca7a f53c ac31 b73d 20c1 18be e788 2cbe
00000270: 768d 3a3c 178c 4ebd 0f84 57bc 5499 973d
00000280: da1a 9bbd 0135 d63a 3f3d f83d b0ef 0f3d
00000290: 498a 443e a2bf a83d 92af a2bd 957d a63d
000002a0: 079e 343e 7184 073e 2445 013d 3598 c23c
000002b0: 21bf d73c 5b47 0f3e 4be3 8ebd 8ea7 eabc
000002c0: cb06 443e d4a5 ab3d 5296 123e 1895 f53d
000002d0: c361 a83d 6e20 ef3c 50f0 b43d 6f55 62bd
000002e0: 86b2 cb3d a8d2 ed3c 3a14 fc3c b9b6 33bd
000002f0: 18ff 1cbd c53d c53d a440 01bd 31d5 8d3d
00000300: bdff 9c3d fa41 dc3d a62f 17bd fcb4 9ebd
00000310: 521b debd f4cf aabd 1caa b8bc 6d5f 043d
00000320: a77f 99bd 3de6 e1bd 7f91 bdbd 3086 993e
00000330: 43d5 e33d 0dd0 aebd 2fe4 913e f03d ebbc
00000340: b4d7 853d 65a6 273e 9ade 263c 4b9e d13d
00000350: 0185 bc3d ba38 cf3d e022 22be 2116 10bd
00000360: a67a 35bd aa3c f33d ea8c e3bd da30 c8bd
00000370: e6c6 783e bdc2 52bd f997 febd cfc3 f23c
00000380: 80ec 05be 2f07 403c b583 723e f5d7 323e
00000390: 557f 8c3d 37b7 663d a9ab 54bd 7fde 00be
000003a0: ed45 d8bd 0d15 1c3e 3be7 4c3d 8f35 49bc
000003b0: d32d bb3d 01af 87bc b88c 093e aae3 f33d
000003c0: 550a 3a3d 3b73 eebd 46d4 083d 94df 48bd
000003d0: 74a9 e93d c2e8 163e 1446 dc3d a502 8ebd
000003e0: d6ef a83c f346 f83d f349 6b3c 733c 363e
000003f0: 9bb0 983d 0b57 9ebd e3a8 8b3d 2198 3a3e
-0.2619993 -0.119831055 0.069541775 -0.021563914 -0.0837874 -0.05508026 0.024923367 -0.24947076
-0.0075712865 0.04558516 0.01011263 0.18985835 0.08994512 0.050072595 0.034482002 -0.14490439
-0.13462946 -0.043390244 -0.0009358044 -0.20311114 0.08169996 -0.08011348 0.31735933 -0.0133177405
-0.011668126 -0.12311684 -0.017236982 -0.08699794 0.07417956 0.112227276 0.014182105 -0.018218985
-0.030487232 -0.10113541 -0.040860973 -0.13009039 0.024079658 0.21020035 0.026621241 0.22723807
0.022104267 0.00739051 0.006417699 0.14735386 -0.011799335 -0.05126088 0.07423825 0.09813452
-0.017785328 -0.057201147 -0.07581755 0.13261189 -0.07663157 0.0890157 0.058844462 0.05008852
-0.008001722 0.16034603 -0.1612406 0.0786172 -0.046220925 0.03525978 0.030484285 -0.10379622
-0.050536238 0.00032433498 -0.103446886 -0.01674286 -0.08151255 -0.19528851 0.01997262 -0.043639172
0.047621194 -0.044772316 0.11005528 0.05748192 -0.014386269 -0.062537245 0.0025879801 0.21943943
0.10124704 -0.014179725 -0.036642168 -0.12990431 -0.13685119 -0.012092425 0.016977204 0.039126012
0.039116684 -0.12643921 0.06777172 -0.096829265 0.008693984 -0.05341216 0.19696626 0.28952676
0.004503228 -0.033610772 0.049518522 0.044533044 0.15180846 -0.067036554 0.036461238 0.054524325
0.009968793 0.16149949 -0.18633486 0.10394672 -0.049844775 -0.08338259 -0.15852936 0.14880548
-0.16931972 0.06919198 0.024427686 -0.029063368 0.06760244 0.06863627 -0.20784533 0.005372472
-0.03958965 -0.09398945 -0.11047973 -0.08845839 -0.19042021 0.19573982 0.1550657 0.09588282
0.004359822 0.055987798 0.11933618 0.015717622 0.11411572 0.02259354 0.026047738 0.02589036
0.023992622 0.02155158 0.20558634 0.2332307 0.07783983 0.18831605 0.023315685 0.06959874
-0.20449378 -0.027199404 0.12200112 0.0028899517 0.08853849 -0.14388888 0.07380694 -0.07459332
0.029965777 0.08945021 -0.14917421 -0.16849099 0.011386266 -0.05042657 -0.013154044 0.07402292
-0.07573481 0.0016342701 0.12121057 0.035140693 0.19193377 0.08239676 -0.07943644 0.081294216
0.17638408 0.13234116 0.03156008 0.023754219 0.026336255 0.13992064 -0.069769464 -0.02864435
0.19143216 0.083812386 0.14315155 0.11991328 0.082217716 0.029190268 0.088348985 -0.055257257
0.0994616 0.029031113 0.030771364 -0.04387543 -0.038329214 0.09630922 -0.031555787 0.06925429
0.07665966 0.107547715 -0.036910675 -0.07749364 -0.10845055 -0.08340445 -0.022542052 0.032317568
-0.07495051 -0.110302426 -0.09256267 0.2998519 0.11124661 -0.08535776 0.28494403 -0.028716058
0.06535283 0.16372068 0.010184908 0.1023527 0.09205056 0.101182416 -0.15833616 -0.035177354
-0.04430642 0.11876805 -0.111108616 -0.09774943 0.24294624 -0.05145525 -0.1243133 0.029634384
-0.13078499 0.011720463 0.23683055 0.17465194 0.06860224 0.05632707 -0.05192152 -0.12584876
-0.10560212 0.15242405 0.050025206 -0.012280836 0.091396 -0.01656294 0.13432586 0.11908658
0.04542001 -0.11643072 0.033405565 -0.049041346 0.11409274 0.14737228 0.10755554 -0.06934098
0.020622175 0.121229075 0.014360893 0.17796497 0.0745556 -0.07731446 0.06819322 0.18222095

network_body._body_endoder.seq_layers.2.bias f4 [128]
00000000: 9693 143d c66b c63d 8068 8d3d c55d 103d
00000010: 3159 1ebd 386e 403d 4743 51bc 845d 6a3c
00000020: c557 cb3d 1567 2ebd 8a36 68bd d764 0c3d
00000030: ea08 adbc ba66 cd3d 8e71 333d ec4d 5e3d
00000040: cd09 b83d a51b 4e3d f585 55bc d971 31bc
00000050: fb6b 93bc 34f3 3a3c 3163 253d 2058 7b3c
00000060: 197d 883b 8a76 423d 4472 ce3c b2ad e13d
00000070: 393d 103d 581d 9f3d d39d be3d ec6d 063d
00000080: 0f22 97bb 67ff b1bc 64e2 81bc 21fd 9f3d
00000090: 09aa bfbc 04bb 3a3c 4da5 81ba 0a68 ee3d
000000a0: 745e 9c3d 50cb 123d a6a5 96bb 5b16 a23c
000000b0: 98a9 66bd de01 0e3d fe3f 4bbc a342 ba3c
000000c0: 2427 153e de37 e53d d3d9 b63d c091 173d
000000d0: b0cc a53b b3b7 ed3d e3a9 5dba d600 783b
000000e0: 03aa 843d 10e8 fcbc 83f5 a03c e404 613d
000000f0: 1d36 893d 8ce4 b33c d392 79bd 7e86 14bb
00000100: 3dae 32bd 06d9 d43d ac7a c93d 2d8a 2dbd
00000110: f4c5 72bd 8f2e 693d 002c ef3d 7695 30bd
00000120: 482c 5a3d 215b 0bbc ce4e c73d 1ea4 91bd
00000130: 6cc0 dd3c 926a b43d 4f07 a53d 3eb6 a43b
00000140: c343 803d b0ea ef3d 37e1 133d f4a8 053d
00000150: 4e4f eb3b fae4 4ebd 0466 32bd 2668 873d
00000160: 4893 5b3d 534e 493d 1dd9 c53c d3d2 853d
00000170: fee6 8e3d bb93 3d3d 1fac 8d3c c813 903d
00000180: 37ef c03d 53eb 0cbd e0f9 b23d a266 733b
00000190: b0ab 8fbd 46d4 bd3b 7e35 383d 0da4 ca3c
000001a0: 23cd cd3c 892d ecbb caee d33b 6139 18bd
000001b0: 243a c33d e30f a53c 1311 803d 9f59 c33d
000001c0: 0098 b63d bafc 573c c5aa c6bc 6c6d af3d
000001d0: f51d bf3d 6eaf 883d 5180 953c 28bf 8cbb
000001e0: f3a0 583d ade9 d33c 2f05 02bc 0fc1 083d
000001f0: 30f4 313d 96a5 893c 5866 db3d 363f 583d
0.03627356 0.09688525 0.069046974 0.035245676 -0.03865928 0.046980113 -0.012772388 0.014304522
0.0992885 -0.042578775 -0.056692638 0.034275856 -0.021122415 0.10029359 0.043809466 0.05427353
0.08986244 0.050319333 -0.013032426 -0.010830366 -0.017995825 0.011410523 0.0403778 0.015340835
0.0041653034 0.04747633 0.02520097 0.11019458 0.035214636 0.07769269 0.09307446 0.032819673
-0.0046122144 -0.02172823 -0.015855022 0.078119524 -0.023396509 0.011397127 -0.0009891182 0.116409376
0.07635203 0.035838425 -0.0045973836 0.01978605 -0.05631408 0.03466975 -0.012405394 0.022736853
0.14565712 0.111922964 0.089282654 0.037004232 0.005059801 0.116073035 -0.0008455796 0.0037842295
0.0647774 -0.030872375 0.01964832 0.054936305 0.066997744 0.021959566 -0.060931038 -0.0022663171
-0.043623198 0.103929564 0.09837851 -0.042368103 -0.059270814 0.056929167 0.11678314 -0.043111287
0.053264886 -0.008505614 0.09731828 -0.07111381 0.027069293 0.08809389 0.08058035 0.005026608
0.062629245 0.11714685 0.036103453 0.03263183 0.0071810847 -0.050511338 -0.04355432 0.066116616
0.053607255 0.04914696 0.02415138 0.06534352 0.06977652 0.046283465 0.017293988 0.07035023
0.094206266 -0.03440411 0.08739066 0.0037140031 -0.07015169 0.005793127 0.04497289 0.024736429
0.02512223 -0.0072075767 0.006467675 -0.037164096 0.09532574 0.020149177 0.06253257 0.09538578
0.089157104 0.013182813 -0.024251351 0.085657924 0.09331886 0.066740856 0.018249663 -0.0042952485
0.052887868 0.025868261 -0.007935806 0.03338724 0.043445766 0.01680259 0.1071288 0.052794658

action_model._discrete_distribution.branches.0.weight f4 [3, 128]
00000000: 4664 96bc e02a f33b c444 bbbc cc4b c7bc
00000010: b00e 313c fb05 d03c 3a27 2ebc 9e85 173c
00000020: 2d22 d939 1015 3b3d 73f5 87bc 9439 153d
00000030: e266 da3c 382b c7b8 e7de 003d 5b61 6abc
00000040: a4b0 1bbd 0ab9 5abd 6cc3 2f3c 508b d8bc
00000050: 4311 683d 2a4e 923c dc9f 933c fd04 04bd
00000060: fe48 663c 7652 8bb9 fd3a 6bbc 8beb 81bc
00000070: 81ce ff3c 02e2 1c3d 525b 4abc ce74 99bb
00000080: 89d2 cabb 20f5 5ebd 0530 aebc f377 7e3c
00000090: 03c9 20bc 8e49 03bb bf5a 91bd 1980 b9bc
000000a0: fec0 c3bb 67a5 a13b 1b79 843c 4f23 963c
000000b0: 2536 8f3d e28f 1d3b 0631 2a3c 3470 843c
000000c0: b3be dd3c 19e1 073c 12d1 323b 30fb 0a3c
000000d0: 445a a7bc 284f 953b 37c6 3bbd 5099 abbc
000000e0: 2ef0 66bc 3afb 0f3d 9618 1fbd 254e c8bc
000000f0: b51d 393d 6655 92bc 1dd8 cd3c 5446 61bd
00000100: cfed 0a3d 8209 4cbc 40b5 e43b 961e 8f3c
00000110: a6f1 2ebb e350 09bc 4fad f7bb afdd e23c
00000120: feed 1f3c a22d 24bd f49b 813c 7eff b8bc
00000130: 8c31 513c 8eda ad3c 1a32 343c 8338 51bc
00000140: fddf 873d 7b0f 163b 908a c23a d45b c9bb
00000150: e3d4 30bc 214f 723c 6ee5 b53a 8439 91bb
00000160: 4037 17bd f163 66ba 2f2d f7bc 8deb 943b
00000170: 9e98 913c ae2d 4f3d 1dac 4c3c 3783 4abc
00000180: 6113 15bc 7044 08bd 6e05 153c d05f 223a
00000190: 74fb eebc 44ff 8f3b 1d84 583c 1446 c73b
000001a0: bf1f 663c 3422 48bc e73c 5c3d be26 0abd
000001b0: e285 56bd 4c80 ddbc 244c 10bd 8d23 8b3b
000001c0: 476d 3dbc 5fa8 98bb b600 5ebb 12b0 183c
000001d0: b799 07bc d64e 82bc f2a8 febc 6985 723d
000001e0: 7ff4 13bd 865f 80bc 57a7 2c3d d089 423d
000001f0: 3434 8d3c 0536 c6bb 8b09 4a3c 3dd9 d23c
00000200: 9015 2abd 4c79 463c 525e b63c 007f b83c
00000210: 96e0 ff3c f511 303d 90a2 0bbd 5fff 85bd
00000220: eca0 2c3c 4d5a 53bc e80c 643d 2c73 133d
00000230: 4fff 9bbc f58f e23c b6df 80bd e16a 3f3d
00000240: 3055 503d f05b 86bc af97 463c a213 7c3d
00000250: 6fcc 5cbb b9a7 ee3c 923d 1abb c5ea 943d
00000260: 976c 9a3d 7ab0 373b 8e88 083d 959b b0bb
00000270: 2e00 bc3d b37e 6dbc 1939 d5bb 139a 1ebc
00000280: de88 2b3d 4898 663c 6c9c e63c 344e 0cbd
00000290: d7ee f03c 3998 c13c aa66 f33d 8d8b 303d
000002a0: e4b1 2bbd 6b34 b13c 4cc6 1fbb ebd1 a9bb
000002b0: 2642 963d 3c0e 0bbd d2f0 cdbd f002 c7bb
000002c0: 9a6a bd3c d2a2 7abb 209a 18bd e0f2 33bd
000002d0: fe73 b43d 045d d7bb 9e6d 21bd 0578 e23d
000002e0: f9dc 103d 2433 383d cff5 76ba d71b 3bbd
000002f0: c224 b43c f4c6 683d a945 21bc 5438 4fbc
00000300: 427e 923c 59e8 a73c 942a 273c e459 38bc
00000310: ceb6 873d 4d74 b63c 47fc 46bc 817c aa3c
00000320: a082 6b3c 90b9 663d d0da 10bc 2fc6 1ebb
00000330: e0bc 1ebd c9b6 8c3d 62ef 8c3b 1169 6abc
00000340: 2709 8cbc bb98 06bd 9a9a 1d3d 5c3a e73c
00000350: 2c55 873c 1aff ad3c ec4f 85bd 6bab 2c3d
00000360: c24c 533c 54f1 e4bd ccaa 023d 02ca 9dbc
00000370: 6726 95bd 3c1a 0fbb 4c81 fe3c f727 293d
00000380: 7ea5 6f3c 65a7 3cbd 3429 203c fc13 d53d
00000390: 91a3 a3bc 9bc0 48bd 471b 7cbc 3236 54bd
000003a0: dcbf 41bd aa11 d33d 6b9a c33d 3cd9 a63d
000003b0: 785c c7bb d73e a6bc acb3 f23c 2d13 8e3b
000003c0: 5361 20bd a30c b63d f77d 873c aaf9 37bd
000003d0: 33b6 3ebd a03e a73c 9cf8 fa3c b92e 16bc
000003e0: 5977 b73b bb79 29bd e782 613c ade6 12bb
000003f0: d6dc 5bbc 9566 a9bc c37b 54bc 9258 833c
-0.018358361 0.0074208826 -0.022859938 -0.024328135 0.010806724 0.025393477 -0.0106294695 0.009248165
0.00041414928 0.045674384 -0.016596531 0.036431864 0.026660386 -9.4971096e-05 0.031462576 -0.014305438
-0.038010255 -0.053399123 0.010727745 -0.026433617 0.056657087 0.017859537 0.018020563 -0.03223132
0.014055489 -0.00026573584 -0.014357326 -0.015859386 0.031226398 0.038301475 -0.012350874 -0.0046831137
-0.0061896485 -0.05443299 -0.021263132 0.015531528 -0.00981355 -0.0020032856 -0.070973866 -0.02264409
-0.005973934 0.0049330476 0.016171029 0.018327383 0.06992749 0.002404206 0.010387665 0.016166784
0.027068472 0.008293414 0.002728526 0.008482739 -0.020428784 0.0045565553 -0.04584333 -0.020947129
-0.014095349 0.035151698 -0.038841806 -0.024451325 0.045194346 -0.017862987 0.025127465 -0.05499871
0.0339182 -0.012453439 0.0069796145 0.01747064 -0.0026694327 -0.008381101 -0.007558502 0.027693598
0.009761332 -0.04008258 0.015821435 -0.022582766 0.012768161 0.021222379 0.010998273 -0.012769821
0.06634519 0.002289741 0.001484232 -0.00614498 -0.010792944 0.014789374 0.001387758 -0.004431905
-0.036917925 -0.0008788696 -0.030172912 0.0045446814 0.017772969 0.050580673 0.012492207 -0.012360386
-0.009098859 -0.033268392 0.009095533 0.0006194087 -0.029172637 0.0043944437 0.013215092 0.006081352
0.014045655 -0.012215186 0.05376902 -0.033728354 -0.052373774 -0.027038716 -0.035228863 0.0042461813
-0.011561698 -0.0046587433 -0.0033874935 0.009319322 -0.008276395 -0.015906733 -0.031086419 0.05920926
-0.03612184 -0.01567055 0.042151775 0.04749471 0.017236806 -0.00604892 0.012331377 0.025738353
-0.04152447 0.01211388 0.022261772 0.022521496 0.03123502 0.042985875 -0.03409058 -0.06542849
0.010536414 -0.012899947 0.05567637 0.03599851 -0.019042639 0.027656535 -0.062926695 0.046732787
0.05086249 -0.016401261 0.012121125 0.06154216 -0.0033691188 0.02913271 -0.0023535234 0.07271341
0.07540243 0.0028028772 0.033333354 -0.0053896406 0.09179722 -0.0144955395 -0.0065070507 -0.009680289
0.041878574 0.014074393 0.02815076 -0.034254268 0.029410763 0.023632156 0.11884816 0.043101836
-0.041917697 0.02163144 -0.0024379669 -0.005182495 0.073368356 -0.03394912 -0.100556985 -0.006073348
0.02312212 -0.003824402 -0.03725636 -0.043932796 0.08811186 -0.0065723676 -0.03941118 0.11058048
0.035366986 0.044970647 -0.00094207836 -0.045680847 0.021990184 0.05683036 -0.009843268 -0.012647707
0.01788247 0.020496534 0.0102030225 -0.0112519 0.06626664 0.022272253 -0.012145109 0.020811321
0.014374405 0.05632931 -0.008841231 -0.0024227013 -0.038754344 0.06870801 0.0043009976 -0.014307276
-0.017094208 -0.0328605 0.038477518 0.02822607 0.016520105 0.021239806 -0.065093845 0.042155664
0.012896718 -0.11178842 0.031901166 -0.019261364 -0.07282715 -0.0021835705 0.031067513 0.04129788
0.014626859 -0.046058077 0.009775449 0.10404202 -0.019975455 -0.049011808 -0.015387363 -0.051809497
-0.047302112 0.103061035 0.09550937 0.08146903 -0.006084021 -0.020293636 0.02962669 0.004335782
-0.039155316 0.08889129 0.016539557 -0.044915833 -0.046560477 0.020415604 0.030636124 -0.009166413
0.005598944 -0.041375857 0.01376412 -0.0022415326 -0.013419351 -0.020678798 -0.01296896 0.016033445

action_model._discrete_distribution.branches.0.bias f4 [3]
00000000: 0bfd 093a d68d 19bc fcbf 5f3c
0.00052638416 -0.009372195 0.0136566125

action_model._discrete_distribution.branches.1.weight f4 [3, 128]
00000000: a1b5 533d 30e1 b2bc 3f45 3dbc 0f37 febc
00000010: 4f18 7cbc 01d8 233c 7bcf 87bd d273 b93c
00000020: bf71 893c a808 d43c 7cd4 c73c 086a 60bc
00000030: add9 0e3b 0d8c d0bb 3aed 11bd 3e20 20bd
00000040: 98d8 75bd 0409 21bd c784 883d d16c 9d3c
00000050: dfcf 4b3c 0ee8 4b3d f704 0b3c dd50 843d
00000060: 91fe 25bd 5a48 33ba 2354 00bc 29f4 943c
00000070: f97a 243c 4e2e 003d 1137 f13b f688 13bd
00000080: 2b13 6bbd 363a 84bd bf7b 2fbd 9e28 ea3b
00000090: 1a3f 14bd 5ee9 3c3c dd94 be3c 3db9 19bc
000000a0: b2b5 04bd 3999 07bd 2e34 8f3b cbf0 5d3d
000000b0: 050f 653c 1c01 f73c 98fb 84bc 8f02 463d
000000c0: fa21 3abc da2d b5bc ab6a 08bd 83a3 88bc
000000d0: dfa3 abbb 6fca 9ebc 31e8 46bd 6982 34bc
000000e0: 4cf5 87bc af27 b5bd 0c1d 15bc 3a72 163d
000000f0: 416f eb3a 40b8 423b bb47 be3c 0604 ddbc
00000100: f0cd e8bb aa27 dcbc dbfb 333d 2d02 9f3d
00000110: b32a 193d 7797 443c bca6 82bd 6a3e 193d
00000120: af76 153d a4d1 b33c f83d 0b3c 7337 bf3b
00000130: a3cf 9bbd 9a20 c33c 33ac 7fbb 0914 f93c
00000140: 4b3e bd3c fb24 90bc 7e86 543d 3f91 d33c
00000150: 7ee6 ec3c 1f3d 1abd 7135 c73c 759c ba3c
00000160: 1dd5 8abd 8053 babc a2ea 91bc 5243 0cbc
00000170: 8665 bd3a 9cdf b83c e973 173d 0322 22bd
00000180: 37c9 643c 7ee9 1f3d efb3 133c cd7f ffbc
00000190: 80c0 7f3d e440 4dbc eb33 393d 75a8 053d
000001a0: 88e2 b6bb ff2b 72bd 248e 7dbb bae3 36bc
000001b0: f605 4abd 50d5 64bd a6c3 f4bc 5bdd a5bd
000001c0: b8af 4fbd 06dc 0abd f6b1 993d 0978 20bd
000001d0: 51d4 aa3b 0a14 a5bc 6e5c 08bd 76fe 593c
000001e0: cddb 8abd 449c 083c bb9b c5bd 916c cfbd
000001f0: cdc6 d7bc 6ab7 4fbd 5e2e c0bb 1a9c b13c
00000200: a5a8 6abd ab20 063d 0a87 a73b 86ff 09bd
00000210: ab8d a53c aad1 3abc 5282 cc3d aa9b dfbd
00000220: 982d 433d 69d1 64bc ea35 0abd 12cb 5d3d
00000230: 1523 bfbd 3794 533d 9045 e23c bf1e af3d
00000240: 2faf 9b3d 493c d03b 984b 7cbd 1655 8ebd
00000250: b635 acba 883f 1ebc 88bb 943c 9b09 873a
00000260: 439b 533d 6313 67bc a255 cd3c ad21 013d
00000270: 24b5 9ebd a861 fbbb 3830 dc3c 0450 2ebd
00000280: 7372 863d 25d6 b0bb 31a7 03bd c421 02bd
00000290: 0669 87bd 1aa2 343d 1762 cebc a2be 953d
000002a0: 5a44 9fbc 7af6 d4bb d513 593d 951c 103b
000002b0: 9b24 a3bd 8818 cb3b 5c6d 343d 9cf1 95bd
000002c0: 9055 e63c a376 2fbd 5f11 ee3b 2f1b 483d
000002d0: 0ea9 093d 4de1 343d 8282 e4bb 71b8 90bd
000002e0: 0ccc 803d ec22 8abc de16 243d d187 0c3d
000002f0: 4586 873d 7ca9 70bd 288c 5abd 1ce5 97bc
00000300: ac3d d2bd 634a c0bc b439 5f3c 3101 e8bd
00000310: 9e89 b4bb 7bf7 1c3d 5e93 253c 261a 03bd
00000320: 0afc 5abd df5e 84bd fe2f 983d 8f28 6ebd
00000330: be64 843d 082f 9a3c 424d 493b d610 aabd
00000340: 78cf 34bc 9468 583d 0a13 9abb 719f ce3c
00000350: d5b2 3cbd 8c3e ffbb a44e 56bd cf33 47bc
00000360: a9ec 993d 0b64 043e 8676 1fbd 1ad8 debc
00000370: a58e 6dbc 5128 ef3c cffa d9bc a420 673d
00000380: c503 1dbd 5718 cbbc 032f 42bc 32fa a23b
00000390: ee14 00be 9d2e 083e 8505 44bd 597b 81bd
000003a0: 9f5d dcbc 23df 023c 7534 9e3d ab04 a53c
000003b0: 0eef d03b 24a2 493d 1cc9 803c 67e9 6d3d
000003c0: d6a5 2d3d 2d4e ebba f3ac c3bd da93 b43d
000003d0: 971f d63a 3410 20bc 10f9 113d 5085 213d
000003e0: 72f3 5a3d 5a4d 74bb caf2 5bbd dfb1 923c
000003f0: 0602 023e e844 8f3d 6f59 363d dbd1 74bb
0.051686887 -0.021835893 -0.011552154 -0.031032113 -0.015386655 0.01000023 -0.06631371 0.022638235
0.016777871 0.025883034 0.024393313 -0.013697155 0.0021797225 -0.0063643516 -0.035626628 -0.03909325
-0.060021013 -0.03931524 0.0666595 0.019216927 0.012439697 0.04978185 0.00848507 0.06460736
-0.040525977 -0.00068390893 -0.00783256 0.01818283 0.010039085 0.03129416 0.0073613008 -0.036019288
-0.057391327 -0.06456415 -0.042842623 0.007145955 -0.03619299 0.011530248 0.023264343 -0.009382543
-0.03239984 -0.03310511 0.004370234 0.054184716 0.013980632 0.030151896 -0.01623325 0.048342284
-0.01136064 -0.02211659 -0.03330485 -0.016679531 -0.005238041 -0.019383637 -0.04856128 -0.01101742
-0.016596459 -0.0884546 -0.009101164 0.03673003 0.0017962233 0.0029711872 0.023227563 -0.026979458
-0.007104628 -0.026874382 0.04394136 0.07764087 0.037394237 0.011999003 -0.06379458 0.03741304
0.03649014 0.02195055 0.008498661 0.0058354675 -0.07607963 0.023819257 -0.003901255 0.030405061
0.023100993 -0.017595759 0.051886074 0.025826095 0.028918501 -0.037655946 0.024317475 0.022779683
-0.067789294 -0.022744894 -0.017812077 -0.008560972 0.0014449812 0.022567563 0.036975775 -0.039583217
0.013963989 0.039041035 0.0090150675 -0.03118887 0.06243944 -0.012527678 0.04521553 0.032631356
-0.005581204 -0.05912399 -0.0038689459 -0.011162693 -0.04932209 -0.055867493 -0.029878449 -0.08098861
-0.050704688 -0.033901237 0.075046465 -0.039176974 0.0052132984 -0.020151157 -0.033291273 0.013305297
-0.06780205 0.008338038 -0.09648844 -0.10128129 -0.026339913 -0.050712027 -0.0058649024 0.02168088
-0.05728974 0.032746 0.0051125335 -0.03369095 0.020209154 -0.011402527 0.09985794 -0.109183624
0.047650903 -0.013965943 -0.033742823 0.05414874 -0.09332863 0.05165502 0.02762106 0.08550786
0.07601773 0.006354843 -0.06159553 -0.069498226 -0.0013138566 -0.009658702 0.018155828 0.0010302545
0.05166174 -0.014103743 0.025065247 0.031526256 -0.077493936 -0.0076715536 0.026878461 -0.042556778
0.06564798 -0.005396622 -0.032141868 -0.031770483 -0.066118285 0.044099905 -0.025193257 0.07311751
-0.019441772 -0.006499109 0.05299743 0.0021989692 -0.07965966 0.0061979927 0.044049606 -0.07321474
0.028116971 -0.04283775 0.0072652544 0.04885405 0.03360849 0.044160176 -0.0069735656 -0.070664294
0.06288919 -0.016862355 0.04006087 0.034309212 0.06617407 -0.058755383 -0.05335632 -0.018541865
-0.10265669 -0.02347297 0.013624597 -0.11328352 -0.0055095693 0.038321953 0.010105936 -0.03200736
-0.05346302 -0.06463408 0.07431029 -0.05814415 0.064645275 0.018821254 0.0030716215 -0.083039925
-0.0110357925 0.05283411 -0.0047019767 0.025222512 -0.046068985 -0.0077894386 -0.05232109 -0.012158348
0.075158425 0.12928788 -0.038931392 -0.027202655 -0.014499341 0.029194029 -0.026608853 0.056427613
-0.038333673 -0.02479188 -0.011852029 0.0049736733 -0.12507984 0.13299032 -0.047856826 -0.06322355
-0.02690011 0.00798777 0.07724849 0.020143827 0.006376154 0.049226895 0.015720896 0.058083918
0.04239448 -0.0017952375 -0.09554472 0.08817263 0.0016336319 -0.009769488 0.035637915 0.039433777
0.053454824 -0.003727755 -0.05369834 0.017907081 0.12696084 0.06995565 0.044518884 -0.003735653

action_model._discrete_distribution.branches.1.bias f4 [3]
00000000: cfd1 e7bc 7145 d63c 3603 8c3b
-0.028298287 0.02615616 0.0042728437

action_model._discrete_distribution.branches.2.weight f4 [2, 128]
00000000: 9a88 593d d94c 3d3e 88a8 253e 5b51 cd3d
00000010: 25f1 bd3c 13ac ce3d 7028 a3bd 991f 3fbd
00000020: 82d5 093e 0551 d7bd b3b7 e8bc 4924 9f3c
00000030: 75de 1b3d 8593 2c3e 07f1 973d bed5 873d
00000040: 172c 143e a89b 263d 1e49 173d a7c0 ff3c
00000050: 2de3 543d 8d0d c83d 80bf eb3d 1afb 813d
00000060: af3c a8bd 75d6 143e 0090 ee3d b516 233e
00000070: 1ddb 943d dd5d 253e 612a 453e 51ac 073e
00000080: 0270 0abd a5c4 91bd bf22 aaba 0642 273e
00000090: 30a4 acbd 763e c73c fbcd 73bd f605 403e
000000a0: 0221 213e 3382 f63d 58ad e4bc 6bd4 5f3d
000000b0: feed 08bd f76b 903d a0bb 1cbd 1170 d63d
000000c0: 296e 583e 892e 533e 2ec5 353e 2dc3 753d
000000d0: d05d 993d b5f1 163e 0c3b 08bd bf53 7dbd
000000e0: 1c3b b83d d315 06be 24ac a53c 119f f83d
000000f0: 503a bd3d c775 923d 15cc d2bd f006 343b
00000100: cf5f 92bd 8f06 333e 3fb1 443e 3588 0abe
00000110: 94cc 22bd d2ef 0b3e a4e4 313e 33d1 283d
00000120: c25f 273e ff30 2c3d 9922 253e 247e ecbd
00000130: 443c 2eb8 6443 153e 41fe 313e cd8c ba3d
00000140: 3d6d 1b3e 3a1d 483e 9d7d e33d d250 8e3d
00000150: 464c 31bc a4e3 0ebe 5bb4 dabd 28b1 153e
00000160: 741c 8a3d b05b bcbc ac80 3d3d aef5 363e
00000170: dac6 e33d 3a6f 023e 4898 2f3d a375 cd3d
00000180: 40a6 593e 3a69 6fbd e501 313e ce99 24bb
00000190: c4d8 e5bd dc92 88bb aef3 f93d 3199 0937
000001a0: 5038 be3d b5a7 62bd c74e dbbd d02f 22bd
000001b0: 449b 1b3e 1a5b cfba b3ab 0a3e 0030 063e
000001c0: d0b4 1c3e d83e 253d 5da8 19be 775e ca3d
000001d0: 88e3 393e 2bb3 2a3e b97c 253d 2ec6 f1bc
000001e0: fae3 b93d deee 853d af3d 78bc ac2a 07bd
000001f0: 21cc 713d 2664 8bbd 6d35 303e 7c9c 1f3e
00000200: ef4b 55bd 94a0 36be fb8b 33be 18a2 acbd
00000210: 5704 15bd 52e4 e1bd e584 953d 05a9 433d
00000220: 493a 1abe 2cb7 cc3d e85a d13c d734 b43b
00000230: 2995 cbbc f170 31be b0a8 83bd 7ed7 1fbd
00000240: 0038 00be 6f81 24bd 4db4 86bc d104 0cbd
00000250: 4d3e 6ebd 2eae babd 1716 d0bd 6518 a5bd
00000260: 5084 bf3d a732 28be 9d47 e5bd 471c 2dbe
00000270: cec9 afbd 5bb2 17be 43a2 26be 50eb 11be
00000280: 3924 2d3d c495 7a3d 5fc7 d73b 1ce5 39be
00000290: fd33 9d3d 99bd a6bc e7a4 a13d bc0c 1ebe
000002a0: 5851 22be fa62 b9bd ef4d 9c3c f502 97bd
000002b0: aea8 083d b0f6 84bd c588 9a3c d5e1 cfbd
000002c0: 0a95 4cbe 7038 5abe d71b 32be 69bf 69bd
000002d0: 679c a4bd ce92 25be ea46 a23c e318 903d
000002e0: e6c4 b4bd 110d fb3d 55df f7bc b920 ecbd
000002f0: 70f4 b0bd a5f4 62bd 3326 b53d f354 8bbc
00000300: 6c0e 4c3d 9f99 2bbe fb7c 40be 8e3d 0d3e
00000310: a706 dc3c 4489 0fbe 0d89 35be b9a0 19bd
00000320: 8b90 1ebe 39fb 4abd 7450 11be 6cbf da3d
00000330: ee0e 8a3a 1dfb 11be 601c 31be eb94 b2bd
00000340: 9cef 0dbe f28c 43be 2ee5 d7bd 2c2c 7abd
00000350: 0436 e83b ac18 1a3e 4f24 ef3d e9cb 16be
00000360: afd1 78bd aaff e43c e0a5 88bd 038f 26be
00000370: 4a33 03be a660 c3bd 078a 12bd fbbe aebd
00000380: ffa2 49be 3971 5d3d 9df4 39be 5d70 8d3c
00000390: b0a2 e93d fd2c 233b 1263 f3bd 5bcb 01bc
000003a0: af3d b4bd 689e 8d3d fa7d b73d 8c33 143d
000003b0: 435d 1ebe 854b fa39 bccb 1abe e48e 0bbe
000003c0: ac62 02be 79e4 04bd ec7c 1a3e bc63 bfbd
000003d0: c626 31be 6fb6 33be 2c46 37bd 7fa7 113d
000003e0: d80a b4bd afc9 81bd 725c 8a3c f330 e53c
000003f0: a162 79bd f5e5 723d cad7 30be 9139 25be
0.05310879 0.18486346 0.16177571 0.10025283 0.023186276 0.10091414 -0.07966697 -0.046660993
0.13460353 -0.105135 -0.028407907 0.019426482 0.03805395 0.16853149 0.07419019 0.06632565
0.14469944 0.04067579 0.036934964 0.031219793 0.051974464 0.097682096 0.11511135 0.06346722
-0.082146995 0.14534934 0.116485596 0.15926631 0.07268355 0.16149087 0.19254448 0.13249327
-0.033798225 -0.07117585 -0.0012980326 0.1633378 -0.08429754 0.024321776 -0.05952261 0.18752274
0.15735248 0.12036552 -0.027914688 0.054645937 -0.033430092 0.07051843 -0.03826487 0.10470594
0.21135773 0.2062322 0.17751 0.060000587 0.074885964 0.14740641 -0.033259436 -0.061847445
0.08995649 -0.13094263 0.020223685 0.121397145 0.09239638 0.071513705 -0.10292832 0.0027469955
-0.0714718 0.1748297 0.19208239 -0.13528521 -0.039745882 0.13665703 0.17372376 0.041215133
0.16345122 0.042038914 0.16126479 -0.11547497 -4.154096e-05 0.14576489 0.17382146 0.09108887
0.1517839 0.19542399 0.11107943 0.06949009 -0.010821408 -0.13954026 -0.10678931 0.14618361
0.06743708 -0.022992939 0.04626529 0.17867157 0.11121912 0.12737742 0.042869836 0.10032203
0.21254826 -0.05844996 0.17285879 -0.0025116089 -0.112229854 -0.0041678976 0.12204681 8.201504e-06
0.092880845 -0.05533572 -0.10708385 -0.03959638 0.15195948 -0.0015819997 0.1354206 0.13104248
0.1530335 0.040343136 -0.15005632 0.09881299 0.18153203 0.1666991 0.040402148 -0.029513445
0.09076686 0.06539701 -0.015151425 -0.03299968 0.059032563 -0.06806211 0.1720788 0.15587038
-0.05207437 -0.17834693 -0.17533867 -0.084293544 -0.036381092 -0.11029877 0.07300738 0.04776861
-0.15061297 0.09995875 0.025556043 0.005499463 -0.024851399 -0.1732824 -0.06428659 -0.03902387
-0.12521362 -0.0401625 -0.016443396 -0.03418428 -0.058164883 -0.091152534 -0.10160463 -0.080612935
0.093514085 -0.16425572 -0.111953 -0.16905318 -0.08583413 -0.14814131 -0.16272835 -0.14249921
0.042270873 0.061177984 0.006585046 -0.18153805 0.076759316 -0.02035408 0.07892781 -0.15434545
-0.15851343 -0.090520814 0.01908013 -0.07373611 0.03336399 -0.064923644 0.018864045 -0.10150496
-0.19978729 -0.21310592 -0.17393433 -0.05706731 -0.08037644 -0.16169283 0.019809205 0.07035997
-0.08826618 0.122583516 -0.03025786 -0.11529679 -0.08640373 -0.055409092 0.088451765 -0.01700828
0.04981844 -0.1675782 -0.18797676 0.13793012 0.02685864 -0.14017206 -0.17728062 -0.037506793
-0.15484826 -0.04955599 -0.14190847 0.10681042 0.0010533014 -0.14255948 -0.1729598 -0.0871981
-0.13860935 -0.19096735 -0.105417594 -0.06107728 0.0070865173 0.15048474 0.11676847 -0.14726223
-0.060746845 0.027953941 -0.06672263 -0.16265492 -0.12812534 -0.095399186 -0.035776164 -0.085325204
-0.19691084 0.054063056 -0.18159719 0.017265493 0.11407983 0.0024898641 -0.118841305 -0.007922019
-0.08800828 0.06914979 0.08959575 0.03618197 -0.15465264 0.00047739982 -0.15116781 -0.13628727
-0.12732953 -0.03244445 0.15086716 -0.09345195 -0.17299947 -0.17550062 -0.044744655 0.035560127
-0.08791131 -0.06337296 0.016889784 0.027977442 -0.060885075 0.059301335 -0.17269817 -0.16135241

action_model._discrete_distribution.branches.2.bias f4 [2]
00000000: 3f9d 263e 3a9b 26be
0.16270922 -0.16270152

onnx::Div_94 f4 [18]
00000000: ca22 d33e b790 993e 1648 d43e a9a8 9d3e
00000010: cc70 cf3e a3df 9c3e 4ba6 dd3e 090a 9b3e
00000020: 1089 ca3e c377 9c3e 3afb d13e 92c0 9a3e
00000030: 7852 cc3e ec24 983e 62e0 cf3e 83d9 993e
00000040: dbe1 cf3e 49d8 993e
0.4123748 0.2999322 0.41461247 0.3079274 0.40515745 0.3063937 0.43290934 0.30281094
0.39557695 0.3056012 0.41011983 0.30225044 0.3990667 0.2971567 0.40600878 0.3004876
0.40602002 0.30047825

onnx::Div_97 f4 [6]
00000000: 3853 0041 9690 b83e 862b 0041 8bf8 c240
00000010: fd21 943e e6d5 0541
8.020317 0.3604781 8.010626 6.0928397 0.2893218 8.364721
