Assets/Models/AnimalRunStepNew.onnx (onnx, 94374 bytes, 15 tensors)

discrete_act_size_vector f4 [1, 3]
00000000: 0000 4040 0000 4040 0000 0040
3.0 3.0 2.0

network_body.observation_encoder.processors.0.normalizer.running_mean f4 [18]
00000000: f594 9e3e b8b4 213f 5e74 a03e 3e6b 223f
00000010: 7735 9b3e 1852 213f 0604 a23e 56a3 233f
00000020: c80c 9f3e 1d7f 223f 91e2 a03e 4c19 243f
00000030: e759 a13e 5604 243f 3be8 a03e 1649 243f
00000040: ece7 a03e 0749 243f
0.3097302 0.6316638 0.3133878 0.6344489 0.30314228 0.6301589 0.31643695 0.63921106
0.3106444 0.6347521 0.31422856 0.641011 0.31513903 0.64069116 0.31427178 0.6417402
0.31426942 0.6417393

network_body.observation_encoder.processors.1.normalizer.running_mean f4 [6]
00000000: 9ebf b941 a971 ae3f 0695 dec2 670f b641
00000010: 7c1c b73f a260 e1c2
23.218563 1.3628436 -111.29106 22.75752 1.4305568 -112.688736

network_body._body_endoder.seq_layers.0.weight f4 [128, 24]
00000000: 95c5 1dbd 917c 443d 0fcd fb3d 6116 483e
00000010: f26c 943e 24a8 acbe edd6 27be 51d6 be3d
00000020: c6e0 a7be 6fbd 5e3e 0539 bfbe 790d 42be
00000030: 522f 83be 6a71 d83e 5707 c83d 12aa a9be
00000040: 1b26 a23e f9fb ddbd 0092 0bbe fc4c 293e
00000050: 7d54 4fbc 1690 3c3e 96dd 063f 1bdc 413d
00000060: c79b 38bc bece a0be c97f 843e df4f fabd
00000070: 9689 17be 1cb4 1bbf b35c 53be 8e28 923e
00000080: 111c 9e3e 543e d33e a1ad dc3e 3478 34be
00000090: ff9f 893d bb42 5d3e 03c3 bf3d 60e7 1b3d
000000a0: 7659 72be c363 94be 297b c13e 59fd d0bd
000000b0: ca16 e9bc a8c8 6d3e c8a8 503e 73cd 21bb
000000c0: 339d 27bc 080c b0bd 8b68 83bd 7cd4 9b3e
000000d0: f63e 96bd f6bd 773e 3c3c 643e 6a06 233e
000000e0: bb0b 603e a633 babe e7d0 bfbe fc1d 80be
000000f0: 309c bdbe 7f17 b2bc cd1c cfbe 9e7c ca3e
00000100: a9eb 533d f283 bc3d d19d 9f3d bcb7 213e
00000110: df43 7c3e e329 ab3d 8a42 43bd b8e5 e7be
00000120: 17cc 9dbd 91ff 95bd 71c0 76be 9301 e93d
00000130: f40d e23d 5d9d 043e 627e 7a3e 44e1 19be
00000140: ae7f f0be 73ea ad3d fab7 343e 905d 2bbc
00000150: 8297 0dbd 885f 383c 2479 99be 0abf de3d
00000160: 0133 32be 9ff1 643e 1bba 0c3d e063 86be
00000170: 3a07 15be 7568 313e 185a 863e faf3 d33d
00000180: ed78 5dbe d7f9 063f 43b2 8c3d 60f1 c2be
00000190: f0d7 4a3d e5ff 3a3e 1283 e03e fc15 253e
000001a0: e5f3 71bc c3ef 0ebd e368 6dbe bfe2 09be
000001b0: 9622 67be ad93 8f3d d867 17be 9c95 98be
000001c0: 4a27 e1be 2b7a 01bd 55e9 31bd a2ff 8dbe
000001d0: 3aa4 33be 2d05 903d 044c 06be 1ce2 13bf
000001e0: cdd2 1fbe b44a 3e3e 5de1 a53e ef99 cbbc
000001f0: 34a6 9a3d 98a0 a63d a15e d2bb b924 acbe
00000200: f175 313e 290c ac3d 67ec 763e 9c19 643e
00000210: 8a0d 143e 85fa 063a 62ba 4a3e 245b 8ebe
00000220: 2309 8b3d 79da 6b3d 7e3a 013e 22a4 10bf
00000230: 6139 02be dc1f f6bc b93d b43e 4414 333d
00000240: 5166 6ebe a968 30bd 1e8f 5c3e e3b8 07be
00000250: dd67 1d3e f006 5c3d 53dc 973d b107 69bd
00000260: 9d21 9dbe 79ec 8b3c 5fbd 263d fd78 95be
00000270: 2b2b afbe fe59 e8bd 543d 353d 08c2 87be
00000280: c51c 80be ba4e a6bd 632d 2ebe dd50 1bbe
00000290: 6e4c c93c 9e97 da3d 7bde e1bd 58f7 c53c
000002a0: 8e29 1c3e 3cfc 5c3c 96dc 8a3e 8547 603e
000002b0: 8c5d 9a3e c2d0 c63e 61fb de3d 3e22 9bbc
000002c0: 5144 8b3e a616 b0bd 5540 283e 2576 49bd
000002d0: dffa 2a3d 0527 abbd 7c4c b4be fcd3 533d
000002e0: 17e9 9fbc f13f 253f 398f 243e 7f2c a33e
000002f0: 985f 8dbe 79a2 94bd 2111 dc3d 3312 a6bd
00000300: 8d33 1f3e 541c 84bd 5af6 c33d 3b2d 6dbe
00000310: e143 9abe 205a c63e 0ebf afbd 9d57 e13e
00000320: feee 92bd 1125 c03d 0cb5 9e3b 6d7a 7a3e
00000330: 9400 bb3b dfaa 803e b4c9 0bbf e00e 0dbc
00000340: bee9 cebe 4963 303e 10db 1d3e 5c35 59bd
00000350: 22e7 3cbe 3ddc 9c3d 5780 a2be cf25 0e3d
00000360: 142d a7be 0fc2 093e 8ea5 57bd dae4 a23e
00000370: 836a fabd 4cba 4b3e 8825 073f e03f 34bd
00000380: 5ec4 55be cfcd 94be 0ea7 7f3b 4c11 f13d
00000390: 6a53 3fbd 3729 873e 14b9 a6bd e8bc ba3d
000003a0: c182 43be cbf6 01be 6f8f 08bd 3103 bb3c
000003b0: 2501 d3bd fa68 05bc 6de2 85be 28b3 863e
000003c0: 56a0 b7be 67ab 903e 060a a7bd e0a5 803e
000003d0: 8aa1 e9bd bfc8 53be 3c58 27bd 6bd8 7e3e
000003e0: 5a5d 593e db9d bd3c 2090 2b3e 02dd 7ebd
000003f0: 4bc0 693d 5280 e8b9 d485 6d3e 2f44 fb3e
-0.038518507 0.04797036 0.12294971 0.19539787 0.2898937 -0.3372203 -0.16390581 0.09318221
-0.32788676 0.2175195 -0.3734819 -0.18950452 -0.2562204 0.42274028 0.09767025 -0.33137566
0.31669697 -0.108390756 -0.13629913 0.16533273 -0.012654421 0.1841434 0.52681863 0.04732905
-0.011267609 -0.31407732 0.25878742 -0.122222655 -0.14798579 -0.608217 -0.2064083 0.28546566
0.30880788 0.4125849 0.43101218 -0.17623979 0.0671997 0.21607487 0.093633674 0.038062453
-0.23666939 -0.28982362 0.37789276 -0.10204572 -0.02845325 0.23221076 0.20376885 -0.0024689108
-0.01023035 -0.08596045 -0.06416424 0.3043555 -0.073362276 0.24193558 0.22288603 0.15920416
0.21879475 -0.3636753 -0.37464067 -0.25022876 -0.37033224 -0.02173972 -0.4045166 0.395482
0.051738415 0.09204854 0.07793773 0.15792745 0.24635266 0.08357599 -0.04767088 -0.4529245
-0.07704943 -0.07324136 -0.24096848 0.113772534 0.110378176 0.12950654 0.24462274 -0.15027338
-0.46972412 0.08491983 0.17648306 -0.010459319 -0.034568317 0.011253245 -0.29975235 0.108762816
-0.17402269 0.22357796 0.03435717 -0.26248074 -0.14553538 0.17325003 0.2624061 0.10349269
-0.21628161 0.52724975 0.06869938 -0.3807478 0.04952234 0.18261679 0.4385 0.16121668
-0.014767622 -0.034896623 -0.23184542 -0.13465403 -0.22571787 0.07010589 -0.14785707 -0.29801643
-0.43975288 -0.03161065 -0.043435413 -0.27734095 -0.17543116 0.07032237 -0.13114935 -0.5776689
-0.15607758 0.18583184 0.323985 -0.024853675 0.07551232 0.081360996 -0.006419972 -0.33621767
0.17330147 0.08400757 0.24113618 0.22275394 0.1445829 0.00051490247 0.19797662 -0.2780391
0.06788852 0.0575814 0.12619969 -0.56500447 -0.12717201 -0.030044489 0.3520334 0.0437205
-0.23281218 -0.04306856 0.2153897 -0.13254122 0.15371652 0.053717554 0.074150704 -0.0568921
-0.30689707 0.017080532 0.040707942 -0.2919387 -0.34212622 -0.1134529 0.04424794 -0.26515222
-0.2502195 -0.08120485 -0.17009501 -0.15167566 0.024572577 0.1067345 -0.11028763 0.024165794
0.15250227 0.013487872 0.2712142 0.21902283 0.30149496 0.38831145 0.108877905 -0.018937226
0.2720056 -0.0859807 0.1643079 -0.049184937 0.041743156 -0.08357052 -0.35214603 0.051715836
-0.019520326 0.6455069 0.1607026 0.31869885 -0.27611995 -0.07257552 0.107454546 -0.0810894
0.15547009 -0.06450716 0.09568472 -0.23161785 -0.30129912 0.38740635 -0.08581363 0.44012156
-0.071744904 0.0938207 0.00484336 0.24460764 0.005706856 0.25130364 -0.5460465 -0.0086095035
-0.40412706 0.17225374 0.15415597 -0.053029403 -0.18447545 0.076591946 -0.3173854 0.034704026
-0.3265158 0.13452934 -0.05264812 0.31815225 -0.12227347 0.19895285 0.52791643 -0.04400623
-0.2087569 -0.2906327 0.0039009484 0.11770877 -0.04671041 0.26398632 -0.081407696 0.09118062
-0.19092847 -0.126918 -0.033339914 0.02282867 -0.10302953 -0.008142704 -0.26149312 0.2630856
-0.35864514 0.2825577 -0.08156209 0.25126553 -0.11407764 -0.20682047 -0.04085563 0.24887244
0.21227017 0.02314656 0.16754198 -0.06222249 0.05706815 -0.00044346094 0.23195583 0.49075457

network_body._body_endoder.seq_layers.0.bias f4 [128]
00000000: c41c 44bd f441 963b c5d7 cd3d 8824 93bc
00000010: b7a7 bc3d 824d 35bd e908 9f3d 6444 f9bc
00000020: 3bf9 d53d 1990 ac3d f963 803d dabb a13d
00000030: 3c3a c53d 26be 183e 46aa b7bd 22a5 ce3c
00000040: 8fd8 a7bd fd8a 5bbd 142d 18bd c85d 283d
00000050: bc38 933d 95ae 9cbd 8eef 69bd 433c 183d
00000060: e311 5f3d e873 0f3d 12dc c63d 32e1 c73d
00000070: 725b 513d 9ad0 58bd 8575 6dbc 1aa8 bb3d
00000080: b023 a03d 1f6d d33d 9b75 863d 5b6e 8a3d
00000090: 5030 603c 3fb3 283e d937 4c3d 9d01 b63d
000000a0: 339a 1f3d 3331 4bbd 5f55 d53d f814 4bbd
000000b0: a8fe b03c 73f6 d13d 3cec a63d 007c b0bb
000000c0: 5569 79bc 21ac 163e edcf 663d cfb7 8cbb
000000d0: d79d d93d f351 b23d 3cc9 173e 186f 3dbd
000000e0: f382 eb3d 283d 983d 4b87 b03d b7e1 643d
000000f0: e1d9 af3d 140a 1d3e 7a42 ab3c 7172 143e
00000100: cf02 1dbd e26d efbc deee e33d df4e 26bb
00000110: 9760 233d 5a2f 8a3d 8fd8 ca3d e85d a13c
00000120: 0568 0c3d 70d5 bf3d 2976 11bc be0d 6c3d
00000130: 9616 2ebc 8078 a73d a2b6 6abd 1670 8d3d
00000140: 7c93 0b3e 4814 bd3d 99b3 2b3e e9b9 2bbd
00000150: 13f2 093d 6f28 103d 89d1 93bc e23d c13c
00000160: 5df6 6f3c a2d9 97bc 57bd 0a3e 8568 343d
00000170: c62d b83d 6235 b53d 946b a53d 6a3f b03d
00000180: 4996 ed3d 57d2 ea3d ca47 723d eb05 b53d
00000190: f1b0 26bd 9e71 b83d 241e e6bc 6500 b7bb
000001a0: 5d84 633b 2f59 ac3d 51c6 5abb 623d 00bd
000001b0: 5223 223d 95bc bf3d 4ae5 46ba 0aa5 ddbc
000001c0: 292a 0ebd cf17 04bd da96 843d 00da 0b3e
000001d0: 9cbb e03d 7788 dfbc 86ac 2ebd 47a1 563d
000001e0: 580b d7bc df45 e03c c291 d83d 156e bfbc
000001f0: f96b b43d e6c2 ac3d c8fd d63d f2c8 cb3d
-0.047878996 0.004585499 0.100509204 -0.017961755 0.092116766 -0.04426337 0.07765371 -0.030428119
0.104479276 0.08425922 0.06269068 0.07897158 0.09630248 0.14916286 -0.08968024 0.025225226
-0.08195602 -0.053599346 -0.037152365 0.04110506 0.071885556 -0.076504864 -0.057113223 0.037166845
0.054460417 0.035022646 0.09709944 0.097597495 0.0511126 -0.052933313 -0.014493351 0.09162922
0.07819307 0.103235476 0.065654 0.0675933 0.013683394 0.16474627 0.049857948 0.088870265
0.038965415 -0.049607467 0.10416674 -0.049580544 0.021605805 0.102520846 0.08150527 -0.0053858757
-0.015222867 0.147141 0.056350637 -0.0042943726 0.10625809 0.08707037 0.14822859 -0.046248525
0.11499586 0.0743354 0.08619555 0.05587932 0.08586479 0.15335876 0.020905722 0.14496781
-0.038332757 -0.0292272 0.11129545 -0.00253766 0.039887037 0.06747313 0.099045865 0.019698098
0.03427889 0.09366882 -0.008878269 0.057630293 -0.010625502 0.081772804 -0.05730308 0.06906144
0.1363048 0.09232384 0.1676773 -0.041925345 0.033678126 0.03519481 -0.01804425 0.023589078
0.01464614 -0.018536393 0.1354879 0.04404499 0.089931056 0.088480726 0.080771595 0.08605845
0.1160093 0.114659004 0.059150495 0.088390194 -0.04069609 0.09006046 -0.028090544 -0.005584764
0.0034716346 0.08415448 -0.0033382366 -0.03130854 0.039584465 0.09362141 -0.00075872673 -0.027056236
-0.034708176 -0.03224927 0.06474085 0.13657379 0.10973284 -0.027286751 -0.042645 0.0523999
-0.026250526 0.027377067 0.10574676 -0.02336792 0.08809657 0.084356114 0.10497624 0.09950437

network_body._body_endoder.seq_layers.2.weight f4 [128, 128]
00000000: 42a8 95bd b9c5 273e 1f1d 603e bafa 083e
00000010: 6f7b e33d 598a e9bd 9aaf 6a3d 2c5a 47bd
00000020: ca46 8bbc 62d4 1f3d a295 dc3d 82ee 89bd
00000030: b938 bebb 000d 383e 5fe5 9dbd cf8a 393d
00000040: cfe4 b23d c0c6 76bc 3df3 a73d f0f2 853e
00000050: d99c 18bd aac7 f53d fce6 c73c f5c3 d4bc
00000060: 44d3 413d c9c6 9cbc c8ae acbd 880e cebd
00000070: 3578 463d a7b4 2cbd 4999 f83c c5e8 ac39
00000080: 16f8 33bd c786 a1bc 4e08 0fbe 0b9f ac3d
00000090: 41b3 773e 5d3c 4dbe 25de 6dbd fbe7 70bc
000000a0: d032 5a3d c653 bcbd 5cb5 b1bd 0479 d23d
000000b0: 6c5a f8bd 9442 de3d eece a4bd e791 94bd
000000c0: b61f 10be c069 84bb e9b0 1bbb 37c4 943d
000000d0: d3e7 30bc 9e7f eebd 0995 693e f041 e8bc
000000e0: 8aa6 0fbd ce9b 9abd af58 b43d 693b 7ebd
000000f0: f306 34bd d2dc b9bd 2760 053e f7c7 03be
00000100: 783f 613e 112c c53d ab32 2ebd 04b9 a3bd
00000110: 84c6 14be 9d39 a73d 7ff5 f1bd f8a4 e6bb
00000120: 721b 053e 51db 24be 9d22 1b3e 87e4 ecbb
00000130: 6745 3a3b b127 a1bd 6205 c73b 8516 003d
00000140: b868 07be 4546 843d 3bbd 54bc 679f 3abe
00000150: e394 ef3d 47c9 21bd 55af 943c 433f 17bc
00000160: ba59 b43c 5bed 0b3d 81e2 c1bc 9d22 263c
00000170: e3cc a3bd 1f60 60be 63cc 843d d875 8a3b
00000180: 1057 eebd 9528 a63d 441d 9ebc 52a7 0cbd
00000190: ff94 053e 5f75 8f3e 3568 fc3c 7c0f 613c
000001a0: 0f02 80bd 5742 22bd bcd6 53bd 9ceb d63c
000001b0: 528c d73d 2abd a8bd 0be6 543c 54a4 283e
000001c0: fe55 233e 4568 98bd f04a 033e 6809 e23c
000001d0: b0c2 febd b20b 203d 8282 dc3c 59b8 6a3e
000001e0: 2a4d c53d 8788 34be d942 933d 1b58 22bc
000001f0: 16df 763d de27 7a3d 7e0b 223e 4b00 823d
00000200: 8983 e73b 6587 8fbc 249e a0bd 388c 3c3e
00000210: 5f5e 91be 0a5f c6bd a6bc 75bc ad96 ac3d
00000220: d12b b7bd 21fd 073e 61b4 f3bd 4b48 53be
00000230: c9b3 5e3d 3441 80be 4460 20bd 6f92 783c
00000240: 2589 293e 6d1e 8dbd 4065 c33d 1ce2 3c3c
00000250: 4e1b d23c eafc 7e3e 9f9e 2ebd 3a6a 023e
00000260: 3288 343d c770 24be 8fea fe3d a892 d6bc
00000270: 52b5 c3bd c9c3 0abd c125 f9bd 2e97 11be
00000280: 7626 afbd bf0b 20be 2ab0 a93d c5f2 d73d
00000290: b364 233e f20b 13be 1624 4bbe f31c 89be
000002a0: 463b 093e 923c 6a3d e5f9 953c c852 0f3e
000002b0: f4c2 e33d 7ae8 913d 46a9 da3c a684 b13c
000002c0: 79fb 85bd 01bb 79be a193 c13c 8a7b 0fbe
000002d0: cfa6 65bc 6280 92bd 5d36 80be 08a5 233d
000002e0: 7e92 28be 3a18 88bd 6f28 803c d68d ce3d
000002f0: d4be 5a3c b24b 00bd eca2 393c 87a9 923c
00000300: 4663 a1bd 7ac0 c53d 9ede 2abe 6875 7fbd
00000310: 4ab4 933e 1f40 09be 5a70 1bbd a974 7d3e
00000320: 5e28 aabd 439c 853b 1035 203d 434e 68be
00000330: 12cb 4a3d 0f65 3ebd 6cea 4f3d 47bf 4e3d
00000340: b1b9 dcbd 7937 90bd 780b 67bd 49b7 afbd
00000350: 65a4 db3d 7a5a d9bc 8290 08be d5cd 703d
00000360: c93b f4bd 54a4 a13a 7a01 8abe 6bae cf3c
00000370: 8295 febc c9ee c8bd fcbb 55be 8310 443e
00000380: 5435 1ebd 0158 eabd ffcd 113d 4424 11be
00000390: 6c6f 863d c930 773c 3ecf 4abb aa5e c83c
000003a0: 6a9e b83c a31b d63a e356 523e 0a19 0fbe
000003b0: 68a0 8a3d fbf6 013d ddbf 943d 7cae c2bd
000003c0: d85e 8cbd 4f44 0ebe 00d3 803d 1430 62be
000003d0: 9444 6c3e 21af 46bd c218 20bd dff9 133c
000003e0: 8769 3e3e e9d8 0cbd c4cd bd3b 65a4 163e
000003f0: ee8d f6bd 9c5b 17bd 0858 09be eccf e2bc
-0.07307483 0.16384019 0.21886109 0.13376895 0.111075275 -0.11403341 0.057296373 -0.04866998
-0.017001528 0.039020903 0.10770728 -0.06734945 -0.0058051017 0.17973709 -0.07709765 0.045298394
0.08735048 -0.015062034 0.08200691 0.2616191 -0.037258957 0.120009735 0.024402134 -0.025972346
0.04732062 -0.019137757 -0.084317744 -0.10061365 0.048454482 -0.04216447 0.03034653 0.00032979823
-0.043937765 -0.019717587 -0.13968012 0.084287725 0.24189474 -0.20042558 -0.05807318 -0.014703746
0.053271115 -0.09195666 -0.0867717 0.10276988 -0.121266216 0.108525425 -0.08047281 -0.07254391
-0.14074597 -0.0040409267 -0.002375657 0.072639875 -0.010797459 -0.11645435 0.22810759 -0.028351754
-0.035070933 -0.07549249 0.088059776 -0.062068377 -0.04395194 -0.09075321 0.1302496 -0.1286925
0.21996868 0.096275456 -0.04252879 -0.07994273 -0.14528853 0.08165286 -0.11814403 -0.007038709
0.12998751 -0.16099288 0.15149923 -0.007229391 0.0028422715 -0.07868899 0.0060736397 0.031271476
-0.13223541 0.06458715 -0.012984569 -0.1822487 0.1169832 -0.039498594 0.018150011 -0.009231391
0.022015441 0.034161907 -0.023667576 0.010140088 -0.079980634 -0.21911667 0.06484296 0.004225474
-0.116376996 0.08113209 -0.019301064 -0.034339257 0.13045119 0.28019235 0.030811409 0.013736602
-0.06250393 -0.039614048 -0.05171846 0.026235394 0.10524811 -0.08239205 0.0129943 0.16468936
0.15950772 -0.07441763 0.12821555 0.027592376 -0.124394774 0.039073654 0.0269177 0.22921886
0.096338585 -0.17630206 0.071904846 -0.009908701 0.060271345 0.061073177 0.15824696 0.06347712
0.0070652408 -0.017520616 -0.07842663 0.18412864 -0.28392312 -0.09686096 -0.014998591 0.084271766
-0.08943904 0.13280155 -0.11899639 -0.20633046 0.054370675 -0.25049746 -0.039154306 0.015171631
0.16556223 -0.06890569 0.09540796 0.011528518 0.025647786 0.24901167 -0.04263174 0.12735835
0.0440752 -0.16058646 0.12447082 -0.026192978 -0.095560685 -0.03387812 -0.12165404 -0.14217827
-0.08552258 -0.15629481 0.08285554 0.105443515 0.15956382 -0.14360026 -0.19837984 -0.267799
0.13401517 0.05718667 0.018307636 0.13996422 0.11121169 0.071244195 0.026692044 0.021669697
-0.06542105 -0.24387743 0.023629965 -0.1401197 -0.014016821 -0.07153393 -0.25041476 0.039952308
-0.16462132 -0.06645246 0.01564428 0.10085647 0.013351161 -0.03132219 0.0113303475 0.017903103
-0.07880263 0.096558526 -0.16686484 -0.062367827 0.28848487 -0.13403367 -0.037948944 0.24751534
-0.08308481 0.0040774657 0.039113104 -0.22686104 0.04951007 -0.046483096 0.05076067 0.050475385
-0.10777605 -0.070418306 -0.05640742 -0.08579881 0.10724715 -0.0265324 -0.13336375 0.058790047
-0.119254656 0.0012332299 -0.26954252 0.025351724 -0.03107715 -0.0981117 -0.20872492 0.19146924
-0.038625076 -0.11442567 0.035596844 -0.1417399 0.06564221 0.015087315 -0.003094628 0.024459202
0.022536475 0.0016335141 0.20540957 -0.13974395 0.06768876 0.03172968 0.072631575 -0.095059365
-0.068540275 -0.13893245 0.06290245 -0.22088653 0.23073035 -0.04850686 -0.03908611 0.009031742
0.18594943 -0.03438655 0.0057923514 0.14711149 -0.1203879 -0.0369526 -0.13412488 -0.027687036

network_body._body_endoder.seq_layers.2.bias f4 [128]
00000000: 4a87 933c 01bf 46bd e46b 02bd c31c 5d3d
00000010: c72b ba3d 9f5d 973d b294 573d 9b83 a33d
00000020: 244f 16bc c252 073c 76c9 9d3b 1fbc 113d
00000030: a60a d83d cdc8 883d 70be 223e 61d0 7cbd
00000040: 5081 1f3c c477 69bd e457 be3b 68a0 a13b
00000050: bfd7 ca3b 4483 883d fc4d dd3d 70e3 a43d
00000060: 476d 913c ce12 2e3e d3ff 9b3d fc41 a43b
00000070: 02d6 fdbc 7c0f 283d bb77 013d e365 763d
00000080: 477e 1b3e 0a87 d83a 2b6b 8d3c b722 42bd
00000090: 4d89 a6bb e947 a93d b1d5 ea3d 11de 483d
000000a0: 148d dc3c 6f8e c2bb 4252 173b 25c1 f9bc
000000b0: 3b53 95bd 5569 39bd afb4 b93d cf4a 9d3d
000000c0: e64e 9e3d 89e6 233e f38b 043e 3ed9 bf3b
000000d0: f19f a1bc 7d1b 8bbc 0a0f 813d 1d94 f9bc
000000e0: ebdd 193b 962e 023e 4146 d53c bf8a 46bd
000000f0: 11fd 083e fac3 38bb f988 983d 2709 a53d
00000100: 8e12 9a3d e3f8 853b ac7c 833d f412 c23d
00000110: b142 86bd 35a5 31bd fe0a 983d c471 8dbc
00000120: deff fdbc 28f6 9c3d fb3f 5f3c 9f9b babd
00000130: 8a62 f63d 6964 2cbd b857 d73d f8ba 893d
00000140: fccf 0cbd 8497 34bd ce11 163d 1912 90bc
00000150: 6fee a23d 5e33 ae3c dc47 1fbd 7219 843b
00000160: 62e7 673d 98d3 cb3d 2ed6 903d bc1e 5ebd
00000170: c270 f23d 80b9 c03d 8349 913d 84d7 bd3d
00000180: 5f3e 113d 4d2c 72bc a6e0 4dbd 6f2a 89bd
00000190: df35 c73d 8b1b 18bd af06 2d3d 7eb3 a53c
000001a0: 618a aebc 92e0 7bbd 8fbe df3d 329f 603d
000001b0: 95f6 1d3e 6bf0 9ebc a2cd c33d 06c1 ee3d
000001c0: efb6 f3bc 4b1f 47bd e38a 123e eb50 b43d
000001d0: a563 bcbd a710 de3c 2d37 473d ba5b 9cbb
000001e0: 7a6b 263b 4fe9 3d3d b8b5 153e 24c5 d139
000001f0: 7454 1f3d 4b64 04bd 2f72 0d3e f8e0 4d3d
0.018008847 -0.048522 -0.031841174 0.053982507 0.09090381 0.07390904 0.05263204 0.07984086
-0.009174142 0.008259477 0.004815276 0.035579797 0.10548906 0.06678925 0.15892959 -0.061722163
0.00973542 -0.056998983 0.005808817 0.004932452 0.0061902697 0.06665662 0.1080589 0.08051193
0.017752303 0.16999361 0.07617154 0.0050127488 -0.030985836 0.041030392 0.031608324 0.06015576
0.1518489 0.0016519737 0.017263016 -0.047396388 -0.0050822855 0.08265669 0.1146654 0.049039904
0.02692274 -0.0059373896 0.00230898 -0.030487606 -0.072912656 -0.045266468 0.09067666 0.07680284
0.077298924 0.16005911 0.12944011 0.0058547547 -0.019729586 -0.01698088 0.063016966 -0.030466134
0.002347822 0.12713084 0.026034476 -0.048472162 0.13377787 -0.0028192983 0.074480005 0.08058386
0.0752307 0.0040885075 0.06420264 0.09476271 -0.06555689 -0.043370444 0.074239716 -0.017266162
-0.031005796 0.07664138 0.013626094 -0.091117136 0.120305136 -0.042087946 0.10514778 0.067251146
-0.034378037 -0.04408981 0.036638074 -0.017586755 0.07955634 0.021264728 -0.03888689 0.0040313536
0.05661715 0.09952468 0.070721015 -0.05422853 0.11837913 0.09410381 0.070940994 0.09269622
0.035459872 -0.01478107 -0.05026307 -0.06697547 0.09727072 -0.037135642 0.042242702 0.02022719
-0.021306219 -0.061493464 0.10925018 0.05483932 0.15426095 -0.01940175 0.09560706 0.1165791
-0.029750315 -0.048613828 0.14310794 0.088044964 -0.09198693 0.02710755 0.048636604 -0.004771677
0.002539365 0.04636508 0.14620101 0.00040010468 0.0388989 -0.03232221 0.13813089 0.050263375

action_model._discrete_distribution.branches.0.weight f4 [3, 128]
00000000: 2c00 163d b64a e6bd 4bf5 443d d278 bdbb
00000010: c63d b2bc 9e09 8e3b 5130 f3bc 2414 a3bc
00000020: a662 73bb 8da3 44bb c3d7 bf3b 11f1 66bc
00000030: 1e7a 29bc ef8b 92ba fb49 9a3c aea4 66bd
00000040: 1fa6 753c 74e3 d13c a54f 0a3d c6f9 0fbd
00000050: ffdb 0fbd 2cfd aebb d0f0 d5bc c690 da3c
00000060: cca1 2dbd a379 ebbc 8549 f03b 82ab 6f3c
00000070: db85 2e3d 7f1d 01bd 9928 8bbb f70d 05bc
00000080: b2b6 513b 32fc d83c d1fe 87b7 9b3a 483c
00000090: 495f 07bd 3375 f0bc 9643 c23c 5971 babc
000000a0: 7d5d 76bc d164 373c 379e 033b 5b4c 083c
000000b0: 7118 473d df5d 213d a3ed 083d cc04 49bc
000000c0: 9a20 1ebc 3981 e7bb e639 8bbb bf81 94bc
000000d0: aad3 113c f1da 96bd 606e 213c d66a 11bd
000000e0: 3092 223d 80e9 01ba 8e82 9abc b56a a23d
000000f0: f4f4 29bc 6523 0e39 1a68 313c 2956 19bc
00000100: 976c f5bc 1375 ad3d 42ad cc3c a208 bb3b
00000110: e09f 373b f6cb 063d 720c 313c 5bb8 373d
00000120: 5f21 e23c 6ca8 8c3c 2d20 4a3c 94d1 a73c
00000130: 48a7 74bb 5018 6a3d 4cd8 ce3c 033c bebc
00000140: ca4b 493d 0885 743d be30 32bd 2198 05bd
00000150: 9fec 9d3c c2da 3a3c 0d79 a23d 38fc 173d
00000160: dde4 243b f6ec 773c 67d1 eebc 7a95 5b3d
00000170: 32a3 a33c f966 fe3c 38b1 5d3c 8c4c 463c
00000180: 024b b93c ed49 423d 674f 2c3d 277a b73d
00000190: 21d7 a9bb 2e76 45bd bc10 c9bb e672 683c
000001a0: 85dd d4bc cd3e b5bb d04d e6bc 9f4e 89bc
000001b0: c476 49bc 7736 173d e239 89bc 74d5 88bc
000001c0: 18ed 223d 6452 91bb a36b ecbc efe6 e53b
000001d0: 28ed 4e3d 3d74 61bc 8569 e2bc b13b 643d
000001e0: 24a1 2cbc 3e22 053c 5bee e737 e374 78b8
000001f0: ed25 5b3c 8b47 8d3b f18c a03c adc5 633c
00000200: b627 ddba 3475 de3c d645 fa3b e219 8cbc
00000210: 9aad 80bc 2bd4 d2bc f928 4e3c da65 9ebd
00000220: 119e 9b3d 24fe 253d a412 42bb 7a72 333d
00000230: e834 0fbc 41a7 873c 57ef 88bd 9651 e0bc
00000240: dd7a 353c 55ac a33b e5a0 1f3d 427c 8ebd
00000250: 2eee 4bbc 4cb6 a83b b023 ceba 67d3 d4bc
00000260: 7741 8c3d da6b 29bd 1cd6 d2bc eb26 b2bb
00000270: e0df a03c 7284 203d 2524 8f3c d4b0 49bd
00000280: d77c 53bd 918b 59bb 9a58 8f3b 5131 063d
00000290: 79d8 3e3d ba7e 913b 053c 55bd 3769 8c3c
000002a0: bf4a 083d 0037 19bd a1d6 9bbb ee2c b33d
000002b0: f5e6 d13c f1da 863d 30f2 ccbc 6d33 82bc
000002c0: 47c9 a2bc f67a dfbc 5560 d8bc 263c b43c
000002d0: ec6a 943d 857b e4ba 91fb d1bc 486e c0bb
000002e0: 371f 053d dd1a 61bd e7be bf3b b3de 823d
000002f0: 9244 d3bc 0602 c83c f8a4 3bbd 80b1 af3c
00000300: db51 3f3d dda4 8dbd 7075 d2bb 42fd 35bd
00000310: b9c2 88bc 01b3 f43d 553b 18bd 604a 3dbd
00000320: fb38 0f3d 9eab 0fbd 941c 54bc 50ab b03d
00000330: 0347 a039 84f4 80bd 0771 1abd 5abb 7dbc
00000340: 7fb4 063e 05d7 433d b75e 893d e79a ca3c
00000350: ef95 5bbd a769 6c3c a0cd c23c 3895 24bd
00000360: 26c0 333d a092 36bd 562e 03bc 9f98 533d
00000370: 9eae 0bbd 36ce a1bd 79d5 e7bc c4e5 80bc
00000380: 9c74 1bbd f1e2 813c 07bc 06bb fb98 b43c
00000390: 9f76 b3bc 9001 d13d c791 393c 06fa 83bd
000003a0: 9d43 783c f39d 963d 38aa 153b 7c97 063c
000003b0: d253 7bbd 90db 6bbc 5d19 c8bc 2a44 b5bc
000003c0: c8aa d13d c507 4b3d 598c 92bc a070 57bd
000003d0: 2ae2 523d c4aa 03bd 39d5 ef3c 4d69 f9bc
000003e0: 0070 d3bc c5e8 c9bc d6c3 5abd fef4 c53c
000003f0: e5de 79bd fbbd 0b3e 2d3e 50bd c3da 45bd
0.036621258 -0.11244719 0.048085492 -0.005782225 -0.021757971 0.0043346426 -0.029686125 -0.019907065
-0.0037137656 -0.003000471 0.005854578 -0.014095561 -0.010344056 -0.001118062 0.018834105 -0.056309395
0.01499322 0.025621153 0.03376736 -0.035150312 -0.035121914 -0.005340239 -0.026115805 0.026680361
-0.04239063 -0.028744524 0.007332983 0.014628293 0.042608123 -0.03152227 -0.004246783 -0.008121005
0.0031999764 0.026487444 -1.6211912e-05 0.012221004 -0.033049855 -0.02935276 0.023713868 -0.022759126
-0.015036938 0.01119347 0.0020083317 0.008318986 0.048607294 0.039396163 0.033429753 -0.01226921
-0.0096513275 -0.007064965 -0.0042488454 -0.018128274 0.008900562 -0.073659785 0.009852976 -0.035502277
0.039690197 -0.00049557537 -0.018861081 0.07930509 -0.010373343 0.00013555361 0.010828042 -0.009358921
-0.029959006 0.08469596 0.02498496 0.005707816 0.0028018877 0.032909356 0.01080619 0.04485355
0.027603803 0.017170154 0.012336773 0.020485677 -0.0037331153 0.057152092 0.025249623 -0.023221975
0.049144544 0.05969718 -0.043503515 -0.032615785 0.019277869 0.011404695 0.07933245 0.03710577
0.0025160827 0.0151321795 -0.029152585 0.05360935 0.019975279 0.03105496 0.013531022 0.012103211
0.022618774 0.047433782 0.04206791 0.089588456 -0.005183116 -0.048208408 -0.006136028 0.01418755
-0.025984535 -0.005531168 -0.028113276 -0.016761122 -0.012296382 0.036917176 -0.016751233 -0.016703345
0.03977689 -0.0044348706 -0.028859919 0.007016055 0.05051914 -0.0137606235 -0.027638206 0.05572099
-0.010536466 0.00812584 2.7648339e-05 -5.9236667e-05 0.013375741 0.004311507 0.019598456 0.01390211
-0.0016872797 0.027155496 0.0076377196 -0.017102186 -0.01570778 -0.025735935 0.012583011 -0.077342704
0.07598508 0.04052557 -0.0029613161 0.043810345 -0.008740641 0.016559245 -0.066862755 -0.027382653
0.011076656 0.004994909 0.0389718 -0.06957294 -0.012446923 0.0051486846 -0.0015727188 -0.02597971
0.06848424 -0.04136262 -0.02573686 -0.0054367683 0.019638002 0.03918881 0.01747329 -0.049240902
-0.05163273 -0.003319476 0.004374576 0.032761876 0.046593163 0.004440156 -0.052059192 0.017140014
0.03327441 -0.037405968 -0.0047558104 0.08748804 0.025622824 0.065847285 -0.025017828 -0.015893662
-0.019871367 -0.027280312 -0.026413122 0.022001337 0.07246956 -0.0017431831 -0.025632652 -0.0058725215
0.032500472 -0.05495726 0.0058516148 0.06390133 -0.025789533 0.024415027 -0.045811623 0.021446943
0.046708923 -0.06916211 -0.006422691 -0.04443098 -0.016694413 0.11948205 -0.03716596 -0.046213508
0.03496645 -0.035075776 -0.012946267 0.08626425 0.00030570486 -0.06296638 -0.037705448 -0.015486563
0.13154791 0.04781248 0.067075185 0.024732066 -0.053609785 0.014429486 0.02377969 -0.04018137
0.04388442 -0.044573426 -0.008006653 0.051659223 -0.034102075 -0.0790066 -0.028300034 -0.01573456
-0.037953004 0.015855284 -0.002055885 0.022045603 -0.021907149 0.10205376 0.01132626 -0.064441726
0.015152839 0.07354345 0.0022837054 0.008214828 -0.061359234 -0.0143956095 -0.024426157 -0.02212723
0.10237652 0.049567956 -0.017889189 -0.052597642 0.051485218 -0.032145277 0.029276477 -0.03044572
-0.025810242 -0.024647126 -0.05340942 0.024164673 -0.061003584 0.1364669 -0.050840545 -0.04830433

action_model._discrete_distribution.branches.0.bias f4 [3]
00000000: e33d 29bc 9ea5 2fbd a0ab 423d
-0.010329696 -0.042882554 0.047526956

action_model._discrete_distribution.branches.1.weight f4 [3, 128]
00000000: 4ec9 893c c33e 17bb 197d a0bc 403a 3dbc
00000010: e23b b6bc 97e8 5cbb ec2f 57bb 6e48 4a3a
00000020: a50c 503c b515 aebc 8de8 cf3c 0902 b93c
00000030: fcae b5bb d6e3 9bbc f5bc 57bc 2229 653c
00000040: db2c c33c d8a4 2c3c ebff 57bb daa8 423d
00000050: 90cc 08bd b042 a4bc 077b 0fbd 1828 2d3a
00000060: 654a cabb c321 ccbb bc76 093d 5b5c cd3c
00000070: 3bb3 9bbd 87d9 173d f8e5 5d3b 443d 643c
00000080: 3dfd 48bc b1e7 99ba b6bf 4cbd fee7 acbb
00000090: d098 02bd 64c9 48bb 2619 9dbc 9a73 44bb
000000a0: 760d 253d f4ed 813c f05a 29bd 5c53 26bd
000000b0: 6b3a 543c 6d5e 35bc fd3f 80bc c5bf 17bd
000000c0: 73e7 863c 7bae c13c 05ff 583a 8002 83bc
000000d0: 3759 b93c 2945 ccbc ba5b 38bb c0e1 033d
000000e0: c811 c5bc e328 8cbc 8259 4abb 970f 173d
000000f0: 9429 1abd 376c 3b3b f243 20bd ab6a 113d
00000100: 042a 04bd 8ab1 2ebc cc37 06bd c3c3 3dbc
00000110: 98b6 f23b 8981 dabc a268 103c 35f7 fbbc
00000120: 0fd8 213b 3087 62bc 9dc3 a73c 335c 41bd
00000130: 7a9c 97ba 2694 0a3d 0af4 b13c 19a4 6bbc
00000140: 4868 0f3d 2b0a 4e3d 3d6c 803a 40f3 1b3d
00000150: 38e6 a5bb 05b7 ea3c f300 033d c957 88bc
00000160: 5ab2 93bc 2a63 ea3b 2c24 833c b0fe 51bb
00000170: 8069 c13c 772c 89bc d67d 963b d284 ccbc
00000180: 32b8 ffbc 763d 2abc edaf a7bc bc01 1b3d
00000190: ecf9 0e3c e798 053d 4e4b 063d b880 683c
000001a0: c18c a43c 4bf4 c2bc 66f2 b63c 2165 74bb
000001b0: 341f 943b 55ae 81bd 4c33 863c 18e4 5abb
000001c0: 7b3e 883d 7efb 3c3d f9a1 f23b 2562 d13b
000001d0: 417a 0c3d 7633 9d3c edcc 9abc c1c0 1dbd
000001e0: ea9d 843d 89b2 eebc 2135 b9bc 333c 2dbd
000001f0: 2bf2 ff3c 4644 15bd ce4d 79bd 7bd4 b2bc
00000200: e03b 19bd c1ca 123c a492 9a3d b660 a3bc
00000210: 5578 743c 19cc b2bc 0173 963b 7ebe 6e3c
00000220: 34a0 0a3d 9332 a13c cf7e 343d ae11 4abd
00000230: 14c6 3a3b fc60 c63c cf7b 223c c37a 6a3d
00000240: 5847 98bc bc71 9ebb 62f8 01bd 44a1 2dbd
00000250: 6874 4e3d 989d 82bd a806 ed3c 0b48 193d
00000260: 1752 1d3d da60 85ba 31e3 d3bc 76fa 19bb
00000270: ca49 9e3d e467 05bb e79e 21bd ec87 03bd
00000280: 9c1e a93c c0fd 05bd 06aa 8a3d 8397 c63c
00000290: 30ec b13c da69 20bc 60df b2bc bfaf ba3c
000002a0: b258 92bc 22b6 adba 5403 5ebd 8e0f 953d
000002b0: 4d84 eb3a 41c7 b0ba 3e13 f2bc 97b7 0dbc
000002c0: d736 f539 f016 b0bc 6ffa b538 0289 103d
000002d0: d4ff efbc 40e4 2abd 5480 82bc a963 ae3c
000002e0: c41e cbbb 5b35 54bb c12c d7bb 4f4a 87bc
000002f0: 2814 98bc 5e0c 2d3c aca5 133d 7492 54bd
00000300: 04b2 ef3c bc69 a83b 142f 473c 38f2 703c
00000310: 6522 fc3c ef60 c63a ca04 45bd 6ca8 c23c
00000320: 8e86 273c fbc2 d3bc a032 e7bc 5594 8abc
00000330: 1415 f53c aa58 373c 418d f9bc db47 7b3c
00000340: 3286 113d 845e 89bd 1407 e13c ac7e f43c
00000350: 77a0 11bc eb5e 62bd 0624 f6bb 218a 0d3c
00000360: 8e92 a13c 0f6f 6fbd bbf9 1dbd 3280 5c3b
00000370: 3c17 b0bc ad42 b03c 19fa 09bb bacd 2abb
00000380: 80ca 85bb 6ee2 823b 2730 6fbb 4c0d 6dba
00000390: 7591 33bd 89cc cd3d 8f3b d9bc 92c8 f33b
000003a0: a3ba 5c3d 18c0 8d3d d7e5 90bc 09bf 0cbc
000003b0: ee23 333c 36d4 863d 3a69 3ebb 570e 913b
000003c0: 1217 9ebc 51f5 a73d 32d1 bf3b 9ea8 f83c
000003d0: 33a9 063d 19c6 e0bc 0e22 a93b db97 7cbb
000003e0: 5d43 12bd ea09 033d aec3 433c 1b86 b63d
000003f0: bcab cdbb 1840 ad3c 5570 5f3d 39cb adbb
0.016819622 -0.002307818 -0.019590901 -0.011549532 -0.022245351 -0.003370797 -0.003283496 0.00077164813
0.012698327 -0.021250585 0.025379444 0.022583978 -0.0055445414 -0.01902954 -0.013167609 0.013986858
0.0238251 0.010537349 -0.0032958935 0.04752431 -0.03339821 -0.02005133 -0.035029437 0.00066054007
-0.0061734193 -0.0062296106 0.0335605 0.025068453 -0.07602545 0.037072685 0.0033858996 0.0139306225
-0.012267408 -0.0011742023 -0.049987517 -0.005276679 -0.031884015 -0.0030637616 -0.01917703 -0.002997613
0.04029604 0.015860535 -0.04134649 -0.04060684 0.012953381 -0.011069876 -0.015655512 -0.03704812
0.016467785 0.02364277 0.0008277747 -0.015992403 0.022625549 -0.024935322 -0.0028130845 0.032197714
-0.02405633 -0.01710934 -0.0030876105 0.036880102 -0.03763731 0.0028598437 -0.039127298 0.035502117
-0.03226663 -0.010662446 -0.032768056 -0.011582318 0.007407021 -0.026673095 0.008814009 -0.030757526
0.0024695431 -0.0138261765 0.020479018 -0.04720707 -0.0011567019 0.03383269 0.021722812 -0.014382386
0.03501156 0.050302666 0.0009797883 0.03807378 -0.0050628446 0.028651724 0.031983327 -0.016643422
-0.01802938 0.0071529346 0.016008459 -0.0032042675 0.023609877 -0.016744835 0.0045926375 -0.024965677
-0.03121576 -0.01039063 -0.02046963 0.03784345 0.008726578 0.032616522 0.03278666 0.014190845
0.020086648 -0.023798129 0.022332381 -0.0037291723 0.0045203213 -0.06332079 0.016381882 -0.0033400115
0.06652542 0.04613828 0.0074045626 0.0063898736 0.034296278 0.019189578 -0.018896544 -0.038513903
0.06475432 -0.029137867 -0.022608342 -0.04229374 0.031243404 -0.036442064 -0.060865216 -0.021829834
-0.037410617 0.008959473 0.07547501 -0.019943576 0.0149212675 -0.021825837 0.0045913463 0.014571784
0.033844188 0.019677436 0.044066247 -0.049333267 0.0028499411 0.024216168 0.009917214 0.05724598
-0.018588707 -0.0048353355 -0.031731017 -0.042390123 0.050403982 -0.06377715 0.028933838 0.03742222
0.038408365 -0.0010175959 -0.02586517 -0.0023495234 0.07728918 -0.0020356113 -0.03945818 -0.032112047
0.020644478 -0.032712698 0.06770711 0.024242168 0.021719068 -0.009790862 -0.02183503 0.02278888
-0.017864559 -0.0013253132 -0.054202393 0.072783574 0.0017968506 -0.0013487117 -0.029550191 -0.008649728
0.000467709 -0.021495312 8.6773995e-05 0.03528691 -0.029296793 -0.041721582 -0.015930332 0.021287756
-0.006198736 -0.0032380435 -0.0065666144 -0.016514925 -0.018564299 0.010562031 0.03604667 -0.05189748
0.02925969 0.0051395576 0.01215722 0.014706187 0.03077812 0.001513509 -0.04810027 0.02376195
0.010224951 -0.02584981 -0.028222382 -0.016916433 0.029917277 0.011190573 -0.030462863 0.015336956
0.03552837 -0.067074805 0.027469195 0.029845558 -0.008888355 -0.055266302 -0.0075116185 0.0086388895
0.019723203 -0.058455523 -0.03856824 0.0033645746 -0.021495454 0.021516168 -0.002105361 -0.0026062564
-0.004082978 0.0039942777 -0.0036497207 -0.0009042814 -0.04383989 0.100487776 -0.026517658 0.0074396813
0.05388893 0.069214046 -0.017687721 -0.008590468 0.010933859 0.06583445 -0.002905442 0.0044267583
-0.01929811 0.08201087 0.0058537954 0.03035384 0.032876205 -0.02743821 0.0051615303 -0.0038542661
-0.035708774 0.031991877 0.011948509 0.08912297 -0.006276576 0.021148726 0.054550488 -0.005303767

action_model._discrete_distribution.branches.1.bias f4 [3]
00000000: b353 a4bc 836d c5bc 3241 323d
-0.020059442 -0.02410007 0.043519206

action_model._discrete_distribution.branches.2.weight f4 [2, 128]
00000000: 47aa 083d 3285 7abe 9b59 98bd b7bc 9c3d
00000010: fe56 473e abd9 343e 563e 563d 27e1 9a3d
00000020: 3a3d 7c3c db7d 8d3b a4b1 fb3d 59c1 a43d
00000030: 42ff 5a3e bad2 523e 3a3e 773e 55bf 2bbd
00000040: b2f1 9ebc ad82 c1bd d1e6 4d3d b727 f3bc
00000050: 48bd f43b 163a e83d a8c9 2c3e 7015 123e
00000060: 6d87 f63c 8634 823e e18a 293e bd90 333d
00000070: 373b c53c f443 903d e9dd d73d e2cc 9b3d
00000080: 03ac 8f3e 7ba2 be3d 9c52 03bc 3624 593d
00000090: 590c 1dbd a885 323e 70d0 2b3e 1424 af3d
000000a0: 233c 8a3d c6f7 eabc 518d 0fbd a529 9dbd
000000b0: faea 0abe efa9 10bd 2215 4b3e 222e dd3d
000000c0: 5c03 2d3e f729 7e3e ae5d 603e 1186 dfbc
000000d0: 3afc 893d d806 1fbe 9e42 bb3d 8fbc 23bd
000000e0: 302c ed3c ef11 c93d 68b9 893d d7e4 dbbc
000000f0: 3e7a 583e 89b8 883d 863f b53d 6381 433e
00000100: 4d5e 043e eac1 5dbd 493e 213e 5498 5b3e
00000110: 1044 b5bc 7319 9ebc 8ad7 e33d c0f6 c0bd
00000120: e331 2a3d 456b 0f3e 8483 d83d 7ee9 cbbd
00000130: 1222 7a3e e053 59bc 22ca 373e af1a 753d
00000140: e4da f8bd 1920 0ebe 24f4 003e ee9a 38bb
00000150: 3fd1 0a3e b059 ab3d c080 113b 5192 10bd
00000160: d2fa 183e bcfe 4f3e 4373 183e f691 1c3b
00000170: 8e93 673e c1cf 633d 0996 123e e089 373e
00000180: f168 293c 8a2a ae3d 178a 84bd d460 b6bd
00000190: 48d4 723e 9bd5 c2bd e1ee 1e3e 3b79 30bd
000001a0: ee64 a73d 8b0d fcbc bd78 573e 1fe2 6e3d
000001b0: ae0b 473e 70c4 ddbd d189 763e fcb8 223e
000001c0: c37e f2bd c1bd 053c 3e3f 713e 1b24 893d
000001d0: 588f f4bd 197f 403d af39 d13c 5d66 15bc
000001e0: 497c 15ba c5d5 b23d 8ec3 2f3e 47ac dabc
000001f0: eb9c afbc 2b50 89bd e931 3a3e a455 a73d
00000200: 668e 4dbd eded 6c3e e6fb 9a3d 1d02 b8bd
00000210: be9c 52be c047 2ebe ace7 87bd e7c8 98bd
00000220: f5a7 8ebc 4803 b1bc e127 01be b1d6 abbd
00000230: bb77 73be 534d 35be 70cf 6dbe b9ec 3a3d
00000240: 244c cebb 5d0c eb3d 6529 7dbd 8214 3d3c
00000250: e090 6ebc c37b ebbd f03b 2cbe 7890 17be
00000260: 82ed bcbc 8b18 85be 23eb 32be ffff 43bd
00000270: 0e01 96bb a69e 8bbd 8c24 08be 1fcc c4bd
00000280: 25cb 83be 2bdc d4bd fbf4 463c 4ebc 8cbd
00000290: ffb6 3d3d 3f34 2cbe ae8c 35be 7b3b 9fbd
000002a0: ce91 54bd 5876 d03c 2912 343d 8ba9 983d
000002b0: a694 163e 5597 6b3d 4b9b 39be 0860 d1bd
000002c0: 24af 45be 1e9b 7cbe c3f3 51be 1d86 9e3c
000002d0: 9d35 95bd fa7f 0e3e 337d c3bd 748d 223d
000002e0: 8388 39bd 16f7 a4bd 12e2 68bd 7984 ea3c
000002f0: a95c 52be 6117 a3bd a727 82bd f0d2 48be
00000300: 39f2 06be 10e8 9f3d adf7 1abe 7b6e 62be
00000310: 0556 d83c 5824 813c 6279 e2bd c314 b33d
00000320: 9bf1 58bd 7c23 04be 29ce d5bd 4dfb d43d
00000330: c48e 80be ffa7 483c ff48 40be 4388 71bd
00000340: 849f 063e 585e fa3d aed4 07be 38e9 873b
00000350: 2040 19be 442d a1bd 0e86 283c d7cc 113d
00000360: a3c7 27be 5c77 5fbe ca0b 12be 9691 f9bb
00000370: 7b68 55be 0c98 3cbd cdb2 10be ba16 41be
00000380: 34db 5abb a89b afbd 6a06 863d 5555 a43d
00000390: 2b5c 69be e950 e63d fadd 1ebe 2f18 5e3d
000003a0: d943 88bd e3e2 843b 7f62 6fbe 0dbb 73bd
000003b0: 0868 31be 434d ed3d c4bd 67be 9d7b 1fbe
000003c0: be02 023e c62e e93b 21a7 6cbe c969 b9bd
000003d0: 97ac 063e 2423 67bd b039 1cbd 929f d63c
000003e0: 44b2 cabb 2d61 debd a390 25be 0e3e 5a3d
000003f0: 9d99 a73c fb01 a93d 25fd 1ebe da82 93bd
0.033365514 -0.24464872 -0.07438966 0.07653182 0.19466779 0.17661159 0.052305542 0.07562476
0.015395457 0.0043179817 0.12289742 0.08044691 0.21386436 0.20588198 0.24144831 -0.041930515
-0.019402359 -0.094487526 0.05026895 -0.029682023 0.007468853 0.11339204 0.16873801 0.1426599
0.030093873 0.25430697 0.16556884 0.043839205 0.024076087 0.07044211 0.10540373 0.07607438
0.28060922 0.093083344 -0.008015301 0.05301305 -0.038341854 0.17433798 0.16778731 0.08551803
0.067497514 -0.0286826 -0.03504688 -0.07673959 -0.13566199 -0.03531831 0.1983228 0.10799815
0.16895813 0.24820696 0.21910736 -0.027285608 0.067375615 -0.15529954 0.091435656 -0.039974745
0.028951734 0.09817874 0.067248166 -0.026842518 0.21140382 0.06675822 0.08850007 0.19092326
0.12926598 -0.05414001 0.15746416 0.21444827 -0.022127181 -0.019299245 0.11125095 -0.09422064
0.041551482 0.14005764 0.105719596 -0.099566445 0.2442706 -0.013264626 0.17948201 0.0598399
-0.12151125 -0.13879432 0.12593132 -0.0028168517 0.13556384 0.08366716 0.0022201985 -0.03529579
0.1493943 0.20312017 0.14887719 0.002389071 0.22614881 0.05561805 0.14315046 0.17923689
0.010339961 0.085042074 -0.06471651 -0.08905187 0.23713791 -0.09513398 0.15520813 -0.043084364
0.08173548 -0.030768177 0.21042152 0.058321115 0.19438049 -0.10828483 0.2407601 0.15890878
-0.11840584 0.008162917 0.23559281 0.0669634 -0.11941403 0.04699621 0.025540201 -0.009118644
-0.0005702419 0.087321796 0.17164442 -0.026693476 -0.021437129 -0.06704744 0.18183102 0.081706315
-0.05018463 0.23137636 0.07567577 -0.08984778 -0.20567605 -0.17019558 -0.06635985 -0.07460194
-0.017414073 -0.02160801 -0.12612869 -0.083905585 -0.23776142 -0.17705278 -0.23223662 0.045635913
-0.0062956978 0.114769675 -0.061807055 0.011540534 -0.014560908 -0.11498215 -0.1681974 -0.14801204
-0.023062471 -0.25995287 -0.1747251 -0.04785156 -0.0045777624 -0.06817369 -0.13295192 -0.096092455
-0.25740924 -0.10393556 0.012143369 -0.06871854 0.046317097 -0.16816805 -0.17729446 -0.07775017
-0.051896863 0.025447056 0.04396263 0.07454213 0.14705142 0.05751737 -0.18125646 -0.10223395
-0.19305092 -0.24668548 -0.20503144 0.01935106 -0.072856165 0.13916007 -0.09545364 0.03968568
-0.045296203 -0.080549404 -0.056856222 0.028627621 -0.2054316 -0.079634435 -0.06355219 -0.19611716
-0.13178338 0.07807934 -0.15133543 -0.22112457 0.026408205 0.0157644 -0.11058308 0.08744194
-0.052964788 -0.12904161 -0.104397126 0.10399494 -0.25108922 0.012247085 -0.18777846 -0.05896784
0.13146788 0.12225026 -0.13264725 0.004147675 -0.14965868 -0.07869962 0.010285867 0.03559574
-0.16384749 -0.21822876 -0.1426231 -0.007616232 -0.20840637 -0.04604344 -0.14130707 -0.18856326
-0.0033394815 -0.08574611 0.06544192 0.08024088 -0.22789066 0.11245901 -0.15514365 0.054222282
-0.06653566 0.0040553673 -0.23377417 -0.059504557 -0.17324841 0.11587002 -0.22630984 -0.15574498
0.12696359 0.0071161715 -0.2311063 -0.0905338 0.13151775 -0.056429997 -0.038140953 0.026199136
-0.0061858017 -0.108583786 -0.16168456 0.053281836 0.02045899 0.08252331 -0.15526254 -0.07202692

action_model._discrete_distribution.branches.2.bias f4 [2]
00000000: 6b3b 5f3e c73a 5fbe
0.2180001 -0.21799766

onnx::Div_94 f4 [18]
00000000: b1bd ec3e aa64 ac3e 8e80 ed3e 0537 ac3e
00000010: b552 eb3e 99f3 ab3e 7a1f ee3e e38c ab3e
00000020: b2ee ec3e a657 ab3e 0cad ed3e e4f3 aa3e
00000030: 64dc ed3e c5a0 aa3e 14af ed3e 22c1 aa3e
00000040: fbae ed3e 21c1 aa3e
0.46238473 0.3367055 0.46387142 0.33635727 0.45961538 0.33584288 0.4650839 0.33505926
0.4627586 0.33465308 0.46421087 0.333892 0.46457207 0.33325782 0.46422637 0.33350474
0.46422562 0.3335047

onnx::Div_97 f4 [6]
00000000: d4ee c741 4cd9 ea3e 70aa 9842 679d d041
00000010: aac7 053f 9953 9942
24.991615 0.4586891 76.332886 26.076857 0.5225779 76.66328
