Assets/Models/Animal1.onnx (onnx, 92963 bytes, 11 tensors)

discrete_act_size_vector f4 [1, 3]
00000000: 0000 4040 0000 4040 0000 0040
3.0 3.0 2.0

network_body._body_endoder.seq_layers.0.weight f4 [128, 25]
00000000: e7fc e8bc b7cb 813d a7cb 1b3e a23a 9a3e
00000010: fd1d 383d 6aa4 823e f407 4d3b 4ff7 ce3e
00000020: 3ea3 ca3d d621 553e a131 d43d 69e1 523d
00000030: 1c6c a2bd 0c3a e43d 0659 9fbe 5ab5 e23d
00000040: d9a8 863e 8569 593e eef2 073d 2ab6 aebd
00000050: 3c95 bf3d 8c96 c4bd 2625 ab3d e529 203c
00000060: b5b3 4d3d 214f 40be 516d 1e3d 7a18 183e
00000070: d75d aebe 4d04 2fbe 6d61 d23d 5396 153e
00000080: 4397 023e b38c 52be 43ec 84be a57b 913e
00000090: 2e2c a33e a87a 583e 0732 5dbe 3d5c dd3c
000000a0: a4ea 90bb c8dd e4bd e811 98bd c70c cb3c
000000b0: 3dd0 87bd 395d 443c 3b9a 363c d8a3 b0bd
000000c0: ec3b 613e 4646 c2be 37ec 26be b6b7 1ebf
000000d0: d0af 303e dde3 6fbe dc1f a4be 0099 913c
000000e0: 0cb5 1c3d 46f5 8f3e d74c c83d f258 cfbd
000000f0: a2dc 763e 2f32 223d 3772 67bd e566 4d3d
00000100: 296d 9f3d bebe 263e e2a6 353e b0d6 7cbe
00000110: 1fa7 c7bd 461f ccbe d01b 9e3e 1334 10bc
00000120: cc12 0f3d 438c 763e 3e10 0d3e ed83 873e
00000130: b462 91be f31a 9ebe 4d4f 71bd f662 143e
00000140: ea04 b73e fd60 c43e ec3f 943d 5856 2d3e
00000150: ce9e 02bc 7f0b 18be b371 3fbd c22d c93d
00000160: e2aa 5ebe f226 7c3d 6a67 07be 5bfa 38be
00000170: c206 af3d 482a 26be 18d0 303e b019 b13d
00000180: 8235 cfbe 3a09 c73d 593a 12bd 8191 5f3e
00000190: 938a a2be 742f a7be fee7 0bbc fafa 163e
000001a0: e288 483e a064 3b3e 7c20 e2bc 1c65 8bbe
000001b0: f849 7c3d 877b 173e 5fba 83bd 93dc 233e
000001c0: ef83 413e 8f65 f6bd 536e a23d cc18 11be
000001d0: 9abf 6fbe b8e5 573e 86b8 8fbc 15af c13d
000001e0: 8931 dd3d c426 903e 9631 923d f5a4 0a3d
000001f0: 74f7 0ebe 68fb 853e 8f67 f73d 20d7 86bd
00000200: c6b5 21be f81e 3bbe 0429 b63e 48af 243e
00000210: 0aeb 753e 2e12 b2be 0993 40bc a4ee a3bd
00000220: df2a 1b3e de37 51bd a4fb a13e 77fa 2a3e
00000230: 6e25 9a3e 3758 2fbe 25b6 763e 8a75 b4be
00000240: e3cd 733e 8cdd 5f3e 3e85 f9bd 8b93 803e
00000250: e148 f23b c48d 85be 3f00 79be 3762 653b
00000260: f231 ab3e ef9e 83be 2cae f83d 4a5e 7b3e
00000270: ada7 773e 5d4f 3b3e eb79 853e c890 4fbe
00000280: 04c7 debe 1d7f 8f3e db8b 843e efe6 54be
00000290: 8f0d 9e3c aa57 123e 55c7 d53d f3b7 ed3b
000002a0: 08c1 9d3e 911c ebbc 815c 063e 97ea 37bd
000002b0: fcef 943d a387 9bbd 8118 9db7 7163 453d
000002c0: baee 00bd 4042 593d 2fef 8e3d 2e30 f53e
000002d0: cef6 b3bd edd2 623e 6a39 1a3e 6361 aa3d
000002e0: 87c0 e4b9 f36e e93e e303 bfbe d1ad b03c
000002f0: 9a3b 5abd 3a47 a73e 17e3 83be 4122 7fbd
00000300: 76b5 443e 011c ab3e 36d2 adb9 14ae d6bd
00000310: f955 8c3d 14c5 963d fbc2 91be f192 dcbc
00000320: 60ef cdbe 333f 5abe ca12 cbbd a22b a6bb
00000330: eaf4 fdbd 71c6 79bb cea2 e4bd 0966 843d
00000340: c7f5 d83d 0467 f23d 3470 4e39 20e0 383e
00000350: 1c40 163b 92ca 043e fa81 7cbe cbcb 763d
00000360: 3f5d 883d 1b76 933e 62d4 d5bd 4627 edbb
00000370: 1388 bf3d 08d6 43bd 991a 2fbe 9775 98bd
00000380: 54c8 c0be 37f5 9b3d 6242 b93d ee46 aeb8
00000390: 4b72 7a3e 5c74 2b3f a3c7 6abe 1dec 3fbe
000003a0: 0cd5 4abe 67f6 3bbe 7f33 15bf 2382 d43d
000003b0: 30b3 babd 31a1 f63d d5cd b23e ecfc 67be
000003c0: ddc5 803e 4499 ffbd 95c6 9cba 6929 b4bd
000003d0: 773d 0a3d a789 5fbe ae91 87be 8e73 30be
000003e0: 3185 2cbd 326c 5dbe d00f b9be cef2 b23d
000003f0: b1f4 a8bd c1c9 4abe 7d7b 083c 8ccc 113e
-0.028440906 0.06337684 0.15214406 0.30122858 0.044950474 0.25516063 0.0031285258 0.40423056
0.09894417 0.20813689 0.103610285 0.0514845 -0.079307765 0.11143884 -0.31122607 0.11069746
0.26300696 0.21231659 0.03319066 -0.08530839 0.09354636 -0.09599027 0.08356695 0.009775613
0.05022021 -0.18780185 0.03867847 0.14853087 -0.3405597 -0.17091484 0.10272489 0.14608125
0.12753014 -0.20561485 -0.25961503 0.28414646 0.31869644 0.2114054 -0.21601115 0.027021522
-0.0044225026 -0.11175114 -0.0742529 0.024786366 -0.06631515 0.011985117 0.01114517 -0.08625001
0.21995515 -0.3794424 -0.16301046 -0.6199907 0.17254567 -0.23426767 -0.32055557 0.017773151
0.038258597 0.28116816 0.09780281 -0.10124387 0.24107602 0.03959864 -0.05650541 0.050146956
0.077844925 0.162837 0.17739442 -0.24691272 -0.09748673 -0.3986761 0.30880594 -0.008801478
0.034930035 0.24076943 0.13775727 0.2646784 -0.28395617 -0.30879936 -0.058913518 0.14490876
0.35745937 0.38355246 0.07238755 0.16927469 -0.007972432 -0.14848135 -0.04673929 0.09823181
-0.21744874 0.06156058 -0.13223043 -0.18064253 0.08546211 -0.16227067 0.17266881 0.086474776
-0.4047051 0.09718557 -0.035700176 0.21832849 -0.3174635 -0.3265339 -0.008539198 0.14744177
0.19583467 0.18300104 -0.02760338 -0.27225578 0.06159398 0.14793216 -0.06432032 0.16002111
0.18897985 -0.120310895 0.07931199 -0.14169616 -0.23412934 0.21083724 -0.017544042 0.09457222
0.10800464 0.28154576 0.07138364 0.03384872 -0.13961583 0.2616837 0.12080299 -0.065840006
-0.15791997 -0.18273532 0.35578167 0.1608249 0.24015442 -0.34779495 -0.011753806 -0.080045015
0.15153073 -0.05107867 0.316373 0.16697107 0.30106682 -0.17123495 0.2409292 -0.35245925
0.23809008 0.21861857 -0.12183617 0.25112566 0.0073939417 -0.2608472 -0.243165 0.0035001168
0.33436543 -0.25707194 0.12142596 0.24547687 0.24185057 0.18291993 0.2606958 -0.20270073
-0.43511212 0.28026667 0.2588795 -0.20791219 0.019293575 0.14291254 0.1043841 0.0072545945
0.30811334 -0.028700145 0.13121225 -0.044901457 0.07272336 -0.0759423 -1.8727269e-05 0.048190538
-0.031477667 0.053041697 0.069792144 0.4788832 -0.08787309 0.22150774 0.15060964 0.08319356
-0.00043630993 0.4559246 -0.37307653 0.021567257 -0.053279497 0.3267153 -0.25759193 -0.062288526
0.19209847 0.33419803 -0.0003315375 -0.104824215 0.068523355 0.073618084 -0.2846907 -0.026925536
-0.4022169 -0.21313171 -0.09915693 -0.0050711194 -0.12400229 -0.0038112665 -0.11163865 0.06464774
0.10593753 0.11836055 0.0001968749 0.18054247 0.0022926396 0.129679 -0.24658957 0.060252946
0.0665841 0.28801045 -0.104408994 -0.007237348 0.09352126 -0.047811538 -0.1709999 -0.074443035
-0.37652838 0.076151304 0.09045865 -8.310178e-05 0.24457662 0.66974425 -0.22927718 -0.18742414
-0.19807833 -0.18355714 -0.582817 0.10376384 -0.091162086 0.120424636 0.34922662 -0.22655076
0.25150958 -0.12480405 -0.0011961038 -0.08796961 0.033750024 -0.21829854 -0.26478332 -0.1723158
-0.04211921 -0.21623304 -0.36144876 0.087377176 -0.08249796 -0.19803526 0.008330223 0.14238185

network_body._body_endoder.seq_layers.0.bias f4 [128]
00000000: abf8 3cbb 578b 0abc e6db c73a 0047 b7bc
00000010: c8f8 c63b c2c1 a73c 5da8 c03c 1023 f13b
00000020: 7e2a 87bc b036 61bc 274b 883c 360f 083c
00000030: 975d 7b3b 0d01 223c 0044 adbb f680 98bc
00000040: beed 173b 48a8 7e3c 5e96 893b 8d44 a6b9
00000050: 0332 22bc affb 973c 0e18 843c 7ff2 75bc
00000060: 6879 513b c0ee b3bc 2021 43bc 9fc7 713b
00000070: 6ae2 8038 c5f0 9fbc 72c1 1e3d 4342 203c
00000080: e050 e73a 461b 373c 342a 043d 1670 f33b
00000090: 92d1 86bc 3c14 203b 8952 913a 590d 273d
000000a0: af49 4dbc 0e82 403b 753f c3bb 2234 47bc
000000b0: 59b5 093c f9d7 55bc b2dc 03bb 113c 90bc
000000c0: a092 82bc b27a cb3c c171 62bc 0f5e 223c
000000d0: 20e0 c83c 4c15 bd3b 5c73 8b3b a7ba 6f3c
000000e0: c984 c6b9 3ea4 27bc eae0 9b3c 40f6 423d
000000f0: 66ed e53b cec0 8f3c 292c 6dbc 7c6e b53c
00000100: ba3d b23c a680 ae3b c14d 86bc 53fc 8b3b
00000110: 1a9c 4a3b 220c 3d3c 0b39 2a3c ae47 2a3b
00000120: 7375 6f38 77d0 55bc b2cd 343c c2a2 3fbc
00000130: 24b2 32bb 838a d8bc be8f 663c 26be ecbb
00000140: e325 553c 59f0 18bc 5a32 7ebc 48f3 513c
00000150: aed5 9aba 67b2 013b 3270 553c 695b f53b
00000160: dbba 6b3b 306c 893c a069 9c3c d461 7dbc
00000170: a879 0e3b 8b21 0dbc c6d8 59b9 a46d 363c
00000180: e7cd 21bc a259 463c 0110 f83a 13b0 bb3b
00000190: 4a04 623c 2752 b8b9 4ea0 b33c 89df abbb
000001a0: cd34 da3c 9844 d1bc 05b5 583c 6322 2c3c
000001b0: 1750 03bc 86b7 f03b 9325 8d3c 3220 fe3b
000001c0: baee 2d3c 75ae 783c 4fd8 073d 5b2c 38bc
000001d0: b1e4 1b3d 7984 92bc 396b f1ba 165e c5ba
000001e0: a34a 9d3c 8d6e 02bc 070f 2cbb fc65 983c
000001f0: e537 ef3a 3b66 3cbc 18e3 fb3a 273e 823c
-0.002883474 -0.008456073 0.001524803 -0.022372723 0.0060721375 0.020478133 0.023517782 0.007358916
-0.016499754 -0.013745949 0.016637398 0.008304408 0.0038355344 0.009887946 -0.0052876472 -0.01861618
0.0023182477 0.015543051 0.0041988334 -0.00031713062 -0.009899619 0.01855263 0.016124751 -0.015011429
0.0031963233 -0.02196443 -0.011909753 0.0036892665 6.1456885e-05 -0.019523988 0.038758703 0.009781423
0.0017648004 0.011175936 0.03226681 0.007429133 -0.016457353 0.0024426123 0.001108722 0.040784214
-0.012529775 0.0029374394 -0.0059584924 -0.0121584255 0.008405053 -0.01305198 -0.0020120558 -0.017606767
-0.015939057 0.02483878 -0.013821066 0.009910121 0.024520934 0.005770361 0.0042556953 0.014631904
-0.00037864436 -0.0102320295 0.019028146 0.047598124 0.0070168255 0.017547991 -0.014475861 0.02214741
0.02175795 0.0053253947 -0.016394498 0.0042720228 0.0030915798 0.011538537 0.010389577 0.0025982666
5.7091424e-05 -0.01305019 0.01103537 -0.011696519 -0.0027266825 -0.026433235 0.014072357 -0.007224816
0.013009521 -0.009334647 -0.015514934 0.01281435 -0.0011812949 0.0019790174 0.013027238 0.0074877036
0.0035969529 0.01677522 0.019093335 -0.015465219 0.0021739993 -0.008613954 -0.00020775487 0.011134539
-0.009875751 0.012106331 0.0018925668 0.005727777 0.013794968 -0.00035156423 0.021927025 -0.0052451533
0.026636505 -0.025545403 0.013226752 0.010506245 -0.0080147 0.0073460964 0.01722983 0.007755303
0.010615999 0.015178313 0.033165272 -0.011241044 0.038059894 -0.017885434 -0.0018418796 -0.0015057947
0.019200629 -0.007960928 -0.0026254074 0.018603317 0.0018250911 -0.011498983 0.001921746 0.015898777

network_body._body_endoder.seq_layers.2.weight f4 [128, 128]
00000000: c8b1 85bb e90e 32be f299 923d 80f3 273e
00000010: 3112 cdbc 6ff7 8ebb dce5 a93d 56d5 923b
00000020: 98ab ffba 2dc5 d23d 30ca 433e e063 253e
00000030: 7adf 88bd 61fa 86bd becb d9bc 182b 3dbc
00000040: fd4b 11be 6258 13bc 2ba7 043c 6e87 c83d
00000050: 23f9 b9bc 1eec 46bd 2c8f a83d ee1d 6e3d
00000060: 48ae 96bd 1acc aa39 a534 1bbc cc06 163e
00000070: 6e47 313d 1adc 0dbe c8a4 f43d 2b77 9f3d
00000080: 4606 37be ca59 57bd aa89 e23d 4461 1abd
00000090: 5933 1fbe b29a 1a3e 5765 073e 7f16 123e
000000a0: c8a3 c2bc 344e f23d 4b75 883d b22e 413d
000000b0: bd8a cf3d bbf6 da3d 393d 37be d817 a1bd
000000c0: d001 ca3c 4f76 583e c2cb 16bd dd45 983c
000000d0: 2965 8b3d cf80 303d bcb0 1c3e 449d 953d
000000e0: 5ff0 b4bd 988b e2bb 0a26 e1bb 6806 34bd
000000f0: f581 3c3e 302c 73bd 3bf8 b6bd 9f59 a7bc
00000100: d687 79bd de29 b7bd b57f eb3d 5bca c93d
00000110: eae6 a0bd 6382 5dbd 8ca0 cabc 488b 013e
00000120: d85a 0f3d 8d62 cbbd 4791 c5bc ef3d e0bc
00000130: 9e5e 8f3d b3eb aa3c cda3 43be 275d 26bd
00000140: a799 203e 3c6d 853e 11d8 c1bd 5ad4 123d
00000150: e289 47bc fad6 d73a 50da 853d c15f 19bd
00000160: 8319 d6bc d34a 063d c74e a43b b5ba de3b
00000170: b871 af3d 2570 d4bc b4fc c9bc cb38 2e3d
00000180: 77f6 77bd dba8 6abe f1f8 9ebc 2fc9 d03d
00000190: 88e8 703c ad99 293d 0725 803d cf8a 44bd
000001a0: 1579 643c 2edc 2ebd 14fd 9f3c ea93 a3bd
000001b0: fd08 a4bd 59a1 1ebd 87a5 a2bc 8a3d 79bd
000001c0: f5fa 4abd 461d 553d 3898 f239 2b4b 71bd
000001d0: d731 ac3d dc2b 3c3d b183 b5bd 440e 4ebe
000001e0: 0bed 543d b847 9fbc d310 cfbd de67 1d3c
000001f0: c786 78bd 7a82 9a3d e489 b3bd 431a 423d
00000200: 9ab1 be3c 8970 b0bd 3abd 993d 9383 a33c
00000210: 25e8 a1bc ecf4 2a3d 3458 0f3d cddb 2a3d
00000220: 98b0 003e d84b 92bc bf01 b33d 26f0 d43d
00000230: 1b12 043d 7472 973c c068 383d 5d27 ca3d
00000240: e56f 973d 2496 03be 6f81 1fbe 4fd3 58bd
00000250: 903a e83d 9e12 5dbd b129 5bbd 13ad 95bc
00000260: 035c 833c ad4d 4dbe 22cd fcbc c00c 933c
00000270: 5f71 a5bd 1291 223d 098f a9bd 189b 133d
00000280: ca6a a6bd 5841 f0bd f82e b23c f323 943d
00000290: a234 eabc edbf c03d 8a63 b8bc 651b 523c
000002a0: 1ea3 143d c6e7 95bd 7dea a8bd 4d55 96bc
000002b0: 934a 26bd 132f 803d d968 9b3d 697b b93d
000002c0: 04c4 02bd 48ce 1e3d f079 9bbd 3c60 ea3d
000002d0: da9a dfbb 2feb 45bd 7f19 1abe 3963 903d
000002e0: eec8 09be e45f 10bd 669b 3ebe 5846 4abe
000002f0: 544d ea3d 0d8b 65bd 0d9d 40be 3589 dabd
00000300: a9fe 343e 9d81 393d e807 11bd 4060 6abd
00000310: c3b0 c7bb 2cd6 77bd 32fb 013c d245 c83d
00000320: 8adb 25bc 3c56 163d 9c60 c1bd 1595 01bd
00000330: 69bf 9abc 52fd c63d 0f8f 9fbd 078a 01be
00000340: ab01 a63d c591 3fbe 93f4 debc 0db1 55bd
00000350: 6447 603c ee0a 1f3e ccc5 3e3b a06b b73c
00000360: 7fe0 f23d 709f 2cbd 9c52 f2bd 3b8b 2a3d
00000370: 4731 083e acbc 28bd fe55 8a3c 6d2a 3d3e
00000380: b2a9 1f3d f972 d73c 62d2 a03d 089d c83d
00000390: 0d57 e7bd 0543 81bd 9028 70bc 2763 dd3c
000003a0: 4e44 c0bd 10d5 4dbc 89c7 0cbc b3eb 4ebe
000003b0: bf03 57bb 1e55 5f3d 86a0 94ba f528 06bd
000003c0: bd71 813d a88a 20bc de6c 953c d1a3 1fbd
000003d0: 81ca ff39 02db 3cbd c33b 20bd e8fd e6bc
000003e0: 09bb 903c 27cc e6bc 90cc cfbd 2011 4dbd
000003f0: cfcb 623e 8b9c c0bc 6996 923d d3ac b53d
-0.004080031 -0.173885 0.07158269 0.16401482 -0.025033088 -0.0043629925 0.08295795 0.004480998
-0.0019506095 0.102915145 0.19120097 0.1615138 -0.0668325 -0.06590725 -0.02658641 -0.011545919
-0.14189143 -0.00899324 0.008096497 0.09791456 -0.022701805 -0.048565023 0.08230433 0.058134012
-0.0735746 0.00032576994 -0.009473001 0.1465103 0.04328101 -0.13853493 0.11945492 0.07786401
-0.17873487 -0.052575864 0.110614136 -0.037690416 -0.15546931 0.15098074 0.13222252 0.14266394
-0.023759738 0.11831322 0.06662997 0.047163673 0.10133884 0.10691591 -0.17894448 -0.07865876
0.024659067 0.21138881 -0.036815412 0.018588 0.06806404 0.04309159 0.15301794 0.07305387
-0.0883491 -0.0069136135 -0.0068709897 -0.043951422 0.1840895 -0.059368312 -0.08934065 -0.020428477
-0.06092056 -0.089435324 0.114989676 0.09853049 -0.07856543 -0.054079425 -0.024734758 0.12650788
0.034998745 -0.099309064 -0.024117125 -0.027373282 0.07000469 0.020864343 -0.19105454 -0.04061618
0.15683614 0.26059902 -0.094650395 0.035847045 -0.01217887 0.0016467266 0.065357804 -0.037444834
-0.026135212 0.0327862 0.005014274 0.0067971596 0.08566612 -0.02593238 -0.024656631 0.04253463
-0.06053778 -0.22915976 -0.019405814 0.10194623 0.014703877 0.041406322 0.062570624 -0.04798394
0.013944884 -0.04269045 0.019529857 -0.07987197 -0.08009527 -0.038728092 -0.01985432 -0.060849704
-0.049555738 0.05202987 0.0004627125 -0.058909576 0.08407944 0.045940265 -0.08863009 -0.2012263
0.051983874 -0.019443378 -0.10110631 0.009607283 -0.06067541 0.07544418 -0.08766535 0.047388326
0.023278046 -0.086152144 0.07506795 0.0199602 -0.019764015 0.041737482 0.034996226 0.041713525
0.12567365 -0.01785843 0.087405674 0.10397367 0.03224383 0.018487193 0.045021772 0.09870789
0.07394389 -0.12850243 -0.15576719 -0.052935895 0.11339295 -0.053972833 -0.053506557 -0.018271005
0.016035086 -0.20049162 -0.030859534 0.017950416 -0.080782644 0.03968913 -0.08279235 0.03603658
-0.08125837 -0.11731213 0.021750912 0.07233419 -0.02858955 0.09411607 -0.022508401 0.012823914
0.036288373 -0.07319598 -0.0824785 -0.018351221 -0.040598463 0.06258979 0.075883575 0.09056742
-0.031925216 0.038770944 -0.07591617 0.114441365 -0.0068238797 -0.04831999 -0.15048788 0.07050175
-0.13455555 -0.0352477 -0.18613967 -0.19753397 0.114405304 -0.056040812 -0.1880991 -0.106707014
0.1767527 0.045289624 -0.03540793 -0.057220697 -0.0060940697 -0.060506985 0.007933425 0.09778942
-0.010123143 0.036703333 -0.09442255 -0.031636316 -0.0188901 0.09716286 -0.07790958 -0.1265031
0.08105787 -0.1870795 -0.027216231 -0.052170802 0.013688896 0.15531513 0.0029109595 0.022390187
0.118592255 -0.04214424 -0.11832163 0.041636687 0.13300048 -0.041195557 0.016886707 0.18473215
0.038980193 0.02629994 0.07852627 0.09795576 -0.112959005 -0.06311611 -0.014658108 0.027024819
-0.09388028 -0.012563005 -0.008592495 -0.202071 -0.003280863 0.054524533 -0.0011339344 -0.032753903
0.06320522 -0.009798683 0.018240388 -0.038974587 0.00048788267 -0.0461073 -0.039119493 -0.028197244
0.01766731 -0.02817352 -0.10146439 -0.05006516 0.2214806 -0.023512146 0.07157595 0.08870854

network_body._body_endoder.seq_layers.2.bias f4 [128]
00000000: 22ed 883c 0459 82bb 9b58 99bb 41f6 9e3c
00000010: ef17 ad3c 0df5 fdb9 dc89 023d ea1b 773b
00000020: e752 c53a 5c9d 913c e3b3 1bbb d5a4 ddbb
00000030: 6c29 a8bb 2586 213c 01fb 8abc 01bd 3cbb
00000040: dfef 623c 527c 043c 2162 863c 6e24 603a
00000050: 40c5 ff3c 304b 793c c2bb 4a3c f63c e6bb
00000060: 2160 b939 dc37 773c 3ea3 843c a778 ecbc
00000070: 61b2 8d3c 07b3 c237 97db f2ba d5d6 093d
00000080: a371 c63b 5b31 0c3b 8770 af3c 04db 273a
00000090: 3f1e 54ba a740 fe3c b126 9fbb 5c27 e43c
000000a0: 3178 0bbc 91c7 133c b229 6e3c 88e6 7abc
000000b0: 39eb e2ba ec3a 003a 7855 a93b 44fd 85bb
000000c0: cce8 b93c 4cc0 863a 5809 56bc a72b 9b3c
000000d0: 290d de3b 0add 9a3c 9f08 0d3b 78c4 a73b
000000e0: daf5 7d3c 7ce0 103c c375 5b3b 9a42 173c
000000f0: 1d0f 333a b2fe 743c 531f 373c ecfd aabc
00000100: ed19 e8bb 9ad4 4d3d 6091 8239 25ce a63c
00000110: f60d 813c 1b5e 973b 1e53 e73c 6456 d33c
00000120: 8ad4 463c 39dc 2c3a 87ef eabb 29cf d83c
00000130: 4b7f 26bc 17ef dd3c 6e50 903c b87c 933b
00000140: ef45 5d3c 518e 923b daca 003d 462b 07bb
00000150: cd64 a23c 1b98 b33c 8cd1 983b 4dac c4b9
00000160: 71d1 bfbb fdfa c43b ba0f c53c cfe2 943c
00000170: b1b9 51bc 8e54 963c e43d 9bbb daac 2bbc
00000180: 373f ae3c 0330 163c 9f73 a03c 9061 b4bb
00000190: d2c9 98bb b0a4 103c 1c8e 75bc 37cc 3f3c
000001a0: bf4b 14ba 61f4 0c3c 74fe 2c3c b56e c8bb
000001b0: e6e4 3bbc e4de 0bbc 93aa 96bb d8dd 79bb
000001c0: 922e 31bc 2cba d03b 11da 0dbb 14ad 9d3c
000001d0: c140 56bb 2e3c 9d3c 8872 81bb 8bb2 13bb
000001e0: e848 c9bb 7568 f73b 8c33 08bc 5d1d 053c
000001f0: f5ba fbbb 275c aa3b f088 68ba 77b9 1ebb
0.016714636 -0.0039778966 -0.004679752 0.019404532 0.021129576 -0.00048438497 0.031869754 0.0037705847
0.0015054614 0.01777523 -0.0023758344 -0.0067640343 -0.005131891 0.009858643 -0.016965391 -0.0028799179
0.013851135 0.008086281 0.016404213 0.00085503503 0.031221986 0.01521568 0.0123738665 -0.00702631
0.0003535757 0.0150890015 0.016191121 -0.028866125 0.017296972 2.3209968e-05 -0.0018528578 0.033652145
0.006056027 0.0021391723 0.021415962 0.00064031803 -0.0008091665 0.031036688 -0.0048569073 0.0278508
-0.008512543 0.009019748 0.014536308 -0.015313752 -0.0017312533 0.00048915925 0.0051676594 -0.0040890295
0.022694014 0.0010280698 -0.013063751 0.018941713 0.006776471 0.018904228 0.002152003 0.0051198564
0.01550051 0.008842584 0.003348694 0.009232188 0.000683056 0.014953302 0.011176902 -0.020873033
-0.0070831687 0.05025158 0.00024903845 0.02036197 0.015753727 0.0046193725 0.028237876 0.02579803
0.012135634 0.0006594095 -0.007169667 0.02646597 -0.010162185 0.027091546 0.017616477 0.0045009516
0.013505443 0.004472532 0.031443454 -0.0020625158 0.019823456 0.021923115 0.004663652 -0.00037512407
-0.005853825 0.0060113654 0.02405535 0.018174557 -0.01280062 0.018350866 -0.0047376025 -0.010478223
0.021270378 0.00916672 0.019586382 -0.0055047944 -0.0046627307 0.008828327 -0.014987495 0.011706403
-0.0005657039 0.008603186 0.010558713 -0.006116713 -0.011468148 -0.008537028 -0.0045979708 -0.0038126614
-0.010814326 0.0063698497 -0.002164487 0.01924757 -0.0032692405 0.019193735 -0.0039504208 -0.002253684
-0.0061427243 0.007550294 -0.008313071 0.0081246765 -0.007682199 0.0051989737 -0.0008870503 -0.0024219432

action_model._discrete_distribution.branches.0.weight f4 [3, 128]
00000000: 93ce 3abc aa0d fa3b 612d 2ebb 208a d43b
00000010: d61e 753b d3b3 0b3c cf30 3e3c 9105 59bb
00000020: 296f 993c b71a 47bc 44d5 9c3b 46f3 f83a
00000030: 4e63 993c 341b c83b 57d6 98bb 3979 d1bb
00000040: d585 ea3b 74a5 b6bc cfb8 a53b 4654 00bc
00000050: 5917 6dbc 4807 bebc 69c3 0dbc 0e48 d43a
00000060: c843 87bc a924 64bc d868 933b cd7f 4ebc
00000070: 70ab dcbb eea9 e1ba 81e7 bfbb a775 12bc
00000080: 2c25 8c3c b7c5 1abc 2c56 65bc 7ff1 d03a
00000090: c86c bcba 0b37 00bc 76d1 a03c d08c 3ebc
000000a0: 5bc1 863c c1c9 9dbc c9cc 81bc 7eae db3b
000000b0: 9724 323c 2012 4836 6c01 1d3c 6e7d 343c
000000c0: 9a9d ddb9 7ae7 5b39 471d a63c ec5a d9bb
000000d0: 0078 7ebb 9bc4 953c 5bce 85ba 6fda 07bb
000000e0: 6284 e53b 72ad c53b d95f 06bc c743 39bb
000000f0: 679e 013c c30d 86bc d322 72bc 748f a83c
00000100: 600f a9ba c5af c7ba 1b84 d5bb 33f9 01bc
00000110: 12f1 393b a660 20bc d70d 803b 446a 14bc
00000120: a862 833c 7a38 9f3c 21fc 7fbb 519a d93a
00000130: c8ea 65b9 130a 42bc e367 6abc d806 473c
00000140: ba6b fd3b 2e3c 50bc 467f 84bb 29ff 67bc
00000150: d659 92bc 434b 9038 f3cf 0b3b 67a4 b7bb
00000160: 108c 813c a6a8 e83b f9db 3abc b370 f0ba
00000170: cd3d 4f3b f1b5 f3bb 3725 b83c 38df ccbb
00000180: 7bb6 99bc 53b6 8fbc 3d4f 593c f509 83bc
00000190: 269e 48bc 97a8 833c 3de5 57bc a77a aebc
000001a0: f601 983c ade9 a3bb 9134 3ebc 60a7 c83c
000001b0: f917 a13c 10e2 463c 853e 333a 97b5 bfbb
000001c0: 86cf 4abc afcb babb e9c9 2cbb cfe2 55bc
000001d0: bf40 f2bb 32cc 353c 52ba 15bc b76a ad3b
000001e0: b61d babb 486d 6fbc a519 5bbc 4975 7b3b
000001f0: e730 4d3c 3219 833c d770 bb3b 669a eeb9
00000200: 9746 df3b 625c 87ba 7180 9abb d4e7 ca3c
00000210: 6430 373d 06ad 37bc b7c7 2a3d a6ab e5bc
00000220: 7ee3 823c 73ff c03b bb4c a9bc 1072 933c
00000230: 200e 623c c75d aa3c 4d85 a53c 7946 8a3b
00000240: 325e d0ba a147 203b 860e 0dbd 556d f8bb
00000250: e2b5 363d b4c4 cb3b 26de c2bc 2fb6 ec3b
00000260: df36 00bb 13fb e43b b00c e93b 7f64 aa3c
00000270: 225c f9bc 9b4d 083a 644e 84bc 4e48 04bc
00000280: d2ed ca3c 36a4 063a cce0 223d 2da9 df3b
00000290: 5e2a e5b9 6458 2d3c 6909 41bc 4045 08bc
000002a0: 499b 95bc 0f8d 23bc cd50 903c ce05 cd3b
000002b0: 6171 3bbc 78f0 873b fc0d 203b 6820 293c
000002c0: 20f0 af3c 6885 9fbc 41fa eebb 1e17 e3bc
000002d0: 93c1 fd3b b147 c1bc 81f6 16bc ddd0 e13a
000002e0: ccac b63c 537f 0b3d ebef a6ba 1343 b3bc
000002f0: 049b f4bb 7e93 90bc 634a 18bc acc2 543b
00000300: 6d2d 8cbb 8cb5 963d 806a b5bc dfaa e73b
00000310: 5aea b53c 040f 583b e339 4a3d 8a84 be3c
00000320: 4059 8e3b 4867 ce3b 07a7 803a 084d 11bd
00000330: 8523 8ebb af19 ea3b e76b 443b bcdc 27bb
00000340: 2a04 8ebb 3214 7bbc 4bfa 6cbb a578 463b
00000350: 4be8 e73a 87fa 6cbc 858d ba3c 47f8 fcba
00000360: 554e ad3c 2e2a c43b 0776 acba 2cac 1bbc
00000370: 72c4 963c 4fd9 b1bc a481 e83a 961a fb3c
00000380: 6184 98bc c0ee 923c 0197 083d 9410 84bb
00000390: 013c 56ba c34e 243c 493f 853c cbab 0c3d
000003a0: 4443 95b8 98f6 f93b 50bf 5a3a 8f4a 6d3c
000003b0: b04f 633c 64d6 aabb 4840 4c3c b168 99bc
000003c0: dcc9 bb3c 8b45 6fbc 38b9 303c b102 f0bc
000003d0: a6a4 25bb a2c9 c13c 33ec 8f3c e5c6 9e3b
000003e0: d533 55bc f1d2 763c 1ec4 47bc 1a7b ec3b
000003f0: 045e 853b 3c70 d93c 800b 9e3b 3b95 16b8
-0.01140179 0.0076310234 -0.002657734 0.0064861923 0.0037402413 0.00852676 0.011608317 -0.003311489
0.018729763 -0.012152365 0.0047861654 0.00189934 0.01872411 0.0061067585 -0.004664223 -0.0063926247
0.0071570673 -0.022295691 0.0050574313 -0.007832592 -0.014470899 -0.023196831 -0.008652546 0.001619579
-0.016511813 -0.013924756 0.0044985823 -0.012603712 -0.006734304 -0.0017216781 -0.005856455 -0.008939183
0.017107569 -0.009446553 -0.013997596 0.0015941112 -0.0014375681 -0.007825623 0.019631129 -0.011630252
0.016449621 -0.019261243 -0.01584472 0.0067041507 0.0108729815 2.9812873e-06 0.0095828585 0.011016233
-0.00042269827 0.00020971699 0.020277632 -0.006633153 -0.003882885 0.018282225 -0.0010208593 -0.0020729562
0.0070043067 0.006032639 -0.008201563 -0.0028269158 0.007911301 -0.016363984 -0.014778811 0.020576216
-0.0012898259 -0.0015234879 -0.0065159923 -0.007932949 0.002837245 -0.009788668 0.0039079 -0.009058539
0.016038254 0.01943611 -0.0039060193 0.0016601776 -0.00021926605 -0.011843222 -0.014306995 0.012147628
0.0077337893 -0.01270966 -0.0040434925 -0.014159956 -0.017865103 6.880474e-05 0.0021333664 -0.005604315
0.015813857 0.0071001826 -0.011404985 -0.0018344134 0.003162253 -0.0074374606 0.022478683 -0.0062521957
-0.018763771 -0.017542994 0.013263521 -0.015995959 -0.012244737 0.0160716 -0.013177213 -0.02129872
0.018555623 -0.0050022216 -0.0116092125 0.024493873 0.019664751 0.012138858 0.0006837624 -0.0058505046
-0.012378579 -0.0057005505 -0.0026365465 -0.013054564 -0.0073929722 0.011096047 -0.0091386605 0.0052922624
-0.0056798114 -0.014613457 -0.013372813 0.0038369468 0.012523866 0.016003225 0.0057202387 -0.00045509933
0.006813835 -0.0010327215 -0.0047150184 0.024768747 0.044723883 -0.011210686 0.04169437 -0.02803595
0.015977617 0.005889827 -0.02066647 0.017998725 0.013797313 0.02079667 0.020205164 0.004219827
-0.0015897213 0.0024456757 -0.03443768 -0.007581393 0.04460705 0.006218517 -0.02378757 0.0072238664
-0.0019563956 0.006987938 0.007112108 0.020799873 -0.03043944 0.00051995524 -0.01615066 -0.008073879
0.024771605 0.00051361637 0.039765164 0.0068255872 -0.0004370985 0.010580156 -0.011782029 -0.008317292
-0.018262522 -0.009982361 0.017616654 0.0062567955 -0.011440606 0.004148539 0.0024422398 0.010322668
0.021476805 -0.019472793 -0.007293016 -0.027720984 0.007744023 -0.023593755 -0.009214045 0.0017228384
0.022299193 0.034056973 -0.0012736296 -0.02188257 -0.0074647684 -0.017648455 -0.009295079 0.0032464666
-0.004277876 0.07358846 -0.02214551 0.00706993 0.022206474 0.0032967934 0.04937161 0.023256559
0.0043441355 0.006298933 0.0009815403 -0.035473853 -0.0043377304 0.007144175 0.0029971541 -0.0025613746
-0.0043339925 -0.015324639 -0.0036159928 0.0030284312 0.001769313 -0.014464027 0.02277256 -0.0019300067
0.021155516 0.0059864735 -0.0013157733 -0.009501498 0.01840422 -0.021710066 0.0017738831 0.030652326
-0.01861781 0.01793611 0.033347134 -0.0040302966 -0.00081723934 0.010028544 0.016265528 0.034343522
-7.117403e-05 0.007628273 0.0008344548 0.014483108 0.013873979 -0.0052135456 0.012466498 -0.018726679
0.022923402 -0.014603983 0.010786347 -0.029298158 -0.002527514 0.023655716 0.017568683 0.0048454874
-0.013012846 0.015064941 -0.012192754 0.0072168233 0.0040700454 0.026542775 0.0048231483 -3.590177e-05

action_model._discrete_distribution.branches.0.bias f4 [3]
00000000: c4b1 45bc 2183 a7bb e088 733c
-0.012066308 -0.0051120673 0.0148641765

action_model._discrete_distribution.branches.1.weight f4 [3, 128]
00000000: 4a95 03bc 7a0f fcbb 4f91 1dbb 9948 313c
00000010: 4543 f4bb c4d1 9cb9 7e55 cb3c 185d 8db9
00000020: 9b52 693b 2249 14bc 671b a43b e541 e13b
00000030: ae1d aaba 7253 153b b76d 2c3b 6404 463c
00000040: 2f86 a5bc 3741 6a3c 7682 08bb 0f29 783c
00000050: c362 2e3c 8da6 3dbb a269 8c3b b09c f53b
00000060: 515d 753c 3783 bf3b 457f 46bb 9a44 fa3a
00000070: 9b2a acbb f4a0 ad3b e79a 2e3b df2a 95bb
00000080: 2630 973c e55c 60bc ee57 91bb eb30 cf3b
00000090: a819 1dbc 5d91 08bb cf23 5abb 47cc 533b
000000a0: 3805 26bc e418 633c de28 1a3b 598a 13bb
000000b0: 4ea2 1e3b c8eb 653c 008f 813c c341 8a3c
000000c0: 6e8d 2d3c 611b ef3b 1a0d d73b 26c7 1e39
000000d0: 46cb f4b9 cd31 f53b 28b3 9036 de11 8dbc
000000e0: 7762 333c cfcf edba f6cd 503c 7ae1 6dbc
000000f0: e43e 3abb 2b0b 93bc fbbd a6b9 4a3d fb3c
00000100: 4faa fb3b 4354 cabc 0072 ac3a 596f 8e3a
00000110: 7bfc 21ba 21af 5fbc 09bf 5cbc e1a3 98bc
00000120: 7b62 1a3b 8057 c23c 2a9d 55bc a960 993c
00000130: acf8 673b acfd 56bc 46a9 a73b c6e0 84bc
00000140: 2608 b2bb f282 043b b2e6 663a b95e 73bb
00000150: a6b9 b93b 2c45 823b 12f1 37bc 42d4 04bc
00000160: bc19 ab3b 79fb 46bc 22ee 0cbc f587 633c
00000170: 44d5 9d3c 20a6 82bb 9b19 7e3b 5a47 03bb
00000180: cc2d 813c 7d59 f3bc 138e 283b 3eba a53b
00000190: 34db a13b e62f 803a 4ae5 b9ba 3a18 0cbb
000001a0: 9642 183c 1663 a13c 2d89 d83b 3f75 c53b
000001b0: c5b8 213c 8878 e73b 0dc2 313b e43d 963b
000001c0: c50e d4bb c555 9f3b 0061 c73c ec87 03bc
000001d0: d8a6 82bb b90d 9cba 013c da3c 7aac babb
000001e0: cf77 663c 8be7 7bbb 8587 4e3c 3fce 02bc
000001f0: 574a 4a3c 5e8e 293b 6518 d43a 040b 1fba
00000200: 30fc 183c 7ab1 573c eb14 013d f065 d8bc
00000210: 74f6 9cbc 0c89 953b cecf 11bc fc68 173c
00000220: 351f 0dbc 8287 0ebc ba95 193c c1b2 8f3b
00000230: 9b4a 053c e8e3 babc 99e8 2bbb 1d66 99bc
00000240: 6610 f7bb fe1e 8a3c bacb abbb a9da 17bb
00000250: 8809 273c a506 ba3c cfcd a4bc 9402 263c
00000260: 952e 303c f31e 8fba 0fd8 a83c 7eb6 503b
00000270: 9cfc a23b 50ff 763c 572f d7bc df7e 3d3b
00000280: a009 58bc 44a1 583c 50b7 15bd 136c a53a
00000290: 07c2 4fbc b4d4 97bc 58ef 313b a667 d8ba
000002a0: e2b6 0dbc 1699 07bc 4358 0fbc 10f0 65bb
000002b0: dc45 173c 0fd7 a6bc b4bf ed3a 589a 97bc
000002c0: 736a 243c 7a88 cb3c f6c9 03bc 96bd 48bc
000002d0: d0a2 0bbc 74a5 99bc 781e ad3c 8eda a5bc
000002e0: 060a e23b ded1 08bb 76b4 8abc 9bce 90bc
000002f0: 0261 9dba e95b a63c 35b8 de3b a447 98bb
00000300: 94dd 4d3c 0494 17bc 1449 2e3c 18b2 c43c
00000310: 4dcb 63bc 535d 80bc bbda 0d3d f276 ccbc
00000320: 0178 aeb9 dd95 0a3c 7773 ba3b 799e 463c
00000330: 71d7 713a 06a5 0fbb d3ca 7fbb 4ad7 0a3c
00000340: 4e0b 21bb 6b54 d3b9 74d1 85bc 0b6d b83c
00000350: 02e4 f83c 770e a33c 5b5c 733c 6939 4a3c
00000360: a0c9 a8bb b5ee aebb d250 c3bb 0f8a 1e3c
00000370: 3c31 a4bb 776a 44bc 9427 4b3b b135 97bb
00000380: 61e7 8bba ad56 913c 8dc8 963b 99eb 55bc
00000390: dad0 623c 6115 bb3b 1b7e 3b3c eae9 a23c
000003a0: d0f5 b93c afd7 3ebc f78a 89bc cb95 5dbc
000003b0: ef63 e2bb fc46 a4bc eebf fa3b 05ef 9a3c
000003c0: bf0e 933c 0787 ce39 869a 37bc 0878 b83b
000003d0: b4ed 9138 eb94 e13b 200c b23a cff7 333d
000003e0: a8e9 5fbc 66a0 233c 4dda ac3b bdbc c53c
000003f0: f816 2cb9 f8f4 cfbb b863 1f3b 6360 023c
-0.008031199 -0.0076922746 -0.002404291 0.010820531 -0.007454308 -0.00029910926 0.02482104 -0.00026962976
0.0035602215 -0.009050639 0.0050081494 0.0068743103 -0.0012978816 0.0022785333 0.0026310512 0.012086008
-0.020205585 0.014297775 -0.0020829714 0.015146508 0.010643664 -0.0028938383 0.0042850534 0.0074954852
0.014975862 0.0058444995 -0.003028826 0.0019093931 -0.0052541024 0.005298728 0.0026642622 -0.00455223
0.018455576 -0.013694023 -0.004435531 0.00632297 -0.009588636 -0.0020838596 -0.0033285504 0.0032317804
-0.01013308 0.013860915 0.0023522894 -0.0022512882 0.0024205628 0.014033265 0.015815258 0.01687706
0.0105928015 0.007296965 0.006562841 0.00015142243 -0.00046690757 0.0074827434 4.312391e-06 -0.017220434
0.010948769 -0.0018143597 0.012744417 -0.01451909 -0.0028418833 -0.017949661 -0.00031803534 0.030668873
0.0076802145 -0.024698382 0.0013156533 0.0010866924 -0.0006179285 -0.013652594 -0.013473281 -0.018632831
0.0023557234 0.023723364 -0.013037959 0.018722849 0.0035396023 -0.0131220035 0.0051166145 -0.016220462
-0.0054331003 0.002021965 0.000880818 -0.0037135317 0.005667883 0.003975531 -0.011226909 -0.008107247
0.0052215736 -0.012144917 -0.008601697 0.013887395 0.019266732 -0.003987089 0.0038772586 -0.0020031543
0.015768908 -0.029705757 0.0025719448 0.005057602 0.004939461 0.00097799 -0.0014182713 -0.0021376745
0.009293219 0.019700568 0.0066081495 0.0060259397 0.009870713 0.007063929 0.002712372 0.0045850147
-0.006471487 0.0048625194 0.024338245 -0.008028012 -0.0039871745 -0.0011905945 0.02663994 -0.0056968303
0.0140666505 -0.003843757 0.012605553 -0.007983743 0.012346826 0.002587221 0.0016181587 -0.000606701
0.00933747 0.013164872 0.03151409 -0.026415795 -0.019160487 0.0045634564 -0.008899642 0.009241339
-0.008613397 -0.0086993 0.0093740765 0.004385323 0.008135463 -0.022813752 -0.0026231168 -0.01872545
-0.0075397966 0.016860481 -0.005242792 -0.0023171103 0.0101951435 0.022708246 -0.020117668 0.010132451
0.0107532935 -0.0010919258 0.020610837 0.0031847055 0.004973961 0.01507552 -0.02626769 0.0028914732
-0.0131858885 0.0132220425 -0.036551774 0.001262071 -0.012680537 -0.018534042 0.0027150717 -0.0016510382
-0.00864956 -0.008276245 -0.008749071 -0.0035085715 0.009232964 -0.02036622 0.0018138797 -0.018506214
0.010035145 0.02484535 -0.008043757 -0.012252232 -0.008522704 -0.018755652 0.021132693 -0.020245817
0.0068981675 -0.0020877044 -0.016931754 -0.017676642 -0.001200706 0.020307498 0.0067968615 -0.004647212
0.012565035 -0.009251598 0.01063754 0.024010703 -0.013903451 -0.0156695 0.034632426 -0.024959061
-0.00033277276 0.008458582 0.005690034 0.012122744 0.00092255237 -0.002191843 -0.0039030805 0.0084741805
-0.0024573389 -0.00040307952 -0.016335227 0.022512933 0.03038216 0.019904358 0.014853562 0.012342789
-0.0051509887 -0.0053385147 -0.0059605623 0.00967647 -0.005010752 -0.011988274 0.0030998932 -0.004614555
-0.0010673815 0.017741526 0.0046015442 -0.013056659 0.013843739 0.0057093357 0.01144364 0.01988693
0.02270022 -0.011648103 -0.016789896 -0.013524483 -0.0069088857 -0.02005338 0.0076522743 0.018912802
0.017951367 0.00039391985 -0.011206275 0.005629543 6.9584145e-05 0.0068842075 0.0013583936 0.0439375
-0.013666548 0.009986972 0.005275047 0.024137849 -0.00016411755 -0.006346341 0.0024320912 0.007957551

action_model._discrete_distribution.branches.1.bias f4 [3]
00000000: 66f3 e8bb 33e6 3838 e37a f13b
-0.0071090935 4.408341e-05 0.0073693856

action_model._discrete_distribution.branches.2.weight f4 [2, 128]
00000000: d8de 7139 cc56 8abc b809 13bc 32c8 49bb
00000010: 6d8f dc3a 8234 84bb f5d2 c2bc 6434 08bc
00000020: baa0 973c 7275 f1bb e37f a93b 38c9 99bc
00000030: 16e6 623b c0e6 d7ba 1153 71bb fe07 3e3c
00000040: b63e 393c f574 dcbb 6fba 84bc ba54 f33b
00000050: c22e 12bc 6c96 44bb 9b33 f6b9 848e 22bc
00000060: 3ac8 12bc 1a1c 773c 8c3b 4a3b 6482 3cbc
00000070: 7b25 383c d398 4bbb 9456 283c 7d39 bc3b
00000080: 1108 b7ba 5516 16bc 5664 1a3c 329b cbbc
00000090: 6266 e7bb dde8 263c dc8e b0ba 972e b6bc
000000a0: c150 adbc 2319 783c 92b1 3bbc 76e7 073c
000000b0: 3c19 ad3a ef29 703c 4594 dc3b c6ed c9bb
000000c0: 1ee5 ec38 e96c 1fbb 1d5d 6d39 dfdc f53c
000000d0: 371c 0ebb 8c52 9ebb 056e e03a a7d8 11bc
000000e0: 3b76 77bc ac94 4cbb 5369 093c 09dc 93bc
000000f0: 74d3 c5bc f38b 053c 6ef6 41bc 90e6 863b
00000100: dbfb 6ebb 6de3 3cbc 91e6 feba b530 223c
00000110: 9bd0 833c d994 49bc 8dc2 493c b471 a6bc
00000120: 9b4e e8ba 95c8 043c 3c8d a4bb 0253 cc3a
00000130: 644c 38bb f418 91b9 a329 39b8 f74a 8bbc
00000140: 71b7 17b9 0264 f63a bbd5 1b3c 1e58 ec3a
00000150: 1d57 e1ba dbf2 273c 81e5 78bc d24e 483b
00000160: 2e04 483b 7f1c 0dbc 3520 f73a 3e5b 1e3c
00000170: 78ce 743b 3018 2c3a 30c3 a03b 92ec 87bc
00000180: ebb9 863c ef5f 19bc 06d1 a4bc dcd2 c03b
00000190: 0445 96bb fafd 5ebc 95ed f2bb c4cc a638
000001a0: 84f3 133b 0bc4 ce3b a267 f7bb ee85 b03a
000001b0: b2dc 09bc e18a 313b 9f97 cbbb 07dc 2d3c
000001c0: 3a00 f1bb 7196 4d3c a920 cd3c a531 423a
000001d0: 8d1e f4ba d9fb 6fbb 8ab1 263c 3ff9 91bb
000001e0: 76df ffbb e3b4 863a aaf0 853c f553 c2bb
000001f0: e786 8dbc 22f4 b4bb fb8e 82ba 2d21 943b
00000200: 7096 7c3b c568 293a 51cb edb9 e0b7 0f3a
00000210: 116a 99ba ee44 e237 ef6d ab3c 1d6a ef3b
00000220: e615 37bc 57ae eb3b 05e6 e6bb 4331 54ba
00000230: 3e9c 4fbc a743 713c e886 44bc 399e b0b9
00000240: b11f c5bb a9b5 46bc de46 89bb 5f10 57bc
00000250: 9905 0dba 6d8d c1bc 5640 c6bb 6efe f63c
00000260: e0d1 36bc 198a 27bc 052e e6bb aaf0 da3b
00000270: 2a44 5dba 43d7 23bc 45c9 ddbb 885c 80bc
00000280: 76b7 aebb 90ba 3fbc 22a8 25ba 433b ad3c
00000290: 40c8 77bb 9c29 2fba abfc f8bb 68c9 933c
000002a0: f976 1bbc a156 1e3b b2e9 c739 8f88 ddb8
000002b0: 67cb b93b dee6 b63b b868 bf3b 9979 163b
000002c0: 359d a9bb 4469 04bc a741 c2ba 4c31 f2bb
000002d0: 87f5 5e3c 31bd 8c3c 7111 2abc b744 9f3b
000002e0: 3716 c8bb 01d8 f9bb 2cb8 dfbb b3a4 433c
000002f0: 3144 a13c 3fae 53bb 2089 d8bb a269 da3a
00000300: a2a3 9c3c 8bbc f63c d94a 54bc b837 88bc
00000310: 331e 423b 3d92 39bc 535b fb3b d8d4 0a3c
00000320: 7364 4e3c 5d19 303c b34e 393b 8664 70bc
00000330: 3881 c13b 97a2 dbbb 32c8 8fbc 3067 2f3c
00000340: f364 babb 0dfc 503b dda3 b53c 3c37 b03b
00000350: 9313 bebb 2db2 72bc f839 3a3c 32cb 493c
00000360: 4c4e 5dbb e9df 02bb 6521 2f3c 9a66 133b
00000370: 0a7c ff3b 53d6 733c 9243 a73b 571c fe3a
00000380: 1773 57b7 739e 143c 852f f73a 9475 39bb
00000390: 768d 8fbc 2b04 403b a307 453b 7d63 043b
000003a0: 0984 0d3c 8924 12bc 09e9 6dbc 70f8 373b
000003b0: 6836 23bc 7b5c 393c 37e2 9d39 ff2c 743c
000003c0: 4330 d5bc c5ec 0e3c 1d53 63bc 1dfe 5b3b
000003d0: 94ca e4bb eab4 07bc 2100 57bc b715 583a
000003e0: 638e d6bb d3dd 2e3b ed7d 083c 10e2 8e3a
000003f0: 6149 473c 043b 82bc 0acc 7dbc 08ae fdbb
0.00023066567 -0.016887091 -0.008974485 -0.0030789492 0.0016827412 -0.0040345797 -0.023782233 -0.008313272
0.018509258 -0.007368737 0.005172716 -0.018772706 0.0034622005 -0.0016471967 -0.0036823193 0.011598585
0.011306455 -0.0067278096 -0.01620218 0.0074258717 -0.008922281 -0.0029996885 -0.00046959225 -0.009921674
-0.008958871 0.0150823835 0.0030858247 -0.011505697 0.011239405 -0.0031066432 0.010274548 0.005744158
-0.0013964196 -0.009160598 0.009423336 -0.024854276 -0.0070617655 0.010187355 -0.001347031 -0.022239013
-0.02115667 0.015142712 -0.01145591 0.008294931 0.0013206373 0.014658435 0.0067315423 -0.006162378
0.00011296033 -0.002432639 0.00022636769 0.030012546 -0.0021684298 -0.0048316177 0.0017122632 -0.008901752
-0.015103872 -0.0031216545 0.008386928 -0.018049257 -0.02414868 0.008151042 -0.011838539 0.0041168407
-0.0036466036 -0.011528832 -0.0019447376 0.009899308 0.016090682 -0.012303554 0.012314451 -0.02031789
-0.0017723622 0.008104463 -0.0050217193 0.0015588703 -0.0028121704 -0.00027675147 -4.4146214e-05 -0.01700352
-0.0001446882 0.0018798115 0.0095114065 0.0018031632 -0.00171921 0.010250772 -0.015191437 0.0030564559
0.003052007 -0.008612751 0.0018854203 0.0096653085 0.003735451 0.00065648835 0.0049060807 -0.016592298
0.016446074 -0.009361251 -0.020119201 0.0058845114 -0.004585864 -0.013610357 -0.007413576 7.9536374e-05
0.0022575567 0.0063099912 -0.007550196 0.0013467649 -0.008414434 0.0027090835 -0.006213143 0.010611541
-0.0073547633 0.012548075 0.025039988 0.00074079103 -0.0018624827 -0.0036618619 0.010174165 -0.0044547613
-0.007808621 0.0010277297 0.01635011 -0.0059304186 -0.01727624 -0.005522267 -0.0009960824 0.0045205564
0.0038541816 0.000646245 -0.00045355645 0.00054824166 -0.0011704584 2.6973397e-05 0.020926444 0.007306351
-0.011174655 0.007192414 -0.0070464634 -0.0008094499 -0.012671528 0.014725602 -0.011995055 -0.0003368722
-0.006015741 -0.012128272 -0.004189356 -0.013126462 -0.0005379557 -0.023627007 -0.00605015 0.030150618
-0.011158437 -0.010225796 -0.007024529 0.0066815214 -0.0008440638 -0.010000053 -0.006768378 -0.015669122
-0.005331929 -0.011702195 -0.0006319304 0.021146422 -0.0037808567 -0.00066819205 -0.0075984797 0.018040374
-0.0094888145 0.0024160522 0.00038130354 -0.00010563537 0.0056699994 0.0055817207 0.005841341 0.0022960661
-0.0051762112 -0.008081738 -0.0014820591 -0.0073911306 0.013608343 0.017180057 -0.010380135 0.0048604864
-0.006106164 -0.0076246266 -0.006827375 0.011941123 0.019685837 -0.0032299904 -0.0066081434 0.0016663561
0.019120995 0.030119201 -0.012957298 -0.016628131 0.002962005 -0.01132637 0.007670799 0.0084735975
0.012597191 0.010748235 0.0028275668 -0.014672404 0.0059052967 -0.006702732 -0.017551515 0.010705754
-0.0056883036 0.0031888515 0.022172863 0.005377678 -0.0058006733 -0.014812988 0.01136636 0.012316512
-0.0033768592 -0.0019969887 0.010689114 0.0022491575 0.007796769 0.014882642 0.0051044906 0.0019387108
-1.2841795e-05 0.00907098 0.0018858766 -0.0028298842 -0.017523509 0.002929936 0.0030064366 0.0020200901
0.008637437 -0.0089198435 -0.014520892 0.0028071664 -0.009961702 0.011313553 0.00030113917 0.014903306
-0.02602399 0.008723442 -0.013874796 0.0033568211 -0.006982157 -0.008282879 -0.013122589 0.0008242982
-0.0065477355 0.002668251 0.008330804 0.0010901112 0.012163491 -0.015897281 -0.015490541 -0.0077416934

action_model._discrete_distribution.branches.2.bias f4 [2]
00000000: 86c5 883a 9cc5 88ba
0.0010434843 -0.0010434869
