Assets/Models/Zombie.onnx (onnx, 96046 bytes, 13 tensors)

action_model._discrete_distribution.branches.0.bias f4 [3]
-0.008490177 0.0018577876 0.0065415394
00000000: 621a 0bbc 0281 f33a 695a d63b

action_model._discrete_distribution.branches.0.weight f4 [3, 128]
-0.0026057535 -0.009524699 0.0035116419 -0.0064902054 -0.00844255 -0.022716597 -0.0040390985 0.009351422
-0.0038392679 -0.010616818 -0.0030027966 0.016867874 -0.016295262 0.010038808 -0.019431941 0.008350849
-0.020357395 0.0011990572 -0.0045937295 -0.026493968 -0.0032310053 0.0008835691 0.004010533 -0.01653755
0.0030874885 0.001736514 -0.018826189 0.010373402 0.012979211 0.009655537 0.013103553 0.015456184
-0.009158227 -0.016136177 -0.0063069696 -0.0019426506 -0.007941136 -0.008229184 0.0054530846 -0.010388805
-0.005294005 0.0031110921 0.0005187994 -0.0026318925 -0.007384965 -0.008154196 0.0031306532 -0.014694001
-0.029552886 0.014448848 0.0061376733 0.013159814 -0.0013953826 -0.0032261931 -0.004329431 -0.001496611
-0.0136461025 -0.009336797 -0.006526807 -0.010235957 -0.0026592622 -0.010245953 -0.0117913615 -0.0044268826
-0.00039104943 0.003715317 -0.0027497981 -0.00048078998 -0.011776893 0.0014407167 -0.001743644 0.0069015916
0.000214509 -0.0068451045 -0.019670647 -0.017258555 0.016537957 0.0038242904 -0.005882852 0.0127285365
0.0077068578 -0.013714291 -0.0069895177 -0.008100541 0.014094636 -0.0022216607 -0.008576629 0.022779128
-0.00097165065 -0.0012862971 -0.0032343436 0.0022835596 8.117474e-05 0.0010972373 -0.0064975866 -0.0014616122
-0.0060320003 -0.013519005 0.022178985 -0.010000638 -0.013160855 -0.0055441135 0.001840853 -0.0047595594
-0.010655703 -0.0054632216 0.009426796 0.017321518 -5.0427036e-05 -0.011411567 0.016460737 0.009577488
-0.0036388056 -0.01568825 -0.010947308 0.008949761 0.013009719 -0.0051566223 0.0017807039 -0.0052398224
-0.015951917 -0.0039464654 0.0061762873 0.017525522 -0.01674513 -0.003994334 -0.0073085707 -0.0011565838
-0.009499814 0.095301025 0.0461722 0.04472379 -0.03448423 -0.05656645 -0.008165038 -0.023810772
0.06495262 -0.0012581411 0.034692813 0.010459463 0.041899435 0.0014549737 0.03100096 0.028917842
0.006569143 0.0049252487 -0.007640644 0.03247744 -0.0017356888 -0.045377564 -0.046734538 0.07546491
0.037027705 -0.016324772 0.010997159 -0.043968335 -0.030936956 -0.0099458145 -0.035196714 0.025385464
0.009057839 -0.096000865 -0.02731863 0.082619205 0.023135966 0.046023406 0.06392759 -0.0047271815
0.025445964 -0.065467566 -0.04848128 0.036510333 0.024743788 0.018463751 -0.058180165 -0.034029257
-0.055302676 -0.04677519 0.01857207 -0.0464563 0.013760905 -0.047587503 -0.060611576 0.038267214
-0.018748913 0.037284315 -0.022046138 -0.06477395 -0.00313222 -0.017427877 0.073675595 0.022618214
0.058186047 0.040995702 0.006969513 0.004985947 0.012209514 0.023461528 -0.031104872 -0.056006465
0.070713736 -0.012493286 0.019067217 0.03443328 -0.024078015 -0.05128111 0.04631256 -0.04138489
0.019241048 0.04993504 -0.0046416717 -0.0152721135 -0.01552231 -0.02403961 0.040477887 0.009710266
-0.032024994 -0.04078136 0.09062296 0.07814976 0.07292887 -0.027082881 0.034047082 -0.05229879
-0.036033645 0.019109929 -0.00016240653 0.06003835 0.016493702 -0.0020537109 0.022786966 0.03472259
-0.015504796 -0.006072011 0.02440891 0.0033009332 0.0011667584 -0.03104104 -1.4292717e-05 -0.023445444
-0.011061842 -0.05396327 -0.07229252 0.024530338 -0.0064853793 0.0068494566 -0.048953343 -0.018732468
0.017473217 -0.08501818 -0.051931843 -0.028417306 0.0366611 -0.054901868 0.005864965 0.017970117
00000000: 4ac5 2abb 7c0d 1cbc 9323 663b caab d4bb
00000010: 9f52 0abc 2818 babc 6a5a 84bb b536 193c
00000020: 3a9c 7bbb 2af2 2dbc 91ca 44bb 7f2e 8a3c
00000030: a47d 85bc d079 243c bc2f 9fbc 00d2 083c
00000040: 8dc4 a6bc af29 9d3a ff86 96bb e109 d9bc
00000050: 46bf 53bb 529f 673a ca6a 833b c279 87bc
00000060: 7657 4a3b be9b e33a 6139 9abc 34f5 293c
00000070: c2a6 543c 4232 1e3c 49b0 563c ef3b 7d3c
00000080: 630c 16bc 0430 84bc b2aa cebb 8aa0 feba
00000090: 8a1b 02bc b3d3 06bc caaf b23b ce35 2abc
000000a0: 5579 adbb 77e3 4b3b 0a00 083a d47b 2cbb
000000b0: 94fd f1bb 2d99 05bc a52b 4d3b 1bbf 70bc
000000c0: e518 f2bc dcba 6c3c 891e c93b 439c 573c
000000d0: 45e5 b6ba 8a6e 53bb e6dd 8dbb ef29 c4ba
000000e0: e793 5fbc 5df9 18bc d3de d5bb b7b4 27bc
000000f0: 0447 2ebb a4de 27bc 8e30 41bc 620f 91bb
00000100: c405 cdb9 ad7c 733b f535 34bb 8a12 fcb9
00000110: dff3 40bc 6ed6 bc3a fc8a e4ba bf26 e23b
00000120: d2ed 6039 e64c e0bb 5624 a1bc d061 8dbc
00000130: 9c7a 873c f2a0 7a3b f0c4 c0bb 5a8b 503c
00000140: cf89 fc3b e8b1 60bc 5308 e5bb 22b8 04bc
00000150: 30ed 663c 4899 11bb fd84 0cbc 4b9b ba3c
00000160: 5fb6 7eba f898 a8ba 48f7 53bb c6a7 153b
00000170: 5b3c aa38 2dd1 8f3a b5e9 d4bb 9193 bfba
00000180: 16a8 c5bb d17e 5dbc b4b0 b53c b7d9 23bc
00000190: a0a0 57bc 65ab b5bb c748 f13a 14f6 9bbb
000001a0: 4295 2ebc d304 b3bb d972 1a3c dbe5 8d3c
000001b0: 9e81 53b8 95f7 3abc abd8 863c e5ea 1c3c
000001c0: 0779 6ebb a584 80bc 565c 33bc 05a2 123c
000001d0: b726 553c e2f8 a8bb 8266 e93a d1b2 abbb
000001e0: 98ad 82bc 5a51 81bb 7462 ca3b af91 8f3c
000001f0: 152d 89bc e7e2 82bb bc7c efbb 8398 97ba
00000200: 1ca5 1bbc 2f2d c33d 101f 3d3d 4b30 373d
00000210: 563f 0dbd 39b2 67bd a7c6 05bc cf0e c3bc
00000220: e105 853d 36e8 a4ba 0d1a 0e3d 2b5e 2b3c
00000230: be9e 2b3d d1b4 be3a baf5 fd3c 1ce5 ec3c
00000240: f741 d73b fb63 a13b 5e5e fabb 1007 053d
00000250: 0d80 e3ba d3dd 39bd b76c 3fbd 598d 9a3d
00000260: 5daa 173d 87bb 85bc 6e2d 343c 2418 34bd
00000270: 806f fdbc c5f3 22bc 6e2a 10bd 2df5 cf3c
00000280: 5567 143c 1a9c c4bd 52cb dfbc 4234 a93d
00000290: a387 bd3c 0a83 3c3d 78ec 823d 79e6 9abb
000002a0: 0e74 d03c dc13 86bd 4f94 46bd dc8b 153d
000002b0: 7cb3 ca3c 4b41 973c 534e 6ebd 4362 0bbd
000002c0: 0f85 62bd 5797 3fbd 7424 983c f648 3ebd
000002d0: 6b75 613c 1deb 42bd d843 78bd 15be 1c3d
000002e0: 5297 99bc 70b7 183d 1a9a b4bc 34a8 84bd
000002f0: ee45 4dbb e8c4 8ebc 3be3 963d d549 b93c
00000300: 7e54 6e3d 1ceb 273d 8360 e43b 2861 a33b
00000310: 6a0a 483c 6432 c03c a5cf febc 0967 65bd
00000320: 5dd2 903d a4b0 4cbc da32 9c3c e909 0d3d
00000330: 423f c5bc 240c 52bd 3db2 3d3d 3483 29bd
00000340: 679f 9d3c af88 4c3d 2a19 98bb e337 7abc
00000350: 4951 7ebc b7ee c4bc 24cc 253d cf17 1f3c
00000360: a42c 03bd 5b0a 27bd 8898 b93d fb0c a03d
00000370: bb5b 953d ebdc ddbc f474 0b3d 4237 56bd
00000380: 0498 13bd 6d8c 9c3c ac4b 2ab9 c6ea 753d
00000390: cd1d 873c 8d97 06bb bbab ba3c 4639 0e3d
000003a0: d407 7ebc b8f7 c6bb 32f5 c73c 7854 583b
000003b0: eaed 983a c749 febc c1ca 6fb7 a910 c0bc
000003c0: ba3c 35bc 9708 5dbd 1a0e 94bd d9f3 c83c
000003d0: 4e83 d4bb 6871 e03b 4d83 48bd d574 99bc
000003e0: fe23 8f3c 031e aebd 7cb6 54bd 69cb e8bc
000003f0: f329 163d c8e0 60bd e42e c03b 1136 933c

action_model._discrete_distribution.branches.1.bias f4 [3]
-0.011303669 -0.00035504016 0.011650223
00000000: 0633 39bc af24 bab9 94e0 3e3c

action_model._discrete_distribution.branches.1.weight f4 [3, 128]
-0.0022360825 0.010036437 0.010576557 0.0021427013 -0.014820281 0.006039814 0.012263752 -0.009506822
-0.032137047 0.00030627867 -0.008565365 -0.0033248346 0.0047930717 0.020733962 0.014954524 0.020341128
-0.007819143 0.031924464 0.012250664 -0.004003571 0.0073244846 -0.0008010905 -0.0015943223 -0.0015980114
0.004835768 -0.018520344 0.020448605 -0.0005870906 0.040349904 -0.019276658 -0.007281872 0.0007783836
-0.032638963 -0.004798296 0.008804651 0.0053892224 0.0043644533 -0.0061938334 -0.013717537 0.011083621
-0.014160322 0.0006037413 -0.016288169 -0.0067089885 -0.018462332 -0.02515012 -0.010774705 -0.0054188534
-0.01544199 -0.0017565513 -0.0019376265 -0.0006894249 0.00068053463 -0.011054516 0.019265573 -0.005009731
0.0072717965 -0.021707498 -0.019197997 0.0019692604 0.016240232 0.018022805 -0.0023099487 0.0126164
-0.0052785273 -0.01150978 -0.021267239 0.0054960274 0.0075948783 -0.0025486434 8.66474e-05 0.014307677
0.009758015 0.027308844 -0.004366249 0.013948247 0.0029535792 0.0051874854 0.00029823987 -0.028057985
0.00405242 0.0012602881 -0.0020580296 0.009202508 -0.0050439434 0.00046024914 -0.01919501 -0.007553625
-0.017734513 -0.0044246204 -0.0041129547 0.010535048 -0.0141677605 -0.0043082424 -0.0027975142 -0.003665467
-0.029247234 -0.004652776 0.004443924 0.015489517 0.008717076 -0.009309109 -0.0038729343 -0.0054592686
-0.011608297 -0.01422418 -0.00426804 0.036464028 0.001732094 0.0031302508 0.020391557 0.0033119402
0.0026700776 -0.0117151765 -0.0015143234 -0.01768642 -0.018657248 0.007934188 -0.0038054974 0.006946629
0.0010096298 0.01582322 -0.0044617373 0.01041985 -0.001826562 0.0070294198 -0.010730473 -0.004670998
-0.0429905 -0.019020434 -0.05390133 -0.033899423 0.04068403 -0.067360625 0.016729567 0.034088477
0.062044036 0.06722925 -0.061546642 0.013198905 -0.016974743 0.010284969 -0.049146205 0.054917067
-0.056616653 -0.009823525 -0.0009364272 0.038445797 0.053814042 -0.045948405 -0.031775147 -0.027994096
0.0084952945 0.045857124 0.051589455 -0.006039399 0.023293598 0.0547467 -0.034542583 -0.045072272
-0.06356645 -0.036168035 0.00092503947 0.016200572 0.0016949599 -0.05362183 -0.036194656 -0.006575762
0.037085645 0.043229148 0.004555019 -0.060942255 -0.06253495 -0.054244567 -0.02968468 0.010155175
0.056503754 -0.06120487 0.075990155 0.016409505 0.057551645 0.03754885 0.01738546 0.029258708
-0.06585286 -0.089863256 0.06966362 0.04968929 0.004372573 -0.030027479 -0.040555112 0.0012771003
-0.06810646 -0.0046220315 -0.057545517 0.022103097 0.011388337 0.04614068 -0.036300436 -0.002359976
-0.032305147 0.027297484 -0.06962178 -0.014804463 0.02244565 0.008065653 0.045075297 -0.033571854
-0.04694935 -0.008099519 -0.055480503 -0.05390873 0.057738747 -0.0014298592 0.050383296 0.07247008
-0.02856332 -0.022433938 0.005862631 0.005515718 0.030037763 0.029617527 0.03245872 -0.056369346
-0.026646279 -0.03852794 0.030452708 0.04240816 -0.038572405 0.05803208 0.06833844 0.068084046
0.04844504 0.064511515 -0.025086703 -0.0059897965 -0.03278666 0.011045596 -0.0042251544 0.012308773
-0.0036086317 0.08136171 0.004838659 0.021691406 0.015879827 0.012705353 0.020187806 -0.059418138
-0.073722236 -0.0591545 0.034702666 0.044449825 -0.0008991039 0.028636973 -0.028281612 0.0422329
00000000: 3d8b 12bb de6f 243c 4c49 2d3c 906c 0c3b
00000010: c4d0 72bc a2e9 c53b e7ed 483c 80c2 1bbc
00000020: 23a2 03bd 0794 a039 bf55 0cbc 78e5 59bb
00000030: 330f 9d3b 45da a93c d203 753c 70a2 a63c
00000040: dd1b 00bc 3ac3 023d 02b7 483c 6330 83bb
00000050: 3b02 f03b 4600 52ba 94f8 d0ba 5d74 d1ba
00000060: 5d75 9e3b fab7 97bc d583 a73c fce6 19ba
00000070: f145 253d 15ea 9dbc c59c eebb 700c 4c3a
00000080: 6fb0 05bd 063b 9dbb 6241 103c 1398 b03b
00000090: b003 8f3b a4f5 cabb 85bf 60bc 1398 353c
000000a0: b200 68bc 6544 1e3a c46e 85bc 13d7 dbbb
000000b0: 513e 97bc a007 cebc 6388 30bc a390 b1bb
000000c0: 6700 7dbc 153c e6ba f5f7 fdba 86ba 34ba
000000d0: e865 323a 001e 35bc d6d2 9d3c ab28 a4bb
000000e0: 4048 ee3b ecd3 b1bc 1e45 9dbc b50e 013b
000000f0: 3c0a 853c 90a4 933c 8262 17bb 04b5 4e3c
00000100: 7ff7 acbb 8493 3cbc a238 aebc 0518 b43b
00000110: 75de f83b 2407 27bb 78b6 b538 bf6a 6a3c
00000120: 15e0 1f3c ccb6 df3c c012 8fbb 3087 643c
00000130: d690 413b c8fb a93b 145d 9c39 dcd9 e5bc
00000140: 2aca 843b 4030 a53a 02e0 06bb 1ec6 163c
00000150: aa47 a5bb 984d f139 db3e 9dbc 6684 f7bb
00000160: f847 91bc 68fc 90bb f7c5 86bb 329b 2c3c
00000170: e51f 68bc 282c 8dbb 8056 37bb 5538 70bb
00000180: e597 efbc 5076 98bb 569e 913b bec7 7d3c
00000190: 11d2 0e3c 3c85 18bc 0ed1 7dbb aae3 b2bb
000001a0: ba30 3ebc 890c 69bc eada 8bbb 4e5b 153d
000001b0: 6e07 e33a e524 4d3b 320c a73c 230d 593b
000001c0: 78fc 2e3b 03f1 3fbc 437c c6ba 1ce3 90bc
000001d0: 16d7 98bc 65fe 013c a765 79bb 8ca0 e33b
000001e0: 8e55 843a b39f 813c c433 92bb 05b8 2a3c
000001f0: 4069 efba 0c57 e63b dece 2fbc 2c0f 99bb
00000200: ce16 30bd bed0 9bbc a4c7 5cbd 1fda 0abd
00000210: 4ca4 263d 5ef4 89bd 720c 893c 5ca0 0b3d
00000220: e321 7e3d 7daf 893d 5518 7cbd 3840 583c
00000230: 9e0e 8bbc 4982 283c 884d 49bd b8f0 603d
00000240: dde6 67bd daf2 20bc 917a 75ba 5779 1d3d
00000250: 1d6c 5c3d 6534 3cbd a826 02bd e053 e5bc
00000260: d92f 0b3c aed4 3b3d 774f 533d 27e6 c5bb
00000270: 37d2 be3c 133e 603d 867c 0dbd b49d 38bd
00000280: 202f 82bd ef24 14bd 597e 723a 10b7 843c
00000290: 6b29 de3a 90a2 5bbd d940 14bd 7d79 d7bb
000002a0: 1ee7 173d 0c11 313d 4542 953b 969e 79bd
000002b0: 5312 80bd 8d2f 5ebd 492d f3bc e461 263c
000002c0: 7b70 673d f5b1 7abd baa0 9b3d 3a6d 863c
000002d0: 46bb 6b3d d3cc 193d f46b 8e3c f5af ef3c
000002e0: dddd 86bd 3a0a b8bd cdab 8e3d ff86 4b3d
000002f0: cd47 8f3b 30fc f5bc 1e1d 26bd 6064 a73a
00000300: 667b 8bbd 6974 97bb d9b4 6bbd 8e11 b53c
00000310: 2696 3a3c 02fe 3c3d c4af 14bd d4a9 1abb
00000320: 6752 04bd f99e df3c dd95 8ebd 6b8e 72bc
00000330: f1df b73c cd25 043c e0a0 383d a482 09bd
00000340: f64d 40bd d8b3 04bc 863f 63bd 67cf 5cbd
00000350: 777f 6c3d 1d6a bbba b75e 4e3d 316b 943d
00000360: a0fd e9bc 61c7 b7bc 501b c03b 32bd b43b
00000370: c111 f63c 75a0 f23c 6ff3 043d 8be3 66bd
00000380: 4c49 dabc 79cf 1dbd f577 f93c 2eb4 2d3d
00000390: 19fe 1dbd 0cb3 6d3d 06f5 8b3d a66f 8b3d
000003a0: 4e6e 463d 9d1e 843d a182 cdbc 0e46 c4bb
000003b0: 4e4b 06bd 96f8 343c 2a73 8abb bcaa 493c
000003c0: cb7e 6cbb f8a0 a63d 9d8d 9e3b 2db2 b13c
000003d0: 6916 823c 1d2a 503c e660 a53c 6f60 73bd
000003e0: affb 96bd fd4b 72bd 6224 0e3d 0511 363d
000003f0: d7b1 6bba 1698 ea3c d7ae e7bc 68fc 2c3d

action_model._discrete_distribution.branches.2.bias f4 [2]
-0.036658123 0.03665812
00000000: d426 16bd d326 163d

action_model._discrete_distribution.branches.2.weight f4 [2, 128]
-0.020982718 -0.008517389 -0.024643091 -0.025888119 -0.0011094942 -0.0027491369 -0.041570723 -0.022486504
-1.6350376e-05 -0.028890848 -0.030402154 0.031328507 -0.008081113 0.028835502 -0.002810812 0.02237126
-0.012578139 0.04628039 0.059096497 -0.034859873 -0.025687361 -0.000101824946 -0.0336167 -0.00041736016
-0.028548826 0.009718831 -0.0135224005 -0.034587424 0.017640147 0.015243888 -0.039109882 0.023061369
-0.015938848 -0.00853814 -0.026359504 -0.015699843 -0.01764352 0.004446919 0.002228218 -0.028361436
0.035442628 0.008409811 -0.0095785735 -0.018904801 -0.0024644497 -0.00480891 -0.02772435 -0.01241259
-0.009066735 -0.0077886516 -0.0013235045 -0.013452684 0.010352334 -0.02323833 -0.030096997 0.0123953
-0.03181612 -0.010443147 -0.007993851 -0.011980991 0.035769742 -0.03284667 -0.010185334 -0.03721446
-0.025298914 0.01514215 -0.016666258 -0.032872364 -0.010486016 -0.008149453 -0.025450004 -0.017411802
-0.033705022 0.016084125 -0.014451704 0.0006543563 -0.011114593 -0.012040362 -0.020676466 -0.009896774
-0.032592583 -0.026900688 -0.013147048 -0.031061107 0.0161048 0.02918993 -0.024605019 -0.0012718507
-0.03040559 -0.027283845 -0.011720432 -0.0035029987 6.181371e-05 0.044407364 -0.020491969 -0.03344184
-0.022580914 -0.015431092 0.021294193 -0.014408078 -0.03584935 0.021258209 -0.0017205292 -0.009738637
-0.01633224 -0.0055500073 -0.02811365 0.03572836 -0.041292004 -0.029820023 0.028721793 -0.016982045
-0.023578985 -0.008232386 0.0011500451 -0.019545149 -0.023829883 0.04085783 -0.019233985 -0.03312492
-0.036860786 0.0039379518 -0.030981354 0.009084682 -0.026796525 -0.013643705 -0.031484764 0.01479151
-0.0049319495 0.011731291 0.034484345 0.01436777 -0.008831955 0.032230172 0.031746022 0.028646976
0.0017948153 -0.002847014 0.03212223 -0.02062816 0.00867016 -0.04847101 0.024362125 -0.017608736
0.016992014 -0.027609652 -0.03805161 0.012292256 0.021378025 0.0027943295 0.027697647 -0.018899376
0.019863296 0.0026134863 0.004260217 0.0327955 -0.016510839 -0.010240178 0.017331077 -0.02144391
0.012773188 0.0077574505 0.018412532 0.01350054 0.019619474 -0.0005242278 -0.016354345 0.01170888
-0.00043022758 0.009816871 0.021507917 0.026593404 0.007629278 0.013350725 0.031768017 0.013946607
0.012684744 0.016229728 0.0014299509 0.014953587 -0.016745297 0.0091027245 0.03195356 0.009996013
0.02160306 0.0077431565 0.00497261 0.020850332 -0.033936147 0.020352297 0.02182368 0.028594477
0.026324948 -0.028127395 0.03136224 0.021824542 0.036372423 0.020260867 0.018874798 0.026883641
0.01076964 -0.012606379 0.016612869 -0.005832017 0.020776687 -0.0030657696 0.003860622 -0.00017781713
0.022770233 0.022284513 0.019067146 0.021130595 -0.016443541 -0.020661239 0.027350487 0.018772008
0.023292966 0.01848233 0.012250039 0.016572105 0.00041369424 -0.040197127 0.01201857 0.02227713
0.028424606 0.042583868 -0.030840326 0.027523583 0.028994856 -0.0052432735 0.015141617 0.008778159
0.026212897 0.020136187 0.032511055 -0.032995507 0.009210464 0.021117473 -0.039582342 0.010075234
0.03780608 0.01063553 0.015109802 0.026358591 0.024174593 -0.023791693 0.008973321 0.029703075
0.022984428 0.024953445 0.013455501 -0.015980266 0.026666896 0.04024403 0.012163874 -0.02232786
00000000: f3e3 abbc 858c 0bbc 4fe0 c9bc 5213 d4bc
00000010: 736c 91ba dd2a 34bb 1046 2abd 9e35 b8bc
00000020: 2a28 89b7 80ac ecbc f00d f9bc 5252 003d
00000030: a566 04bc 6e38 ec3c 9a35 38bb ef43 b73c
00000040: 8a14 4ebc 8290 3d3d 2b0f 723d 3ac9 0ebd
00000050: 4d6e d2bc da8a d5b8 aab1 09bd 22d1 dab9
00000060: 3adf e9bc bb3b 1f3c 0f8d 5dbc 8bab 0dbd
00000070: 1282 903c 80c1 793c af31 20bd 32eb bc3c
00000080: 3092 82bc 8ee3 0bbc e3ef d7bc f59c 80bc
00000090: 2589 90bc 76b7 913b 4b07 123b 3e56 e8bc
000000a0: 4a2c 113d 4ec9 093c 73ef 1cbc 3ede 9abc
000000b0: 9b82 21bb 1094 9dbb 2d1e e3bc 2d5e 4bbc
000000c0: a58c 14bc f237 ffbb 7179 adba a568 5cbc
000000d0: d69c 293c 4f5e bebc fa8d f6bc a815 4b3c
000000e0: 9f51 02bd bc19 2bbc a4f8 02bc eb4b 44bc
000000f0: 4b83 123d 3b8a 06bd 63e0 26bc 316e 18bd
00000100: ab3f cfbc c816 783c ad87 88bc 2ca5 06bd
00000110: 8acd 2bbc 4985 05bc 877c d0bc 32a3 8ebc
00000120: 470e 0abd dbc2 833c d7c6 6cbc 1c89 2b3a
00000130: fb19 36bc f044 45bc b161 a9bc 1426 22bc
00000140: cd7f 05bd d55e dcbc b766 57bc dd73 febc
00000150: 37ee 833c b81f ef3c 7790 c9bc 3ab4 a6ba
00000160: 2515 f9bc 5f82 dfbc 0e07 40bc 9192 65bb
00000170: fca1 8138 7fe4 353d c6de a7bc 50fa 08bd
00000180: 9cfb b8bc b1d2 7cbc 2971 ae3c dc0f 6cbc
00000190: c5d6 12bd b225 ae3c 6183 e1ba ce8e 1fbc
000001a0: 31cb 85bc d6dc b5bb 994e e6bc e757 123d
000001b0: ce21 29bd 1f49 f4bc f749 eb3c ee1d 8bbc
000001c0: b728 c1bc 21e1 06bc 1cbd 963a 261d a0bc
000001d0: e336 c3bc 8a5a 273d 9790 9dbc ffad 07bd
000001e0: 56fb 16bd ef09 813b 9ccc fdbc ebd7 143c
000001f0: 6384 dbbc d989 5fbc 2bf6 00bd 1758 723c
00000200: 319c a1bb 9a34 403c 753f 0d3d cc66 6b3c
00000210: e7b3 10bc c903 043d 1e08 023d 10ad ea3c
00000220: 0240 eb3a f894 3abb 9992 033d 63fc a8bc
00000230: 490d 0e3c 8a89 46bd 1493 c73c 3240 90bc
00000240: d632 8b3c a32d e2bc 01dc 1bbd 7565 493c
00000250: f820 af3c 1221 373b 2de6 e23c ddd2 9abc
00000260: 5ab8 a23c 0647 2b3b 4a99 8b3b 9354 063d
00000270: bd41 87bc 6bc6 27bc e7f9 8d3c 24ab afbc
00000280: a246 513c 3632 fe3b e1d5 963c 5e31 5d3c
00000290: 05b9 a03c 556c 09ba 8cf9 85bc 9ad6 3f3c
000002a0: 2b90 e1b9 f1d6 203c 5f31 b03c 69da d93c
000002b0: 06ff f93b 00bd 5a3c 2e1f 023d 4f80 643c
000002c0: acd3 4f3c 35f4 843c 316d bb3a e4ff 743c
000002d0: 6f2d 89bc 9823 153c bce1 023d 51c6 233c
000002e0: e7f8 b03c 4eba fd3b 47f1 a23b 51ce aa3c
000002f0: a100 0bbd dcb9 a63c 93c7 b23c f73e ea3c
00000300: 6ba7 d73c 6c6b e6bc b175 003d 62c9 b23c
00000310: 40fb 143d 1efa a53c 529f 9a3c 153b dc3c
00000320: 2573 303c fc8a 4ebc b617 883c 811a bfbb
00000330: df33 aa3c 14eb 48bb 7d02 7d3b 6c74 3ab9
00000340: a488 ba3c 038e b63c b432 9c3c 121a ad3c
00000350: 9bb4 86bc c241 a9bc 210e e03c c1c7 993c
00000360: e4d0 be3c 4168 973c 63b4 483c 39c2 873c
00000370: 1ae5 d839 bea5 24bd 89e9 443c 877e b63c
00000380: b8da e83c 6c6c 2e3d daa4 fcbc 2379 e13c
00000390: 9f86 ed3c c4cf abbb 8b14 783c 44d2 0f3c
000003a0: 6ebc d63c a5f4 a43c 502a 053d 4c26 07bd
000003b0: 7ce7 163c 8dfe ac3c 1821 22bd 9812 253c
000003c0: 8cda 1a3d a540 2e3c 1a8f 773c f9ed d73c
000003d0: cc09 c63c cce6 c2bc d604 133c dd53 f33c
000003e0: d749 bc3c 2b6b cc3c 7674 5c3c 0ce9 82bc
000003f0: 8974 da3c edd6 243d fc4a 473c ebe8 b6bc

action_model._discrete_distribution.branches.3.bias f4 [2]
0.023197904 -0.023197904
00000000: 8809 be3c 8809 bebc

action_model._discrete_distribution.branches.3.weight f4 [2, 128]
0.0076484913 0.036028676 0.013518322 0.014244179 0.034748975 0.02133434 0.009162725 0.019010376
0.011372542 0.028085627 0.008454654 -0.011774988 0.03721357 -0.021479944 0.006028205 0.019705588
-0.0015949024 -0.023392683 -0.01827672 0.02129552 0.011309508 0.029934214 0.027725216 0.024259796
0.040397353 -0.0024745958 0.0042779925 0.017701166 -0.034753826 0.017404536 0.010280905 0.0013238929
0.021019703 0.037102032 0.012582476 0.01530494 0.03020113 0.031610988 0.022484139 0.008046369
0.03595778 0.0041232686 0.021291666 -0.0034668164 0.016930355 0.012945389 0.010819519 0.01496673
0.006642255 0.019194907 0.023953693 0.033759717 0.012559785 0.003660487 0.0085312845 0.022902153
0.008431115 0.017468445 0.017073302 0.014262976 -0.024682712 0.0026475303 0.030320931 0.016664868
0.0074966564 0.007829618 0.016098995 0.010431744 0.010958017 0.015211317 0.013035401 0.00816768
0.008604596 -0.02284662 0.017519718 0.012043548 0.008698989 0.0035121155 0.01288087 0.024793115
0.006640912 0.026260797 0.027049208 0.0183763 -0.012206389 -0.030945074 0.007486499 0.026814563
0.016341783 0.00777908 -0.0011329737 0.03487563 0.042734608 -0.018934282 0.0027643484 0.01773058
0.017933607 0.020375706 -0.028004646 0.019550176 0.014412804 0.015626837 0.017094199 0.02512165
0.03909933 0.022472948 0.014824362 -0.02424112 0.004352961 0.009192183 -0.0148737915 0.0073048514
0.019634888 0.02652792 0.022530224 0.023746386 0.008279765 -0.026697338 -0.0017971009 0.0048080077
0.02733757 0.020586638 0.01696709 0.0074003995 0.019959884 0.0082428325 0.023971586 0.014133545
-0.011998618 -0.03338558 -0.002163466 -0.023337092 -0.024373487 -0.0070301127 -0.009359776 -0.012795851
-0.030728294 -0.020114088 0.0004910506 -0.004997892 -0.035583355 0.023498468 0.014609742 -0.0111647155
-0.0016368122 0.029921476 0.021661803 -0.027518393 -0.020162174 -0.044043805 -0.00024237756 -0.032767933
-0.014770265 0.0077635553 -0.02892104 -0.01527224 0.009760218 -0.020099722 -0.005772347 -0.00140731
-0.016985487 -0.02476413 -0.013372077 -0.01459061 -0.02807133 -0.017234417 -0.024344498 -0.012796386
-0.039517764 -0.015159608 -0.016049491 -0.0015262093 -0.018567555 -0.010636229 -0.015435685 -0.0078043533
-0.024049668 -0.029871214 -0.022405801 -0.036393803 -0.028042382 -0.0002013123 -0.018129503 -0.025729511
-0.004146853 -0.0030223723 -0.015106735 -0.0026132897 0.030088283 -0.0028239798 -0.03644885 -0.02010606
-0.010651812 -0.008494188 -0.034125566 -0.013540697 -0.009122365 -0.003174572 0.0018587086 -0.029174626
0.0046153376 0.00059302 -0.01375914 -0.02466653 0.0046246946 -0.0156472 -0.0067594973 -0.022532627
-0.012987554 -0.0014904876 -0.037668165 -0.00354518 0.0030261753 0.036272056 -0.0022690208 -0.016723072
-0.027816134 -0.025112843 -0.0050233486 -0.013988565 -0.03209903 0.010472548 -0.0042090574 -0.020269966
-0.015192096 -0.036225773 0.025324462 -0.029307703 -0.012477986 -0.013351292 -0.026207898 -0.042383287
-0.025144737 -0.011883626 -0.023749826 0.022329666 -0.017559806 -0.0274077 0.012971952 -0.014268919
-0.04548699 -0.018577436 -0.007106302 -0.021308854 -0.0222174 0.021831682 0.006390332 -0.017145095
-0.026927616 -0.0064998954 -0.016823739 -0.005173146 0.0024012574 -0.013994169 -0.012800227 -0.019211054
00000000: 32a0 fa3b ce92 133d f47b 5d3c 6b60 693c
00000010: f154 0e3d 5bc5 ae3c 411f 163c a6bb 9b3c
00000020: e653 3a3c d413 e63c 6485 0a3c e1eb 40bc
00000030: 426d 183d b5f6 afbc 4088 c53b 9d6d a13c
00000040: 0b0c d1ba 03a2 bfbc 0fb9 95bc f173 ae3c
00000050: 844b 393c 9938 f53c fe1f e33c 7bbc c63c
00000060: b277 253d d42c 22bb 672e 8c3b 0902 913c
00000070: 075a 0ebd f593 8e3c 3e71 283c 7986 ad3a
00000080: 8331 ac3c 4df8 173d bb26 4e3c 92c1 7a3c
00000090: 5c68 f73c 867a 013d a830 b83c ebd4 033c
000000a0: 7748 133d 7c1c 873b dc6b ae3c 8733 63bb
000000b0: 87b1 8a3c e618 543c 5a44 313c 0437 753c
000000c0: 46a7 d93b a33e 9d3c 893a c43c a147 0a3d
000000d0: 8ec7 4d3c c8e4 6f3b cdc6 0b3c 4c9d bb3c
000000e0: a922 0a3c fc19 8f3c 4fdd 8b3c 42af 693c
000000f0: 6633 cabc 3082 2d3b 9a63 f83c c384 883c
00000100: 83a6 f53b cc47 003c 0ae2 833c e8e9 2a3c
00000110: 4189 333c e338 793c 6f92 553c bcd1 053c
00000120: 4bfa 0c3c d628 bbbc 8385 8f3c 4d52 453c
00000130: 3486 0e3c 852b 663b 490a 533c ee1a cb3c
00000140: 029c d93b e220 d73c 4d96 dd3c e589 963c
00000150: 4efd 47bc 8680 fdbc 4e51 f53b 37aa db3c
00000160: 34df 853c a7e7 fe3b 4a80 94ba c0d9 0e3d
00000170: 7c0a 2f3d 111c 9bbc 122a 353b b93f 913c
00000180: 80e9 923c f4ea a63c 006a e5bc b127 a03c
00000190: ae23 6c3c da03 803c 2209 8c3c ebcb cd3c
000001a0: 9e26 203d 3019 b83c e1e1 723c 5095 c6bc
000001b0: 49a3 8e3b cf9a 163c 34b1 73bc 895d ef3b
000001c0: 58d9 a03c 1551 d93c 4e91 b83c c887 c23c
000001d0: daa7 073c 60b4 dabc b38c ebba 7e8c 9d3b
000001e0: 0af3 df3c 4fa5 a83c 91fe 8a3c 0d7f f23b
000001f0: e982 a33c f20c 073c 0f60 c43c 6290 673c
00000200: da95 44bc 51bf 08bd f0c8 0dbb 6e2d bfbc
00000210: e8aa c7bc dc5c e6bb bf59 19bc b0a5 51bc
00000220: e7b9 fbbc 4dc6 a4bc d9b9 003a 5bc5 a3bb
00000230: dabf 11bd dc7f c03c b35d 6f3c 36ec 36bc
00000240: 4e8a d6ba e21d f53c 1874 b13c 416e e1bc
00000250: 252b a5bc 4767 34bd bb26 7eb9 ab37 06bd
00000260: fbfe 71bc 6c65 fe3b d1eb ecbc 6b38 7abc
00000270: 52e9 1f3c 2ca8 a4bc f525 bdbb 7d75 b8ba
00000280: 2625 8bbc 25de cabc 8e16 5bbc 740d 6fbc
00000290: d9f5 e5bc 312f 8dbc 1d6e c7bc efa7 51bc
000002a0: 61dd 21bd 0160 78bc 397a 83bc 160b c8ba
000002b0: fc1a 98bc 9443 2ebc f5e5 7cbc a9bb ffbb
000002c0: cf03 c5bc 7ab4 f4bc 5f8c b7bc ab11 15bd
000002d0: 23b9 e5bc 5c17 53b9 5384 94bc b2c6 d2bc
000002e0: 53e2 87bb fe12 46bb 3d82 77bc ba43 2bbb
000002f0: b47b f63c 8512 39bb 644b 15bd 77b5 a4bc
00000300: f084 2ebc 352b 0bbc 40c7 0bbd cdd9 5dbc
00000310: f975 15bc 7b0c 50bb e99f f33a a0ff eebc
00000320: 423c 973b e674 1b3a 046e 61bc 7611 cabc
00000330: c08a 973b 8f2e 80bc c67e ddbb 5896 b8bc
00000340: c0c9 54bc 775c c3ba ef49 1abd 4056 68bb
00000350: cc52 463b 0292 143d dab3 14bb d3fe 88bc
00000360: a9de e3bc 73b9 cdbc e79a a4bb 4b30 65bc
00000370: 467a 03bd 0d95 2b3c 22ec 89bb 330d a6bc
00000380: 45e8 78bc 7a61 14bd 3f75 cf3c b516 f0bc
00000390: 7770 4cbc 61bf 5abc f2b1 d6bc 199a 2dbd
000003a0: 56fc cdbc 8ab3 42bc ff8e c2bc b4ec b63c
000003b0: 95d9 8fbc 1d86 e0bc 4f88 543c 2fc8 69bc
000003c0: 9150 3abd b52f 98bc fbdb e8bb e88f aebc
000003d0: 4401 b6bc 5bd8 b23c fd65 d13b df73 8cbc
000003e0: 4e97 dcbc 13fd d4bb f0d1 89bc 7e83 a9bb
000003f0: 6a5e 1d3b cd47 65bc 0bb8 51bc 8060 9dbc

discrete_action_output_shape f4 [1, 4]
3.0 3.0 2.0 2.0
00000000: 0000 4040 0000 4040 0000 0040 0000 0040

network_body._body_endoder.seq_layers.0.bias f4 [128]
-0.079463474 0.0184273 0.014728379 0.03959239 0.026688786 9.205717e-05 -0.0709886 0.03872844
0.02018987 0.0008596196 0.030291192 -0.04294641 0.025564523 0.046434235 0.044248506 0.036587033
0.046332374 -0.059559565 0.04413493 -0.008124675 0.012383262 -0.0077797254 0.024315644 0.057301193
0.019517982 -0.04507072 0.032510635 0.013730681 0.03742103 -0.058797535 -0.02807557 0.033671618
0.020820126 0.022731382 0.013771039 0.04003067 0.03988144 0.011145312 0.00394853 -0.0009835184
0.05096867 0.03552061 0.028138228 -0.060071163 0.041366663 0.038698185 0.025527772 0.032862797
0.008151143 0.03651312 0.045339927 0.017978504 0.04035686 0.046190746 0.01387808 0.023478089
-0.028031213 0.03356473 0.031893626 0.017929714 0.034669425 -0.018298801 0.04300096 0.030241193
-0.019655997 0.04500203 -0.022850899 0.047049005 0.027855765 0.020708693 -0.006938206 -0.09427553
0.039971374 0.030209716 0.014695342 0.017489374 0.050342135 0.039899584 0.02243404 0.026690692
0.048686493 0.042926166 0.054009978 -0.06811755 0.062755734 0.041349094 0.041432355 -0.060723573
0.045783985 0.012478612 0.037099466 0.04123954 0.011936342 0.036331482 0.03444333 0.038640846
0.03822623 0.029987797 -0.04454018 0.040467974 0.050266128 0.03830784 0.03537264 -0.01540087
0.016238857 0.023868468 -0.0075628627 0.018934174 -0.050313886 -0.0444378 0.050095033 -0.018096723
0.02372413 0.033904117 0.036350172 0.021057345 0.07392681 0.01515918 0.0032001657 0.040860053
0.0032964533 0.00050242146 0.03726492 0.036166348 -0.02507616 0.04395541 0.032700535 0.065416634
00000000: bfbd a2bd d9f4 963c 4d4f 713c a12b 223d
00000010: 71a2 da3c d10e c138 7962 91bd b6a1 1e3d
00000020: 3a65 a53c 1858 613a 3c25 f83c 93e8 2fbd
00000030: b16c d13c d331 3e3d ec3d 353d 49dc 153d
00000040: 04c7 3d3d bbf4 73bd d4c6 343d 5b1d 05bc
00000050: 2ae3 4a3c 11ed febb 9a31 c73c a8b4 6a3d
00000060: 2de4 9f3c 139c 38bd df29 053d a6f6 603c
00000070: cb46 193d afd5 70bd bdfe e5bc 40eb 093d
00000080: f88e aa3c 2a37 ba3c ed9f 613c 33f7 233d
00000090: b95a 233d d49a 363c ac62 813b 67e9 80ba
000000a0: 86c4 503d 0f7e 113d 2482 e63c 2e0d 76bd
000000b0: 1770 293d fd81 1e3d 9e1f d13c 249b 063d
000000c0: 5f8c 053c c88e 153d 5cb6 393d a847 933c
000000d0: 3c4d 253d 8232 3d3d e360 633c 1f55 c03c
000000e0: b7a1 e5bc 2c7b 093d e4a2 023d 56e1 923c
000000f0: 8701 0e3d 5ee7 95bc c621 303d 61bc f73c
00000100: 9d05 a1bc 0c54 383d cf31 bbbc 75b6 403d
00000110: c631 e43c 47a5 a93c e459 e3bb 8713 c1bd
00000120: 06b9 233d 5e7a f73c bbc4 703c e045 8f3c
00000130: 8e33 4e3d bf6d 233d 98c7 b73c 70a6 da3c
00000140: 7d6b 473d 59d3 2f3d 9139 5d3d 3781 8bbd
00000150: 1486 803d ab5d 293d f9b4 293d 48b9 78bd
00000160: fd87 3b3d 1873 4c3c 9cf5 173d cbea 283d
00000170: a690 433c 52d0 143d 7314 0d3d dd45 1e3d
00000180: 1b93 1c3d f8a8 f53c c46f 36bd bfc1 253d
00000190: dbe3 4d3d aee8 1c3d e7e2 103d ee53 7cbc
000001a0: 5a07 853c ce87 c33c e4d1 f7bb d71b 9b3c
000001b0: ef15 4ebd 6904 36bd 7330 4d3d 943f 94bc
000001c0: 1b59 c23c 0bdf 0a3d ebe3 143d 7480 ac3c
000001d0: f066 973d 365e 783c dfb9 513b df5c 273d
000001e0: 4f09 583b efb4 033a 1aa3 183d 2a23 143d
000001f0: 856c cdbc 970a 343d fff0 053d 28f9 853d

network_body._body_endoder.seq_layers.0.weight f4 [128, 38]
0.007275303 -0.1747576 -0.19478382 0.36033058 -0.10548746 0.053361453 0.13650084 0.0042173583
0.038217247 -0.063736685 -0.41554686 -0.037470628 -0.0704975 -0.039293226 -0.19803834 -0.24552715
-0.30324906 0.22326754 0.05207423 -0.54441243 0.0100745475 -0.09327905 -0.37964103 0.11136579
-0.020456675 -0.0038536175 -0.15995799 -0.111662485 -0.1345479 -0.32422075 0.07908198 0.38420838
0.097372845 0.1971388 -0.0038638017 -0.08554732 -0.14427875 0.29767025 0.16146126 0.043764107
0.13372667 -0.12482263 0.28186223 0.15114667 0.21160969 0.081201024 -0.051157575 0.0035250194
0.110593796 0.3276473 -0.02297286 -0.21139579 -0.111442655 0.22550501 -0.017165082 -0.05006011
0.1720976 0.51307 0.029444134 -0.14274812 0.3038252 -0.18956354 0.012507062 0.19642146
-0.3401097 0.15626487 -0.06618092 -0.2281858 0.04502658 0.2118709 -0.29903585 -0.062921256
-0.042117935 -0.048925452 -0.02698477 0.15186453 0.047788125 -0.0106648505 -0.024786323 -0.027358027
0.066129304 0.04844328 0.12280696 0.027590826 0.11790174 -0.0837391 0.09646163 0.16733705
0.02995325 0.20050454 0.19157472 -0.11182236 0.4310073 0.0036015152 -0.16683683 -0.36803
0.09872865 0.18303166 0.27683905 -0.019613128 -0.063522466 0.06549102 -0.025980929 -0.00689582
-0.057684686 0.036813404 0.05164951 -0.0871608 0.19196604 -0.031451613 0.33106643 0.05847181
-0.2808202 -0.25362617 -0.11930396 -0.018439097 0.054000996 0.13662404 -0.16003682 0.21047182
0.03921148 0.1095054 -0.03194706 0.042547792 0.0988157 0.06470389 0.3993248 0.16332072
-0.06596935 0.29340568 -0.10278272 -0.003513841 -0.049553733 0.19266927 0.32005024 -0.0012744886
0.208644 0.026297439 -0.042678345 0.054006446 0.19301769 0.13169348 0.10404544 0.09324383
-0.098719515 -0.016605502 0.10402088 0.17741235 0.07497327 0.037293516 -0.17483893 -0.2267075
-0.21068446 -0.0938938 0.14801419 -0.04091859 0.11526777 0.0681498 0.23781952 -0.17043251
0.11982674 -0.0955136 0.1972856 0.11154946 -0.10070612 -0.14614238 0.22438891 -0.21540932
0.38321313 0.32151026 -0.105243616 0.13692652 0.12530567 0.18028736 -0.08237277 0.066805154
0.04017099 0.16372061 -0.09972283 0.075024694 0.10168435 -0.20873089 0.17721286 0.09368052
-0.30578038 -0.0130884005 0.01002317 -0.04574464 0.0861968 -0.16754662 0.20355864 -0.091654055
0.21036701 0.0114215305 -0.14832775 0.12617412 -0.06256659 -0.07327432 0.18889117 -0.35180438
-0.100593425 0.032736644 -0.3001602 -0.010168359 -0.14498416 0.05640878 0.19023763 -0.10709755
-0.034147244 -0.060209945 0.09693535 -0.1164721 0.43150574 0.13879625 0.25952256 0.056970153
-0.10038914 0.022216441 0.2040258 0.20974082 0.1591257 -0.2406498 0.07628947 0.32857737
-0.26124653 0.10181958 0.09730782 0.08450959 0.17072313 -0.17566557 -0.44458222 -0.14378038
0.07375285 0.21810722 0.057747032 0.16789418 -0.30727845 -0.3357767 -0.037228372 -0.028205104
0.11634088 0.13775513 -0.09581107 -0.00024148845 0.11767161 -0.117519595 -0.3258801 -0.0098251635
0.0044511054 -0.1255671 -0.025292747 -0.02131235 0.13900332 -0.09931504 -0.063386194 0.1095404
00000000: aa65 ee3b a8f3 32be 6975 47be 407d b83e
00000010: cf09 d8bd 8a91 5a3d e0c6 0b3e c431 8a3b
00000020: b089 1c3d 6188 82bd 8fc2 d4be cd7a 19bd
00000030: fe60 90bd eff1 20bd 90ca 4abe 786b 7bbe
00000040: 7643 9bbe 3fa0 643e ca4b 553d 9d5e 0bbf
00000050: b70f 253c 1609 bfbd 4f60 c2be bf13 e43d
00000060: c294 a7bc f98c 7cbb 07cc 23be 4daf e4bd
00000070: edc6 09be 4300 a6be bcf5 a13d f6b6 c43e
00000080: 6a6b c73d c1de 493e d637 7dbb 6f33 afbd
00000090: cfbd 13be 3c68 983e 1a56 253e fe41 333d
000000a0: a5ef 083e 02a3 ffbd 3f50 903e 31c6 1a3e
000000b0: 36b0 583e b94c a63d 9b8a 51bd 0304 673b
000000c0: 007f e23d 63c1 a73e 9431 bcbc 2378 58be
000000d0: 0c3c e4bd c9ea 663e c99d 8cbc d40b 4dbd
000000e0: 5a3a 303e 8e58 033f d334 f13c 902c 12be
000000f0: fa8e 9b3e f21c 42be 6cea 4c3c b522 493e
00000100: dc22 aebe e603 203e dd89 87bd 8aa9 69be
00000110: cb6d 383d aff4 583e 3a1b 99be dcdc 80bd
00000120: db83 2cbd 0e66 48bd 2a0f ddbc 6082 1b3e
00000130: 7bbd 433d a0bb 2ebc b00c cbbc f11d e0bc
00000140: cd6e 873d 766c 463d 3782 fb3d 2806 e23c
00000150: 7876 f13d 687f abbd ad8d c53d 675a 2b3e
00000160: 8560 f53c 1051 4d3e 2a2c 443e 1f03 e5bd
00000170: fdac dc3e 6607 6c3b 46d7 2abe 6e6e bcbe
00000180: 3f32 ca3d a76c 3b3e d9bd 8d3e b6ab a0bc
00000190: 1118 82bd 2820 863d f5d5 d4bc 55f6 e1bb
000001a0: c746 6cbd a7c9 163d 708e 533d 5d81 b2bd
000001b0: bf92 443e 68d3 00bd 8a81 a93e 2380 6f3d
000001c0: aac7 8fbe 4adb 81be a255 f4bd 970d 97bc
000001d0: 2630 5d3d 2ce7 0b3e b1e0 23be ed85 573e
000001e0: 389c 203d 5e44 e03d ecda 02bd 9846 2e3d
000001f0: e35f ca3d 7983 843d 4d74 cc3e 8c3d 273e
00000200: f01a 87bd 4539 963e bf7f d2bd 7848 66bb
00000210: dbf8 4abd 184b 453e a0dd a33e be0c a7ba
00000220: c6a6 553e ba6d d73c 7dcf 2ebd dd35 5d3d
00000230: 6ea6 453e a8da 063e c715 d53d 9ff6 be3d
00000240: 752d cabd 4308 88bc e608 d53d 95ab 353e
00000250: 968b 993d 16c1 183d fa08 33be 0326 68be
00000260: abbd 57be 654b c0bd 0891 173e 409a 27bd
00000270: 8211 ec3d 1f92 8b3d f686 733e dc85 2ebe
00000280: b967 f53d a29c c3bd 3c05 4a3e 0b74 e43d
00000290: 033f cebd 59a6 15be 35c6 653e 4394 5cbe
000002a0: 8334 c43e fe9c a43e f789 d7bd 7736 0c3e
000002b0: 2150 003e 409d 383e 0eb3 a8bd 24d1 883d
000002c0: 568a 243d 60a6 273e 7c3b ccbd 8ca6 993d
000002d0: e23f d03d 8dbd 55be 4a77 353e 93db bf3d
000002e0: 3f8f 9cbe bb70 56bc 3938 243c bb5e 3bbd
000002f0: f387 b03d 5791 2bbe ad71 503e 1fb5 bbbd
00000300: 736a 573e 5f21 3b3c 3be3 17be ca33 013e
00000310: ea22 80bd d910 96bd b06c 413e b41f b4be
00000320: ed03 cebd dc16 063d 99ae 99be 3099 26bc
00000330: ba76 14be e50c 673d a7cd 423e f655 dbbd
00000340: fbdd 0bbd b49e 76bd 0a86 c63d ed88 eebd
00000350: 52ee dc3e 9b20 0e3e 24e0 843e 8959 693d
00000360: d298 cdbd 41ff b53c 24ec 503e 4cc6 563e
00000370: d9f1 223e e76c 76be a73d 9c3d 4b3b a83e
00000380: 1bc2 85be c986 d03d 5349 c73d 5d13 ad3d
00000390: 0bd2 2e3e ade1 33be 48a0 e3be 2a3b 13be
000003a0: bc0b 973d 8057 5f3e 2788 6c3d 74ec 2b3e
000003b0: 9a53 9dbe ecea abbe c77c 18bd 640e e7bc
000003c0: 2144 ee3d ae0f 0d3e 9838 c4bd 1038 7db9
000003d0: d0fd f03d 1dae f0bd c2d9 a6be b9f9 20bc
000003e0: 94da 913b a994 00be bc32 cfbc 3d97 aebc
000003f0: e356 0e3e af65 cbbd 9fd0 81bd b856 e03d

network_body._body_endoder.seq_layers.2.bias f4 [128]
0.0013845116 0.043456748 0.028275063 0.033686798 0.024150532 0.032547485 0.03013719 0.029358855
0.02182948 0.030961113 0.03680892 -0.0055087707 0.062897325 -0.037225753 0.008083236 0.008597984
0.021753179 -0.027226036 -0.033301078 0.03245623 0.021772712 0.03221686 0.036557026 0.03236746
0.030506045 0.0027179127 0.010256852 0.034128234 -0.015927702 0.0027853083 0.026298152 0.0063800304
0.035555895 0.052458473 0.018832356 0.04060229 0.03760645 0.051059492 0.014268687 0.022018649
0.024130892 0.03493768 0.034942303 0.029435491 0.03147309 0.028749315 0.03315378 0.021133758
0.038508244 0.04804434 0.046037573 0.02804535 0.00767891 0.019964816 0.03508212 0.01819792
0.026909493 0.0302285 0.026629845 0.0307387 -0.04028841 0.024312817 0.03710151 0.026624046
0.038514156 0.0071659684 0.043173097 0.021946527 0.016952401 0.005867522 0.023039611 0.024909578
0.039197814 -0.020659517 0.036075223 0.0028493572 0.01477812 0.010207277 0.017058663 0.046441346
0.027640121 0.02430764 0.043680515 0.04041461 0.005871172 -0.023739437 0.024309583 0.025791064
0.03701678 0.01670556 0.022451138 0.023033801 0.024357025 -0.023015585 0.012653571 0.045801334
0.038061902 0.040202633 -0.026871765 0.036066912 0.030438516 0.01015405 0.02913454 0.02518578
0.03671999 0.020553665 0.03703627 -0.03946323 0.02731113 0.029222816 -0.031510413 0.007865487
0.03519088 0.04591 0.040554397 0.019040868 0.023829067 -0.041041873 0.008121028 0.042320676
0.04495713 0.03475992 0.037203196 0.00018605005 0.026361914 0.02943875 0.03161996 0.011678602
00000000: 8078 b53a b4ff 313d 1ba1 e73c 2bfb 093d
00000010: 56d7 c53c 8350 053d 45e2 f63c fb81 f03c
00000020: bdd3 b23c 29a2 fd3c f3c4 163d eb82 b4bb
00000030: 50d0 803d 087a 18bd 8d6f 043c 8fde 0c3c
00000040: b933 b23c 2309 dfbc b666 08bd d3f0 043d
00000050: b05c b23c d4f5 033d d2bc 153d be93 043d
00000060: d0e7 f93c 021f 323b 5b0c 283c 0cca 0b3d
00000070: d07a 82bc b889 363b 396f d73c 930f d13b
00000080: 0fa3 113d b2de 563d 5046 9a3c 964e 263d
00000090: 3909 1a3d c223 513d 36c7 693c 7460 b43c
000000a0: 26ae c53c d01a 0f3d a91f 0f3d b322 f13c
000000b0: ede9 003d af83 eb3c 42cc 073d b420 ad3c
000000c0: d2ba 1d3d 24ca 443d e591 3c3d 5dbf e53c
000000d0: 5e9f fb3b 418d a33c 45b2 0f3d ce13 953c
000000e0: 4c71 dc3c c2a1 f73c d526 da3c bacf fb3c
000000f0: 7605 25bd ac2b c73c c1f7 173d ac1a da3c
00000100: 05c1 1d3d 80d0 ea3b 46d6 303d 34c9 b33c
00000110: c3df 8a3c 5844 c03b 91bd bc3c 2c0f cc3c
00000120: e38d 203d 263e a9bc 9dc3 133d 48bc 3a3b
00000130: ee1f 723c 6c3c 273c 9cbe 8b3c 4839 3e3d
00000140: 896d e23c d120 c73c 57ea 323d ca89 253d
00000150: f662 c03b 3579 c2bc e424 c73c c847 d33c
00000160: e89e 173d 19da 883c 73eb b73c 62b1 bc3c
00000170: 6288 c73c 2e8b bcbc ec50 4f3c 2e9a 3b3d
00000180: cce6 1b3d 84ab 243d 2d22 dcbc e6ba 133d
00000190: 325a f93c 2c5d 263c 8fab ee3c 6952 ce3c
000001a0: b367 163d 2960 a83c 58b3 173d 32a4 21bd
000001b0: 97bb df3c b064 ef3c 1011 01bd 3ede 003c
000001c0: 5024 103d 200c 3c3d 5e1c 263d 98fb 9b3c
000001d0: 2d35 c33c 861b 28bd 0f0e 053c 7258 2d3d
000001e0: f824 383d 6b60 0e3d 6162 183d 6e16 4339
000001f0: f1f4 d73c 8929 f13c ee83 013d 9b57 3f3c

network_body._body_endoder.seq_layers.2.weight f4 [128, 128]
0.14554602 0.01578317 0.058568776 0.04743365 0.10857008 0.03057296 -0.056899335 0.040442433
0.08567133 0.08538778 0.07815073 0.075051576 0.018331613 -0.03473927 -0.047590964 0.074688904
-0.027074337 -0.07854849 0.0844946 -0.083058655 0.052005067 0.07534972 -0.19706261 0.078445226
0.08357389 0.12264287 0.22010635 0.043663923 -0.084074974 0.052870974 0.07376627 0.09859375
0.039257836 -0.014471432 0.02392924 -0.0146286 -0.008807331 -0.14593238 -0.029951787 0.13929868
0.0018696936 -0.1399398 0.109366596 0.011944514 0.04827019 0.07972562 -0.034320604 -0.114823475
0.09208136 0.18934982 -0.0077572577 -0.13422371 0.025197491 0.05403808 0.112843916 0.07121111
-0.1043919 -0.015073625 0.06198251 -0.0079853 0.088100046 -0.04703887 0.15323485 0.11896491
-0.034755148 -0.024521992 -0.031146169 0.029277327 -0.05515427 -0.066598035 -0.023378218 -0.05884065
-0.11689657 0.019977657 -0.02801081 0.01589316 0.08571654 -0.11968485 -0.08335163 -0.010585293
-0.035481498 0.036452316 -0.00357417 0.020806752 -0.16848283 0.07288914 0.30250445 0.08743302
-0.12643185 -0.016973345 -0.01169418 0.1858274 0.0049916035 -0.024061736 -0.14256847 0.08684098
0.08249126 0.16074193 -0.07193517 0.12642708 0.089411184 0.04245652 -0.11860027 -0.15544073
-0.038651418 0.010756425 -0.095330045 0.004872751 0.043495502 -0.05233086 0.07586169 -0.0590536
-0.082548425 0.0051225284 -0.04353772 0.09189243 -0.05344654 0.07568061 -0.022696787 -0.019980526
0.042775802 0.08099195 -0.024940405 -0.03913446 -0.09614856 -0.06995678 0.027081039 0.044870354
-0.097269215 0.05920055 -0.13201863 -0.12768571 0.026342567 -0.14054492 -0.002872121 0.0860549
-0.035284027 0.05971155 -0.21586522 0.05048036 -0.072960615 -0.18040213 -0.058601767 0.07676258
0.099807635 -0.14829119 0.060242992 -0.077290274 -0.0094066765 0.05888649 0.13562058 -0.07176085
0.0043054237 -0.07735491 0.013749791 0.1484717 0.11309219 -0.07421355 -0.18719657 0.012323617
0.13644658 -0.29080608 -0.1906283 -0.022514153 0.18891227 -0.085646346 -0.015255831 -0.036645167
0.011075173 0.22433682 -0.0324796 -0.05457566 0.0860916 -0.0073149484 0.08930818 0.06153046
-0.11779321 0.3018152 -0.08092665 0.10181303 0.014023051 0.12108472 -0.0774002 0.120175526
0.062485717 0.049969256 -0.025648305 0.11471562 -0.12206147 -0.02431242 -0.0483525 -0.13954501
0.09900423 0.013210461 -0.111220464 -0.15866302 0.14919175 -0.04685855 0.19242467 -0.010705488
0.09003199 -0.08751878 -0.08331903 0.07202523 0.08148906 0.051459372 0.13963586 -0.07779924
-0.08678002 0.009119753 -0.0010378921 -0.015978541 0.117848255 -0.064008094 0.11987381 -0.029116662
-0.036162913 0.030301096 0.11336432 0.05413409 0.06883402 0.021478387 -0.12832315 -0.0223492
0.060378373 -0.022573654 0.070443235 0.08920606 0.097710714 -0.013014338 -0.028410077 -0.13756631
-0.18030508 -0.14719033 0.1596251 -0.005363072 -0.078838125 -0.0501372 0.1798046 -0.026600467
-0.023405703 0.08844852 -0.07896221 0.028173186 0.031175014 0.05637644 0.115601815 -0.1682069
0.029897178 0.24442399 0.030298596 0.2134042 -0.14691316 -0.073717624 0.14500712 0.08126698
00000000: 040a 153e b54b 813c d0e5 6f3d c949 423d
00000010: fd59 de3d 2574 fa3c 470f 69bd f7a6 253d
00000020: 7374 af3d cadf ae3d 7d0d a03d a4b4 993d
00000030: 2e2c 963c c44a 0ebd beee 42bd 7ff6 983d
00000040: 00cb ddbc 08de a0bd 810b ad3d a81a aabd
00000050: 4403 553d f450 9a3d c8ca 49be e4a7 a03d
00000060: ca28 ab3d 2f2c fb3d 8f63 613e f1d8 323d
00000070: 802f acbd 3c8f 583d c512 973d 85eb c93d
00000080: d3cc 203d 9619 6dbc 4107 c43c ccac 6fbc
00000090: a04c 10bc 4c6f 15be 735d f5bc 50a4 0e3e
000000a0: 8210 f53a 614c 0fbe 98fb df3d ecb2 433c
000000b0: f6b6 453d 3047 a33d c393 0cbd 9228 ebbd
000000c0: 2795 bc3d ebe4 413e 9830 febb f171 09be
000000d0: f86a ce3c 0957 5d3d b61a e73d 21d7 913d
000000e0: 6ccb d5bd 5ef7 76bc 5fe1 7d3d c7d4 02bc
000000f0: cc6d b43d d5ab 40bd 99e9 1c3e e0a3 f33d
00000100: 6a5b 0ebd 58e2 c8bc 4026 ffbc 01d7 ef3c
00000110: 72e9 61bd 8d64 88bd ad83 bfbc e502 71bd
00000120: 7867 efbd 2fa8 a33c ed76 e5bc 5f32 823c
00000130: 278c af3d 551d f5bd 42b4 aabd f06d 2dbc
00000140: 0c55 11bd 064f 153d 9f3c 6abb ec72 aa3c
00000150: c386 2cbe e746 953d dde1 9a3e 1510 b33d
00000160: 5a77 01be af0b 8bbc f298 3fbc 8a49 3e3e
00000170: 9b90 a33b 1e1d c5bc 78fd 11be afd9 b13d
00000180: 2df1 a83d 8899 243e bf52 93bd 1a76 013e
00000190: 361d b73d e3e6 2d3d b3e4 f2bd db2b 1fbe
000001a0: f350 1ebd b73b 303c 663c c3bd 99ab 9f3b
000001b0: 5728 323d e258 56bd 605d 9b3d 30e2 71bd
000001c0: 260f a9bd e2da a73b 9c54 32bd 1932 bc3d
000001d0: c2ea 5abd 70fe 9a3d 9dee b9bc 33ae a3bc
000001e0: ae35 2f3d 1cdf a53d d24f ccbc 754b 20bd
000001f0: 89e9 c4bd 8045 8fbd 0ed9 dd3c fac9 373d
00000200: 1535 c7bd 477c 723d e42f 07be 0bc0 02be
00000210: 5ecc d73c 02eb 0fbe 323a 3cbb 8d3d b03d
00000220: fc85 10bd 1994 743d c60b 5dbe 7ec4 4e3d
00000230: 606c 95bd 56bb 38be 6808 70bd b335 9d3d
00000240: f267 cc3d a5d9 17be 5bc1 763d 5d4a 9ebd
00000250: 761e 1abc f632 713d 1fe0 0a3e 5af7 92bd
00000260: 8314 8d3b 406c 9ebd ce46 613c f708 183e
00000270: e19c e73d 46fd 97bd 75b0 3fbe ffe8 493c
00000280: a7b8 0b3e 89e4 94be 1134 43be 9a6f b8bc
00000290: 3872 413e 5a67 afbd 98f3 79bc 3e19 16bd
000002a0: a474 353c 8db8 653e 5409 05bd ba8a 5fbd
000002b0: cb50 b03d 3cb2 efbb 35e7 b63d 5d07 7c3d
000002c0: 913d f1bd 8687 9a3e dfbc a5bd 5a83 d03d
000002d0: f0c0 653c 44fb f73d ff83 9ebd 961e f63d
000002e0: 06f1 7f3d 90ac 4c3d 651c d2bc 06f0 ea3d
000002f0: 5dfb f9bd d72a c7bc 450d 46bd e3e4 0ebe
00000300: bbc2 ca3d b070 583c 8ec7 e3bd 8f78 22be
00000310: b9c5 183e c0ee 3fbd f90a 453e 1266 2fbc
00000320: b162 b83d 0c3d b3bd 2ba3 aabd f781 933d
00000330: bce3 a63d 10c7 523d b4fc 0e3e 3555 9fbd
00000340: b9b9 b1bd 046b 153c e109 88ba 6ee5 82bc
00000350: 6d5a f13d ad16 83bd 6680 f53d 1186 eebc
00000360: 901f 14bd 013a f83c 8d2b e83d b5bb 5d3d
00000370: daf8 8c3d 71f3 af3c 2567 03be ab15 b7bc
00000380: 504f 773d 62ec b8bc 8b44 903d abb1 b63d
00000390: 8e1c c83d 173a 55bc 40bc e8bc 2fde 0cbe
000003a0: e5a1 38be 10b9 16be c374 233e b5bc afbb
000003b0: e275 a1bd aa5c 4dbd b21e 383e 39e9 d9bc
000003c0: 51bd bfbc 7f24 b53d f0b6 a1bd 74cb e63c
000003d0: be62 ff3c fbea 663d a5c0 ec3d 6e3e 2cbe
000003e0: edea f43c 484a 7a3e c334 f83c a186 5a3e
000003f0: 6770 16be 44f9 96bd bf7c 143e 4d6f a63d
